models/maddpg/best_agent_5_VolumeAnalyst.pt (torch, 611989 bytes, 20 tensors)

net.0.weight f4 [256, 30]
00000000: 0e32 93bd 78af 743d 6c8e 2f3e d014 1cbd
00000010: 1482 5bbd 2079 b43b a47c 19bd b86d 5ebd
00000020: 000c 993b a0af 133d 40e9 8c3d 784a cf3d
00000030: ca3a 22be 4cce 2b3d 2a48 6dbd 407e 783b
00000040: 8c94 973d ccc8 2ebd 1013 d03d f01c 0abc
00000050: 5871 ef3d e889 cd3d 0cfc d5bd 24e7 bf3d
00000060: f691 a4bd fc9b 6bbd 62a3 033e e81e c7bd
00000070: d0bb 74bd c890 143e b0cf 45bd 55a3 d6bd
00000080: c03d d43d aa15 16be 70f9 e7bd d041 7d3c
00000090: 68fa b83d 3c4a c03d 4a98 24be 601a 9d3d
000000a0: a064 3bbc b077 633d b82f b13d 643b 323e
000000b0: 6090 ed3c 621b 243e 20e6 d1bd 6067 0d3d
000000c0: d5a8 96bd 900c f53d 87c6 14be 9089 e23c
000000d0: bfaf d2bd ca31 1f3e f7d2 2fbe 1481 5dbd
000000e0: 5a11 263e c883 d13d 6c45 be3d 505b 48bc
000000f0: ee6b 21be c054 913b f443 9e3d 3cc0 b43d
00000100: d4e0 0d3d 1ea0 273e 88ce e4bc 8e70 bebd
00000110: e187 efbd da5e b1bd b4a7 fb3d f08d d73d
00000120: 3135 12be 92d6 36be 60bb 50bd e827 163d
00000130: 9011 103d 60db a73c c483 38be 46d6 e9bd
00000140: a46e 65bd 9c96 113d 8cf5 f03d 387d 283d
00000150: 780f 003e c27d 083e 2a64 33be e43b fe3d
00000160: 02db 30be 90e6 d2bd 9822 b6bd 5017 26bc
00000170: b493 333e f09b e13c d0e4 643c 1501 9abd
00000180: b83c fa3d 2bdf 1ebe 9af0 183e 23b3 f6bd
00000190: f222 0c3e 22f1 0f3e c83a 0e3e d071 e73d
000001a0: cf2b f4bd 6a77 113e 1806 60bd ba96 c9bd
000001b0: 0a9d c3bd dc86 283e b01b 933d e85c d23c
000001c0: 8a9e acbd c2b4 efbd 4e1a 1dbe 0ccd a33d
000001d0: 34a8 8c3d 26b3 c8bd 54b1 b33d 2dfa cebd
000001e0: 7083 523c 6827 2dbd e0d3 cb3d 1cef 183e
000001f0: d2d0 173e c2bf d3bd 7005 dcbd 71c0 0ebe
00000200: 0c3d b13d c069 073b 8089 9d3d 788a 6a3d
00000210: 7063 fcbd 1c2a 27be 08bf 8abd cad9 31be
00000220: 9592 37be e155 28be b61c 0a3e bc6a 153e
00000230: e827 203e 481d 82bc 0cb5 193e fc0e ab3d
00000240: 344e 283e 3898 4e3d e07a 113c 048f b53d
00000250: 2453 f23d bccd b2bd c0b1 723c 1049 3abe
00000260: f062 633c ab13 d9bd 1519 e2bd f8c0 c93c
00000270: f662 22be bea2 0cbe 5051 6fbc 5ef6 343e
00000280: 0049 283b 901a 01bc bc0f 37be 3cc1 2f3e
00000290: 00f1 fdbc 7c0d 223e a636 15be f69e 0b3e
000002a0: 0f01 97bd 1856 83bc 3232 2f3e dc13 b9bd
000002b0: 27eb c8bd 2086 21be 721c 393e 0cb1 553d
000002c0: 668d 143e b0b7 39be 1864 e4bd 70e5 5bbd
000002d0: c4fb 943d 64aa 193e d854 cbbc 38c2 13bd
000002e0: a0fb d13b 4cc2 023d e1a3 24be eee3 09be
000002f0: 7dd6 d6bd 24c1 c63d 2051 413c 4b03 b2bd
00000300: c0f0 2ebb 684f 2f3e 5988 f3bd 78ca fa3d
00000310: bc47 cbbd f829 1f3e a1ac 35be cc6b 00bd
00000320: cf5b 90bd 998f a0bd 84b4 c53d 08f3 cb3d
00000330: d06a 153c 18e2 033e 18ee 3cbd 58d3 053e
00000340: bda4 b7bd a892 b03d 54bf d53d d0a8 913d
00000350: 447d 223d 4a8c 1c3e fca0 413d 12b2 0dbe
00000360: 1c1b 03be f9f9 22be 300f 1d3c 3295 3abe
00000370: c401 113d 28e9 943d 48d5 ab3d b8b6 f1bc
00000380: c2a5 843d fcc8 0e3e 3ebe 8abd c8e9 39bd
00000390: 905b 39bc 8814 c73d ea83 1f3e 786e a63d
000003a0: 5655 343e 767d 29be c82a 10bd 1c2b 8b3d
000003b0: e0dc 20be c780 36be 6ad7 833d 18c4 013e
000003c0: f003 c53c 7827 2d3e f07a 993c a456 323e
000003d0: da5b 273e 60fb 2bbc c0bd 893c 2137 ffbd
000003e0: f89b 08be e8ad 163d b017 3f3c 00c9 2cbe
000003f0: 3017 a83d 968b 223e 0039 d33d f09b eabc
-0.071872815 0.059737653 0.17144173 -0.038105786 -0.05359085 0.0055076033 -0.037472382 -0.054303855
0.00467062 0.03605616 0.068804264 0.10121626 -0.15842739 0.041944787 -0.05793015 0.0037917048
0.0740138 -0.042671964 0.10159886 -0.008429751 0.116915405 0.10036069 -0.10448465 0.093702585
-0.08035652 -0.057521805 0.12855294 -0.09722692 -0.059749424 0.14508355 -0.04829377 -0.10480372
0.103633404 -0.14656702 -0.11326873 0.015457585 0.09032136 0.09389159 -0.16073719 0.07671046
-0.011437565 0.055534065 0.0865168 0.17405468 0.028999507 0.1602607 -0.10248971 0.034522414
-0.07356421 0.11965287 -0.14528857 0.027653486 -0.10287427 0.15546337 -0.1717032 -0.054078177
0.16217557 0.102302134 0.09290585 -0.012228802 -0.15763828 0.004435152 0.07727805 0.08825728
0.03463824 0.16369674 -0.027930513 -0.09298812 -0.11695839 -0.086606696 0.12287846 0.10525119
-0.14278103 -0.1785529 -0.050959945 0.03665915 0.035173 0.020490348 -0.18019015 -0.114178225
-0.05601372 0.035544023 0.11765584 0.041135043 0.12505901 0.13329223 -0.17518678 0.12413767
-0.17271045 -0.102978826 -0.08893317 -0.010137394 0.17536813 0.027540177 0.013970569 -0.07519738
0.122186124 -0.1551482 0.14935532 -0.12045886 0.13685206 0.14056829 0.13889611 0.11301005
-0.11922418 0.14205709 -0.05469331 -0.09843202 -0.09551437 0.16457695 0.07183015 0.025679067
-0.084286764 -0.11704399 -0.15342066 0.07998094 0.0686802 -0.09799795 0.08774057 -0.10106311
0.01284872 -0.04227391 0.09952521 0.14934963 0.14825752 -0.10339309 -0.107432246 -0.13940598
0.08654222 0.0020662397 0.07692242 0.05726096 -0.12323654 -0.16324657 -0.067747176 -0.17368236
-0.1792701 -0.1643901 0.13487515 0.14591497 0.15640223 -0.015883103 0.1501047 0.083524674
0.16436082 0.050438136 0.008879393 0.08865169 0.11832264 -0.08730647 0.014812887 -0.18191934
0.013878569 -0.105994545 -0.1103994 0.024628147 -0.15858063 -0.13733956 -0.014606789 0.17672107
0.0025678277 -0.007879868 -0.17877096 0.17163557 -0.030998707 0.15825456 -0.14571628 0.13634858
-0.07373249 -0.016032264 0.17108992 -0.09036991 -0.09810477 -0.15773821 0.18077257 0.0521708
0.14507064 -0.18136477 -0.11151904 -0.053685606 0.07274583 0.15006405 -0.02482073 -0.036073893
0.00640817 0.031923577 -0.1607814 -0.13465855 -0.10490129 0.097048074 0.011799127 -0.08692034
-0.002669379 0.17120135 -0.118912406 0.12245649 -0.099257916 0.15543354 -0.17741634 -0.031352803
-0.07048761 -0.07839889 0.09653571 0.09958464 0.009119704 0.12879217 -0.0461255 0.13068902
-0.08966968 0.086217225 0.104368836 0.071122766 0.039670244 0.15287891 0.047272667 -0.1383746
-0.1280331 -0.1591567 0.0095861405 -0.18220976 0.035402074 0.072710335 0.083902895 -0.029506072
0.06476928 0.13943857 -0.06774567 -0.045388967 -0.011313334 0.09720713 0.15577665 0.08126539
0.17610678 -0.16551766 -0.03519705 0.06795332 -0.15709257 -0.17822562 0.06437571 0.1267246
0.02404973 0.16909587 0.018735379 0.17415863 0.16343632 -0.010496944 0.016814113 -0.12461687
-0.13340747 0.036786944 0.011663362 -0.1687355 0.08207548 0.1587356 0.10313606 -0.02863881

net.0.bias f4 [256]
00000000: e8f4 a13c a0d3 c8bd fc24 603d 8aaa 7cbd
00000010: fccf c83d f063 e93d 0a88 e5bd 44e2 e5bd
00000020: d880 e03d 00c7 0d3d 6ceb 993d 1c61 033e
00000030: 00e7 68bc 3407 12bd b0cf b13d 987a 9f3d
00000040: e03b c83d 505c a6bc 16ff 14be 0c1b bd3d
00000050: 2c6c 073d 84e0 983d 27ed 01be 8a94 09be
00000060: 9a44 d7bd 5083 4fbc 88c1 2abe bc37 c93d
00000070: 80fa 483d f8c1 c73c e921 9abd 8098 373d
00000080: 5882 333e 206d 2dbc 7c8c 043d 1646 34be
00000090: c4a5 193d 5cc3 833d 40ca aebd c6f2 393e
000000a0: c516 e0bd b48e ab3d 46b2 2a3e 7ca3 2fbd
000000b0: 228f 21be 84f9 593d e0a7 6abd 8cce bebd
000000c0: f887 ebbd 9455 3b3d 780f 1abd 1ec7 0c3e
000000d0: 31b4 0fbe 2cf2 7abd 1449 c43d 3484 a23d
000000e0: 16d6 043e 7988 bebd 48e3 963d f859 e43c
000000f0: b947 24be aeb2 393e 1a55 7bbd 6005 ecbc
00000100: 5848 12be 4c4c da3d b0fb dabc 0c9e 093d
00000110: a46d 383e 000a 063b b0cf cb3c 6a81 cabd
00000120: 808c 483b 8258 313e cce5 02bd 1270 0b3e
00000130: 7d46 b5bd 80f4 0a3e 4c59 34be 2495 37be
00000140: 16e6 2fbe 782f 293e b493 e43d b430 46bd
00000150: 4a0d 14be 4064 eebd 0c98 343e 00a0 e63a
00000160: c45b 0d3e 48ea 923d 7088 4bbd 2f3e e7bd
00000170: 27ec 1ebe 6094 393e 0f76 dfbd 74e1 c03d
00000180: 5fc4 0fbe 955b 1cbe e047 003d 08b8 85bd
00000190: e065 1f3d 8079 99bc 1ce9 9e3d 00d6 1bbe
000001a0: 7811 d2bc bada 1a3e c479 1d3d 102a 7b3d
000001b0: ece8 253d 5c37 bd3d c8f7 6f3d 7051 cf3d
000001c0: 2c4e 88bd f42f c83d 28a1 94bd 5cff ec3d
000001d0: 3894 8abc c00e bc3b c031 ffbc 50cb 7f3d
000001e0: 8e7b a1bd 5c7e c63d 3ac3 0dbe 1863 cf3d
000001f0: 4cea 13bd 82f7 123e 9065 043e 2263 38be
00000200: 0070 8db9 b688 bebd 2849 dcbc 83ce a9bd
00000210: 9416 ad3d 2c31 d23d 56e1 203e f0aa da3d
00000220: 7285 99bd ab24 88bd c427 853d 54df bdbd
00000230: d251 333e f71c 00be 401f 573c 61fa 2fbe
00000240: 204c cebc a2f6 d7bd 27fc eabd 1c0f b53d
00000250: d88a fb3d 860a 103e 4920 bfbd 9067 3e3c
00000260: d8c5 343e bfc1 1fbe 4efc 8cbd c0c8 283b
00000270: 9af6 823d 2e10 163e e087 933d 61dd bdbd
00000280: 13df 13be f0fa b13c e54c 93bd df16 19be
00000290: b8e6 043e 7a95 9dbd 3b3a f3bd 1033 683c
000002a0: 6cc4 03bd 4850 c33c fca9 0e3e e6b6 273e
000002b0: a8ee 22be 90df 52bd c4cd 1dbe 4463 043e
000002c0: 78e2 d6bc 707d d13c ebf9 38be 1d27 bdbd
000002d0: 60ef 7d3c e092 d3bb f2f1 1c3e f0ca 513c
000002e0: 703a 2e3c c864 abbc 2c62 fbbd 9c5d 333e
000002f0: 001d fa3d 1200 b8bd 3299 223e a0ef d93c
00000300: 56b1 023e 28e9 913d a857 e63d 7868 453d
00000310: 98be b03d 2ede 203e 5455 23be cc18 603d
00000320: bb4e 88bd f5f0 f5bd 500f 633d c0d0 373b
00000330: 8eef 22be f840 503d 0458 0f3e 84a4 a4bd
00000340: 18b4 bebc 04c5 1d3e a8aa c63d f83d e93d
00000350: a46c 30be c81a 9fbd 644b b7bd 404d a5bd
00000360: ec9d 443d 5c0d 5f3d 56b5 2ebe b4c5 22bd
00000370: 0f3a 35be 90ee 9d3d 68b3 49bd 88f2 0f3e
00000380: fcce 013d 661b 2c3e df34 27be c880 52bd
00000390: 84bb 153e 1ca5 87bd 30cd 0fbc 54a7 66bd
000003a0: b8e9 fabd b038 29be c06f 093e e390 bcbd
000003b0: b053 fbbc 5c10 f73d 3236 133e c5e6 34be
000003c0: 3e2e 0a3e 2859 7c3d 2809 84bc 90f6 1b3e
000003d0: eaca 023e bc7e b93d 407f 0e3d fa5f 9fbd
000003e0: 5857 4e3d f09a 91bc 7899 f73c 3c0f f93d
000003f0: 78b2 e83d 89a7 32be cce8 fbbd 827d 1a3e
0.0197701 -0.09805989 0.05472277 -0.061686076 0.09805295 0.11396015 -0.11207588 -0.11224797
0.10962075 0.03461361 0.07515606 0.12830013 -0.014215231 -0.0356514 0.08682191 0.07787055
0.09777045 -0.02030769 -0.14550433 0.092336744 0.033062145 0.07464698 -0.12688123 -0.1343557
-0.105111316 -0.012665585 -0.16675389 0.098250836 0.04906702 0.024384484 -0.07525999 0.04482317
0.17530191 -0.010585099 0.03236054 -0.1760486 0.037511602 0.06433746 -0.0853467 0.18159017
-0.10941843 0.08376828 0.16669568 -0.04288052 -0.15777257 0.053216472 -0.057289004 -0.093167394
-0.11500543 0.04573591 -0.03761241 0.13747832 -0.14033581 -0.06126611 0.09584251 0.07935372
0.12972292 -0.09303374 0.07367569 0.027874932 -0.16042985 0.18134567 -0.061360456 -0.028811157
-0.1428541 0.10659084 -0.026731342 0.03359799 0.18010575 0.0020452738 0.024879307 -0.09887965
0.0030601323 0.1731892 -0.031957433 0.1361697 -0.08851335 0.13569832 -0.17612189 -0.17927986
-0.17177615 0.16522014 0.11160985 -0.04838629 -0.14458194 -0.11640215 0.17636126 0.0017595291
0.13804537 0.07173592 -0.049690664 -0.112911575 -0.15519772 0.18123007 -0.1091119 0.09418002
-0.14039753 -0.15269311 0.031318545 -0.06529242 0.038915515 -0.018734694 0.07759306 -0.15218353
-0.025643095 0.151225 0.038446203 0.06131941 0.040505335 0.092390746 0.058585912 0.10122955
-0.06655535 0.09774771 -0.072573006 0.115721434 -0.01691638 0.005739063 -0.031151652 0.062449753
-0.07884894 0.0969207 -0.13844004 0.101263225 -0.036112115 0.14352229 0.12929368 -0.18006566
-0.00026977062 -0.09303419 -0.026890352 -0.08291342 0.08451572 0.10263285 0.15710959 0.10677135
-0.07496156 -0.06647619 0.06501725 -0.09271112 0.1751168 -0.12511049 0.013130009 -0.17185356
-0.025182784 -0.10545088 -0.114738755 0.088407725 0.12282342 0.14066514 -0.0933233 0.011621371
0.17653596 -0.15601252 -0.06884061 0.0025754422 0.06394692 0.1465461 0.072036505 -0.0927074
-0.14440565 0.021726102 -0.07192401 -0.14950131 0.12978637 -0.07694526 -0.11876341 0.0141723305
-0.032169744 0.023841992 0.13932031 0.16378364 -0.15911353 -0.051482737 -0.15410525 0.12928492
-0.026231036 0.025572509 -0.18064086 -0.09235976 0.015498966 -0.006456718 0.1532667 0.012804732
0.01063405 -0.02092208 -0.12274584 0.17516178 0.122125626 -0.089843884 0.15878752 0.02660352
0.12762961 0.07124549 0.11247188 0.048195332 0.08630103 0.15709755 -0.15950519 0.05471115
-0.06655642 -0.120088495 0.055434525 0.0028048009 -0.15911695 0.05084321 0.13998419 -0.08039191
-0.023279235 0.15407187 0.09700519 0.11388773 -0.17228943 -0.0776878 -0.089499265 -0.08071375
0.04800217 0.0544561 -0.17061362 -0.039739326 -0.17697929 0.07711518 -0.04924336 0.14057362
0.031691536 0.16807327 -0.16328762 -0.051392347 0.14622313 -0.06623289 -0.008776948 -0.05631192
-0.122516096 -0.16525531 0.13421535 -0.092073224 -0.030679554 0.12063667 0.14376143 -0.17666157
0.13494202 0.061608464 -0.016117647 0.15230775 0.12772718 0.09057376 0.034789324 -0.07781978
0.050376266 -0.017774075 0.030224547 0.12161109 0.11362165 -0.17446722 -0.12300262 0.1508694

net.1.weight f4 [256]
00000000: 0000 803f 0000 803f 0000 803f 0000 803f
00000010: 0000 803f 0000 803f 0000 803f 0000 803f
00000020: 0000 803f 0000 803f 0000 803f 0000 803f
00000030: 0000 803f 0000 803f 0000 803f 0000 803f
00000040: 0000 803f 0000 803f 0000 803f 0000 803f
00000050: 0000 803f 0000 803f 0000 803f 0000 803f
00000060: 0000 803f 0000 803f 0000 803f 0000 803f
00000070: 0000 803f 0000 803f 0000 803f 0000 803f
00000080: 0000 803f 0000 803f 0000 803f 0000 803f
00000090: 0000 803f 0000 803f 0000 803f 0000 803f
000000a0: 0000 803f 0000 803f 0000 803f 0000 803f
000000b0: 0000 803f 0000 803f 0000 803f 0000 803f
000000c0: 0000 803f 0000 803f 0000 803f 0000 803f
000000d0: 0000 803f 0000 803f 0000 803f 0000 803f
000000e0: 0000 803f 0000 803f 0000 803f 0000 803f
000000f0: 0000 803f 0000 803f 0000 803f 0000 803f
00000100: 0000 803f 0000 803f 0000 803f 0000 803f
00000110: 0000 803f 0000 803f 0000 803f 0000 803f
00000120: 0000 803f 0000 803f 0000 803f 0000 803f
00000130: 0000 803f 0000 803f 0000 803f 0000 803f
00000140: 0000 803f 0000 803f 0000 803f 0000 803f
00000150: 0000 803f 0000 803f 0000 803f 0000 803f
00000160: 0000 803f 0000 803f 0000 803f 0000 803f
00000170: 0000 803f 0000 803f 0000 803f 0000 803f
00000180: 0000 803f 0000 803f 0000 803f 0000 803f
00000190: 0000 803f 0000 803f 0000 803f 0000 803f
000001a0: 0000 803f 0000 803f 0000 803f 0000 803f
000001b0: 0000 803f 0000 803f 0000 803f 0000 803f
000001c0: 0000 803f 0000 803f 0000 803f 0000 803f
000001d0: 0000 803f 0000 803f 0000 803f 0000 803f
000001e0: 0000 803f 0000 803f 0000 803f 0000 803f
000001f0: 0000 803f 0000 803f 0000 803f 0000 803f
00000200: 0000 803f 0000 803f 0000 803f 0000 803f
00000210: 0000 803f 0000 803f 0000 803f 0000 803f
00000220: 0000 803f 0000 803f 0000 803f 0000 803f
00000230: 0000 803f 0000 803f 0000 803f 0000 803f
00000240: 0000 803f 0000 803f 0000 803f 0000 803f
00000250: 0000 803f 0000 803f 0000 803f 0000 803f
00000260: 0000 803f 0000 803f 0000 803f 0000 803f
00000270: 0000 803f 0000 803f 0000 803f 0000 803f
00000280: 0000 803f 0000 803f 0000 803f 0000 803f
00000290: 0000 803f 0000 803f 0000 803f 0000 803f
000002a0: 0000 803f 0000 803f 0000 803f 0000 803f
000002b0: 0000 803f 0000 803f 0000 803f 0000 803f
000002c0: 0000 803f 0000 803f 0000 803f 0000 803f
000002d0: 0000 803f 0000 803f 0000 803f 0000 803f
000002e0: 0000 803f 0000 803f 0000 803f 0000 803f
000002f0: 0000 803f 0000 803f 0000 803f 0000 803f
00000300: 0000 803f 0000 803f 0000 803f 0000 803f
00000310: 0000 803f 0000 803f 0000 803f 0000 803f
00000320: 0000 803f 0000 803f 0000 803f 0000 803f
00000330: 0000 803f 0000 803f 0000 803f 0000 803f
00000340: 0000 803f 0000 803f 0000 803f 0000 803f
00000350: 0000 803f 0000 803f 0000 803f 0000 803f
00000360: 0000 803f 0000 803f 0000 803f 0000 803f
00000370: 0000 803f 0000 803f 0000 803f 0000 803f
00000380: 0000 803f 0000 803f 0000 803f 0000 803f
00000390: 0000 803f 0000 803f 0000 803f 0000 803f
000003a0: 0000 803f 0000 803f 0000 803f 0000 803f
000003b0: 0000 803f 0000 803f 0000 803f 0000 803f
000003c0: 0000 803f 0000 803f 0000 803f 0000 803f
000003d0: 0000 803f 0000 803f 0000 803f 0000 803f
000003e0: 0000 803f 0000 803f 0000 803f 0000 803f
000003f0: 0000 803f 0000 803f 0000 803f 0000 803f
1.0 1.0 1.0 1.0 1.0 1.0 1.0 1.0
1.0 1.0 1.0 1.0 1.0 1.0 1.0 1.0
1.0 1.0 1.0 1.0 1.0 1.0 1.0 1.0
1.0 1.0 1.0 1.0 1.0 1.0 1.0 1.0
1.0 1.0 1.0 1.0 1.0 1.0 1.0 1.0
1.0 1.0 1.0 1.0 1.0 1.0 1.0 1.0
1.0 1.0 1.0 1.0 1.0 1.0 1.0 1.0
1.0 1.0 1.0 1.0 1.0 1.0 1.0 1.0
1.0 1.0 1.0 1.0 1.0 1.0 1.0 1.0
1.0 1.0 1.0 1.0 1.0 1.0 1.0 1.0
1.0 1.0 1.0 1.0 1.0 1.0 1.0 1.0
1.0 1.0 1.0 1.0 1.0 1.0 1.0 1.0
1.0 1.0 1.0 1.0 1.0 1.0 1.0 1.0
1.0 1.0 1.0 1.0 1.0 1.0 1.0 1.0
1.0 1.0 1.0 1.0 1.0 1.0 1.0 1.0
1.0 1.0 1.0 1.0 1.0 1.0 1.0 1.0
1.0 1.0 1.0 1.0 1.0 1.0 1.0 1.0
1.0 1.0 1.0 1.0 1.0 1.0 1.0 1.0
1.0 1.0 1.0 1.0 1.0 1.0 1.0 1.0
1.0 1.0 1.0 1.0 1.0 1.0 1.0 1.0
1.0 1.0 1.0 1.0 1.0 1.0 1.0 1.0
1.0 1.0 1.0 1.0 1.0 1.0 1.0 1.0
1.0 1.0 1.0 1.0 1.0 1.0 1.0 1.0
1.0 1.0 1.0 1.0 1.0 1.0 1.0 1.0
1.0 1.0 1.0 1.0 1.0 1.0 1.0 1.0
1.0 1.0 1.0 1.0 1.0 1.0 1.0 1.0
1.0 1.0 1.0 1.0 1.0 1.0 1.0 1.0
1.0 1.0 1.0 1.0 1.0 1.0 1.0 1.0
1.0 1.0 1.0 1.0 1.0 1.0 1.0 1.0
1.0 1.0 1.0 1.0 1.0 1.0 1.0 1.0
1.0 1.0 1.0 1.0 1.0 1.0 1.0 1.0
1.0 1.0 1.0 1.0 1.0 1.0 1.0 1.0

net.1.bias f4 [256]
00000000: 0000 0000 0000 0000 0000 0000 0000 0000
00000010: 0000 0000 0000 0000 0000 0000 0000 0000
00000020: 0000 0000 0000 0000 0000 0000 0000 0000
00000030: 0000 0000 0000 0000 0000 0000 0000 0000
00000040: 0000 0000 0000 0000 0000 0000 0000 0000
00000050: 0000 0000 0000 0000 0000 0000 0000 0000
00000060: 0000 0000 0000 0000 0000 0000 0000 0000
00000070: 0000 0000 0000 0000 0000 0000 0000 0000
00000080: 0000 0000 0000 0000 0000 0000 0000 0000
00000090: 0000 0000 0000 0000 0000 0000 0000 0000
000000a0: 0000 0000 0000 0000 0000 0000 0000 0000
000000b0: 0000 0000 0000 0000 0000 0000 0000 0000
000000c0: 0000 0000 0000 0000 0000 0000 0000 0000
000000d0: 0000 0000 0000 0000 0000 0000 0000 0000
000000e0: 0000 0000 0000 0000 0000 0000 0000 0000
000000f0: 0000 0000 0000 0000 0000 0000 0000 0000
00000100: 0000 0000 0000 0000 0000 0000 0000 0000
00000110: 0000 0000 0000 0000 0000 0000 0000 0000
00000120: 0000 0000 0000 0000 0000 0000 0000 0000
00000130: 0000 0000 0000 0000 0000 0000 0000 0000
00000140: 0000 0000 0000 0000 0000 0000 0000 0000
00000150: 0000 0000 0000 0000 0000 0000 0000 0000
00000160: 0000 0000 0000 0000 0000 0000 0000 0000
00000170: 0000 0000 0000 0000 0000 0000 0000 0000
00000180: 0000 0000 0000 0000 0000 0000 0000 0000
00000190: 0000 0000 0000 0000 0000 0000 0000 0000
000001a0: 0000 0000 0000 0000 0000 0000 0000 0000
000001b0: 0000 0000 0000 0000 0000 0000 0000 0000
000001c0: 0000 0000 0000 0000 0000 0000 0000 0000
000001d0: 0000 0000 0000 0000 0000 0000 0000 0000
000001e0: 0000 0000 0000 0000 0000 0000 0000 0000
000001f0: 0000 0000 0000 0000 0000 0000 0000 0000
00000200: 0000 0000 0000 0000 0000 0000 0000 0000
00000210: 0000 0000 0000 0000 0000 0000 0000 0000
00000220: 0000 0000 0000 0000 0000 0000 0000 0000
00000230: 0000 0000 0000 0000 0000 0000 0000 0000
00000240: 0000 0000 0000 0000 0000 0000 0000 0000
00000250: 0000 0000 0000 0000 0000 0000 0000 0000
00000260: 0000 0000 0000 0000 0000 0000 0000 0000
00000270: 0000 0000 0000 0000 0000 0000 0000 0000
00000280: 0000 0000 0000 0000 0000 0000 0000 0000
00000290: 0000 0000 0000 0000 0000 0000 0000 0000
000002a0: 0000 0000 0000 0000 0000 0000 0000 0000
000002b0: 0000 0000 0000 0000 0000 0000 0000 0000
000002c0: 0000 0000 0000 0000 0000 0000 0000 0000
000002d0: 0000 0000 0000 0000 0000 0000 0000 0000
000002e0: 0000 0000 0000 0000 0000 0000 0000 0000
000002f0: 0000 0000 0000 0000 0000 0000 0000 0000
00000300: 0000 0000 0000 0000 0000 0000 0000 0000
00000310: 0000 0000 0000 0000 0000 0000 0000 0000
00000320: 0000 0000 0000 0000 0000 0000 0000 0000
00000330: 0000 0000 0000 0000 0000 0000 0000 0000
00000340: 0000 0000 0000 0000 0000 0000 0000 0000
00000350: 0000 0000 0000 0000 0000 0000 0000 0000
00000360: 0000 0000 0000 0000 0000 0000 0000 0000
00000370: 0000 0000 0000 0000 0000 0000 0000 0000
00000380: 0000 0000 0000 0000 0000 0000 0000 0000
00000390: 0000 0000 0000 0000 0000 0000 0000 0000
000003a0: 0000 0000 0000 0000 0000 0000 0000 0000
000003b0: 0000 0000 0000 0000 0000 0000 0000 0000
000003c0: 0000 0000 0000 0000 0000 0000 0000 0000
000003d0: 0000 0000 0000 0000 0000 0000 0000 0000
000003e0: 0000 0000 0000 0000 0000 0000 0000 0000
000003f0: 0000 0000 0000 0000 0000 0000 0000 0000
0.0 0.0 0.0 0.0 0.0 0.0 0.0 0.0
0.0 0.0 0.0 0.0 0.0 0.0 0.0 0.0
0.0 0.0 0.0 0.0 0.0 0.0 0.0 0.0
0.0 0.0 0.0 0.0 0.0 0.0 0.0 0.0
0.0 0.0 0.0 0.0 0.0 0.0 0.0 0.0
0.0 0.0 0.0 0.0 0.0 0.0 0.0 0.0
0.0 0.0 0.0 0.0 0.0 0.0 0.0 0.0
0.0 0.0 0.0 0.0 0.0 0.0 0.0 0.0
0.0 0.0 0.0 0.0 0.0 0.0 0.0 0.0
0.0 0.0 0.0 0.0 0.0 0.0 0.0 0.0
0.0 0.0 0.0 0.0 0.0 0.0 0.0 0.0
0.0 0.0 0.0 0.0 0.0 0.0 0.0 0.0
0.0 0.0 0.0 0.0 0.0 0.0 0.0 0.0
0.0 0.0 0.0 0.0 0.0 0.0 0.0 0.0
0.0 0.0 0.0 0.0 0.0 0.0 0.0 0.0
0.0 0.0 0.0 0.0 0.0 0.0 0.0 0.0
0.0 0.0 0.0 0.0 0.0 0.0 0.0 0.0
0.0 0.0 0.0 0.0 0.0 0.0 0.0 0.0
0.0 0.0 0.0 0.0 0.0 0.0 0.0 0.0
0.0 0.0 0.0 0.0 0.0 0.0 0.0 0.0
0.0 0.0 0.0 0.0 0.0 0.0 0.0 0.0
0.0 0.0 0.0 0.0 0.0 0.0 0.0 0.0
0.0 0.0 0.0 0.0 0.0 0.0 0.0 0.0
0.0 0.0 0.0 0.0 0.0 0.0 0.0 0.0
0.0 0.0 0.0 0.0 0.0 0.0 0.0 0.0
0.0 0.0 0.0 0.0 0.0 0.0 0.0 0.0
0.0 0.0 0.0 0.0 0.0 0.0 0.0 0.0
0.0 0.0 0.0 0.0 0.0 0.0 0.0 0.0
0.0 0.0 0.0 0.0 0.0 0.0 0.0 0.0
0.0 0.0 0.0 0.0 0.0 0.0 0.0 0.0
0.0 0.0 0.0 0.0 0.0 0.0 0.0 0.0
0.0 0.0 0.0 0.0 0.0 0.0 0.0 0.0

net.3.weight f4 [256, 256]
00000000: 7253 0c3d 88f2 2abc e894 62bd 42bb 7cbd
00000010: beab 1f3d 2ce9 88bc b884 8e3c 2463 a6bc
00000020: 881f 86bc 70bd 73bc 44a3 8b3c c09a e93a
00000030: 3620 05bd 9aba 11bd c254 44bd 3806 653c
00000040: e8d1 e73c 809a 92bb 646b 083d 9265 11bd
00000050: 3c91 8f3c bcae 9cbc 207c 65bc 8825 d9bc
00000060: 84ff 733d 005f 59ba d88f 4bbd e86d a7bc
00000070: 48e0 3b3c 223b 203d b28d 5a3d e892 cfbc
00000080: bea4 2dbd d62b 1abd 4089 c63b 72e5 163d
00000090: 36bc 483d 6ee2 7ebd 5e9a 6a3d f8b1 0a3d
000000a0: 1850 d53c 283f 63bc 02ee 36bd d080 e03c
000000b0: 4ec0 2dbd 2c86 e6bc dcea 7d3d 88aa 5d3c
000000c0: 0a74 2fbd b802 d43c 2c9a 0abd 8849 16bd
000000d0: 60d5 d03b 30d3 85bc 6aba 71bd 320b 22bd
000000e0: c0aa 9f3c 487c 103d 5032 89bc 6c51 533d
000000f0: ecd7 3ebd b0c9 50bd f2e2 34bd b0a1 30bd
00000100: d067 6f3d 6cfb d13c f834 eabc 809a 763d
00000110: 827c 5ebd 30a8 d33b e220 453d 7cb8 873c
00000120: a6f6 41bd dc5e ea3c 1afd 0f3d ea44 293d
00000130: d2ca 073d fc95 26bd a042 b43b e472 33bd
00000140: c8d3 203d c489 183d d807 0abd 7289 373d
00000150: a4f0 283d 78f9 983c a615 6c3d 80a8 08bd
00000160: 74d8 dbbc 44b8 abbc 08e5 7dbc 46a0 63bd
00000170: 2655 2b3d 5a95 743d 40cc ddbc c057 053c
00000180: f26a 3b3d 7676 04bd 86ec 683d 8095 c93a
00000190: e609 6dbd 10de f4bc 7014 ca3b d0d8 b63b
000001a0: c8ec d83c 68a4 16bc 0480 5dbd 649d 283d
000001b0: f046 63bc 7897 a03c cae1 10bd 6a6c 6dbd
000001c0: b841 cf3c 081c ac3c e4f5 c13c 323c 34bd
000001d0: 3844 643d f08e 823b fc63 17bd 1648 0c3d
000001e0: 0cab 17bd a086 ff3c c04b c6bb c0c3 8e3c
000001f0: 04da 493d 68b4 79bc 70aa b2bc 2c04 d9bc
00000200: 1015 503c d809 e73c 30dc b9bb 7a3b 503d
00000210: f815 0d3c 0847 79bd ec2b d03c e062 5e3b
00000220: 200b 15bc 1e51 6ebd 62e3 5b3d ce1e 54bd
00000230: 44b8 73bd bcf2 9bbc aa6c 11bd 6074 713d
00000240: 8470 9d3c 9cde 4cbd 5621 313d d217 1b3d
00000250: 76e3 18bd 30d4 f2bc d449 953c 7097 bd3c
00000260: 602d 53bb 5282 0ebd 2c80 433d c859 ac3c
00000270: e2b7 0cbd 92ad 0e3d 7051 aa3b 5041 e83c
00000280: 8023 de3b 8617 34bd 34d1 273d f4e9 ac3c
00000290: c01f dc3c 1806 41bd 2828 67bd c68d 123d
000002a0: 40a9 ed3a 6cec 813c cef5 08bd a474 b53c
000002b0: 64cb c7bc 8094 a33b 2881 55bd 0683 4cbd
000002c0: 10e3 b6bb 983b 0dbd 00b5 36bb 88d3 e2bc
000002d0: 90a0 bc3b 0a1f 5fbd a019 ddbb d052 98bb
000002e0: 8c57 21bd 0031 bf3a 98e4 3a3c f0df b1bc
000002f0: de7a 6ebd 8cf7 4a3d fc05 81bc 6029 f4bc
00000300: d8d3 65bc c4f3 703d e63a 4bbd f875 e23c
00000310: 60f7 10bc a217 24bd 40aa b2bb d871 febc
00000320: 6002 75bd e450 7e3d 442d 0b3d e01d 7cbd
00000330: cc66 263d 5e4c 223d 9404 2ebd 40e2 4d3b
00000340: 36d0 6ebd 725b 503d 74da 53bd c6ec 1abd
00000350: 9cfe b03c 20f5 47bb 5a1c 2dbd c43e bebc
00000360: 2adf 333d 90e4 63bc d0b1 94bb a84e 523d
00000370: 904a 58bc 9e9b 78bd 10c1 383d 2e82 02bd
00000380: 0845 47bd 0444 303d f01d 763c 7073 a53b
00000390: 7cc7 7cbd 722a 263d 00ec 77bd 5cab 29bd
000003a0: 7816 5b3d dc1f aabc 9867 9b3c c86d 66bc
000003b0: 4c86 78bd 64d7 f6bc c0b7 87ba 5490 fd3c
000003c0: a06a b6bc f069 f0bc 68cc 26bc bc1e 893c
000003d0: c24d 563d f085 ddbb 409c b03a d848 843c
000003e0: 9083 dd3b 04c6 603d 1ab8 393d 848a d5bc
000003f0: 8cbf 7bbd d04d 08bd 3e49 77bd 988b d2bc
0.034259267 -0.0104338005 -0.05531779 -0.06170202 0.038982145 -0.016712748 0.01739727 -0.020310946
-0.016372457 -0.014876708 0.017045625 0.0017822608 -0.032501422 -0.035578348 -0.047932394 0.013978533
0.028298333 -0.0044739842 0.03330554 -0.035497256 0.017525308 -0.019126289 -0.0140066445 -0.026507154
0.05956985 -0.0008292049 -0.049697727 -0.02043815 0.011467047 0.039118893 0.053357787 -0.025338605
-0.04239344 -0.03763946 0.006058842 0.03683991 0.049007617 -0.06222766 0.057276122 0.03386113
0.026039168 -0.013870038 -0.044660576 0.027405173 -0.042419724 -0.02814015 0.061991557 0.013529427
-0.042835273 0.025880203 -0.033838436 -0.03669122 0.0063730925 -0.016336054 -0.05901567 -0.039561458
0.0194906 0.035274774 -0.016747624 0.05159132 -0.046592638 -0.050973594 -0.044161744 -0.043122947
0.058448613 0.025632583 -0.02858971 0.060205936 -0.05431796 0.0064592585 0.048127063 0.016567461
-0.047354363 0.028609686 0.035153486 0.041325487 0.03315241 -0.04067038 0.0055011064 -0.04381074
0.03926447 0.03724076 -0.033698887 0.044808812 0.041245118 0.018673643 0.057637833 -0.03336382
-0.026836611 -0.020961888 -0.0154965 -0.05557277 0.04182925 0.059712745 -0.027074933 0.008138597
0.045756288 -0.032339536 0.05686619 0.0015379637 -0.057870768 -0.029891044 0.006166987 0.0055800453
0.026480094 -0.009194471 -0.054077163 0.041165724 -0.013871893 0.019603476 -0.03537158 -0.05796472
0.025299892 0.02100946 0.02367682 -0.04400272 0.05572912 0.0039843246 -0.036960587 0.034248434
-0.037028357 0.031192124 -0.0060515106 0.017427325 0.04928018 -0.015240766 -0.021809787 -0.026491247
0.012700334 0.028202936 -0.0056720003 0.05083797 0.008611195 -0.060858756 0.025411569 0.0033933446
-0.009096891 -0.058182828 0.053683646 -0.05178719 -0.0595019 -0.019036643 -0.03550402 0.058948874
0.01921869 -0.050016984 0.043244682 0.037864514 -0.0373263 -0.029642195 0.01822368 0.0231435
-0.003222309 -0.034792252 0.047729656 0.021038905 -0.03435505 0.0348335 0.0051976964 0.028351456
0.0067791343 -0.043967746 0.040970996 0.021107651 0.026870608 -0.047124952 -0.05643478 0.035779737
0.0018132105 0.015859805 -0.033437543 0.022150345 -0.024388976 0.004992068 -0.052125126 -0.04992964
-0.005581267 -0.03448066 -0.002787888 -0.027688757 0.005756445 -0.05447296 -0.0067474395 -0.004648544
-0.03939013 0.0014586747 0.01140704 -0.021713227 -0.058222644 0.049552485 -0.015749924 -0.029804885
-0.014027558 0.058826223 -0.049616717 0.027644143 -0.008848041 -0.0400616 -0.0054524243 -0.031060144
-0.059816718 0.062088862 0.033978716 -0.06155193 0.04062538 0.03962361 -0.042484835 0.0031415373
-0.058304034 0.05086846 -0.051722005 -0.03782346 0.021605782 -0.0030511096 -0.042263366 -0.023223288
0.043913998 -0.013909474 -0.0045377985 0.051344544 -0.013201371 -0.060695283 0.045105994 -0.03186243
-0.048649818 0.043033615 0.015021786 0.0050491616 -0.06171368 0.040567823 -0.0605278 -0.041423187
0.053488225 -0.020767145 0.018970296 -0.01406426 -0.06067495 -0.030132003 -0.0010354444 0.03095261
-0.02226764 -0.02934739 -0.01018057 0.016738288 0.05232025 -0.0067603514 0.00134743 0.016148016
0.0067600682 0.054876342 0.04534159 -0.026067026 -0.06146197 -0.033277333 -0.060372584 -0.02570133

net.3.bias f4 [256]
00000000: 6283 73bd 30bc fbbc 7cfa 2f3d 60bd 393d
00000010: a8a7 5e3c 8c87 5e3d 2c6b a0bc fc53 863c
00000020: 0428 5f3d c00c 6dbd f816 e4bc a8fc 583c
00000030: 2c53 bfbc 3c87 fe3c 8089 213b 0033 ff3b
00000040: ac7b 59bd 6a31 0c3d 9a91 4c3d 9423 4cbd
00000050: 5886 223c bcc1 eabc 18f3 323c c04b b7bc
00000060: 3ebb 43bd d8e6 053d e0e2 243d 64d3 ecbc
00000070: 5e1d 4e3d 4c3b fe3c 9cd7 2abd dac6 543d
00000080: 1a14 403d cce2 0b3d 443a eebc 809a 3ebc
00000090: c0f3 a2bb a49e 683d 3034 3abd a478 883c
000000a0: 10ab 8bbb 28a2 7b3d e6ab 103d e06c 883c
000000b0: 50d0 903b fe48 733d d04a 92bb 84ee 993c
000000c0: b87e 3f3d f280 49bd d05a 003c b0c3 37bc
000000d0: fae4 5cbd 9c80 583d e0cc 69bd a823 733c
000000e0: f674 23bd c62c 13bd 98ee 8ebc 8061 e7bc
000000f0: 007d 993c e84f 46bc 40bd 0f3d aadb 13bd
00000100: 4cd7 5d3d 8048 ee3b 2843 df3c f849 81bc
00000110: b4fc 44bd 345f e1bc d2a9 2a3d b014 993c
00000120: 3665 353d 0210 25bd d0e0 933c 18e2 303d
00000130: 32be 34bd e012 53bd 7097 353c 88f2 59bc
00000140: f088 c1bc 34e6 d4bc 28af 06bd 1243 383d
00000150: 04ba 57bd e8b8 27bd 8e57 363d 8096 8a3b
00000160: aa62 663d 60a1 73bb ce4c 5ebd 8ab8 57bd
00000170: 08c0 d93c 781f 2e3d 6496 e33c 9eb6 3dbd
00000180: de87 143d e0c9 6f3d a00d 44bc 3430 34bd
00000190: 44f7 3a3d a00f 513c e498 b83c 548d 2dbd
000001a0: a0aa 6ebd 48d5 233d c6b6 30bd e074 873b
000001b0: d05f 923b 8c5c 983c 28dc 6f3c f0a9 333d
000001c0: 5c64 443d 1aac 7a3d 5029 113c 9a33 483d
000001d0: f812 ffbc c0af 843b 9e6b 07bd a035 afbc
000001e0: 0cc0 c13c 00a5 c639 90a3 e03b 54b9 7ebd
000001f0: 2c09 913c 9c02 8bbc aec8 3ebd 402a 6abd
00000200: 50e6 b2bb 9c95 0b3d 304e 88bb 78e4 1dbc
00000210: d87d 2cbc 1645 33bd eed4 4e3d 2860 f93c
00000220: 0015 9c3b 381a e33c dc2e 8a3c 948b 883c
00000230: ae9c 43bd 7054 18bd 3878 553c 981b 0dbd
00000240: ecd2 45bd 9c5f 1e3d ecfa 9ebc f82c 67bd
00000250: 10a4 f1bc e831 2c3d 143a 803c eaf4 053d
00000260: a225 613d 4874 2d3d aa42 723d b80b e0bc
00000270: 30fd 00bd 7287 153d 120e 2abd d02f 5cbd
00000280: 5094 4d3d 50ad 6d3d 00dd e93b c87e 8d3c
00000290: 0677 563d b0ec adbc a0dd adbc 5c88 6e3d
000002a0: 38f6 67bc 58f4 d9bc e07b 863c 40a7 22bc
000002b0: 663b 2cbd 505e 5b3d ca1b 543d d4c4 b63c
000002c0: b8ac e03c 4865 d8bc 9a4c 103d 26d3 153d
000002d0: 7072 7f3c c48b 3dbd aca4 d7bc a09b 25bb
000002e0: 30e1 e33b a836 94bc de0f 58bd 8013 453c
000002f0: aaca 75bd 80e2 7bbc 9a55 3f3d 00ac 1339
00000300: 0429 d4bc 0ae8 51bd 3866 313d ecb2 523d
00000310: 584c 2c3c a05a 523b e20a 793d 780c a63c
00000320: a82f 473d e87f 503d e051 90bb 80bf 01bc
00000330: d0c2 5abd 8244 673d 2e58 43bd 70ba 163c
00000340: 7e09 2d3d 188e 973c 56f2 183d c0ee 88bb
00000350: 5ad8 653d 441b 733d c883 21bd 5045 673c
00000360: 80d1 473a 100a a8bb f652 2bbd 0886 12bc
00000370: 9c31 c6bc 907b fdbb 80f5 34bb 20fa 4ebd
00000380: dee7 20bd 20d5 61bd 8c5d 1bbd cee0 7d3d
00000390: 6c59 22bd 9c78 fc3c d088 ff3b 2a21 1a3d
000003a0: 4855 19bc 08f9 53bc 8011 843c 0013 ae3b
000003b0: f4b3 92bc a8a3 c4bc cc25 573d ac3f 333d
000003c0: f2c5 123d c88a 75bd 608f f6bc 2840 c73c
000003d0: be96 3dbd 2a1f 13bd 7c8b e93c e693 263d
000003e0: 0ae4 4dbd 542d d1bc 2e67 20bd 728c 44bd
000003f0: e8d1 27bc 0073 c2ba 2864 2dbc 6004 1e3d
-0.05945147 -0.030729383 0.04296349 0.045346618 0.013589777 0.054328486 -0.019582354 0.016397469
0.05448152 -0.057873487 -0.027842984 0.013243832 -0.02335509 0.031070344 0.0024648607 0.007788062
-0.05309646 0.034226812 0.049943544 -0.049838617 0.009919725 -0.028656833 0.010922216 -0.022374988
-0.04778599 0.032690853 0.040255427 -0.028909393 0.050320975 0.031034134 -0.041709527 0.051947452
0.04689417 0.034151837 -0.029080518 -0.011633515 -0.004972905 0.056791916 -0.045459926 0.016659088
-0.0042623356 0.06143394 0.035320185 0.016653478 0.004419364 0.059395783 -0.0044644848 0.01879049
0.046751708 -0.049195237 0.007834151 -0.011216089 -0.053929307 0.052857026 -0.05708015 0.014840044
-0.039906465 -0.03593137 -0.017447755 -0.028244734 0.018736362 -0.012104012 0.035092592 -0.03609816
0.0541604 0.0072718263 0.027253702 -0.015782341 -0.04809256 -0.027511217 0.04166586 0.018686622
0.044285975 -0.04029847 0.018051535 0.04318437 -0.044126697 -0.051531672 0.011083469 -0.013302453
-0.023624867 -0.025988676 -0.032881886 0.04498584 -0.052667633 -0.040947825 0.044517092 0.004229367
0.056246437 -0.0037175044 -0.054272465 -0.052666225 0.026580825 0.04251048 0.027781673 -0.046316735
0.036262386 0.058542132 -0.011966139 -0.043991283 0.045645967 0.012760073 0.022533841 -0.04237111
-0.05826819 0.039998323 -0.043143056 0.0041338056 0.004466988 0.018598817 0.014639892 0.043863237
0.047947273 0.061199285 0.008859947 0.048877336 -0.031136975 0.0040492713 -0.033061616 -0.021387875
0.023651145 0.00037888438 0.0068554357 -0.06218846 0.017704569 -0.016969018 -0.0465781 -0.0571692
-0.0054595843 0.034078225 -0.0041597113 -0.009636991 -0.01052805 -0.043767057 0.050496034 0.030441359
0.0047632456 0.027722463 0.016868047 0.016668119 -0.047756843 -0.0371899 0.013029151 -0.034450144
-0.048296854 0.0386654 -0.019406758 -0.05643937 -0.029497176 0.04203978 0.015652694 0.03270427
0.05496753 0.042347223 0.059145607 -0.027349338 -0.03149146 0.036506124 -0.041517325 -0.053756535
0.05019027 0.05802661 0.007136941 0.017272368 0.052359603 -0.021231025 -0.021223843 0.05823551
-0.014157824 -0.02660577 0.01641649 -0.009927571 -0.042048834 0.05355674 0.051784314 0.022310652
0.027426109 -0.026415482 0.035229303 0.03657832 0.015591249 -0.04627587 -0.026323639 -0.0025269762
0.0069543347 -0.018092468 -0.052749507 0.012028575 -0.06000773 -0.015373826 0.046712495 0.00014083087
-0.025898464 -0.05124668 0.043310374 0.051440164 0.010516249 0.0032097474 0.060801394 0.020269617
0.048629433 0.05090323 -0.0044042915 -0.007919192 -0.053408444 0.05646182 -0.047691517 0.009199724
0.04224538 0.018500373 0.037340485 -0.004178852 0.056114532 0.059352174 -0.039432317 0.0141156465
0.00076224655 -0.0051281527 -0.041827165 -0.008943088 -0.024193577 -0.007735677 -0.002761215 -0.050531507
-0.039283626 -0.055134892 -0.03793101 0.06198197 -0.03963606 0.03081923 0.0077982917 0.037629284
-0.009358712 -0.012937792 0.016121626 0.0053123236 -0.017908074 -0.024003819 0.05252628 0.043761894
0.035833307 -0.059946805 -0.030097663 0.024322584 -0.046286337 -0.035918392 0.028508894 0.04066839
-0.050266303 -0.02553431 -0.0391609 -0.0479855 -0.010242917 -0.0014835298 -0.010582961 0.03857839

net.4.weight f4 [256]
00000000: 0000 803f 0000 803f 0000 803f 0000 803f
00000010: 0000 803f 0000 803f 0000 803f 0000 803f
00000020: 0000 803f 0000 803f 0000 803f 0000 803f
00000030: 0000 803f 0000 803f 0000 803f 0000 803f
00000040: 0000 803f 0000 803f 0000 803f 0000 803f
00000050: 0000 803f 0000 803f 0000 803f 0000 803f
00000060: 0000 803f 0000 803f 0000 803f 0000 803f
00000070: 0000 803f 0000 803f 0000 803f 0000 803f
00000080: 0000 803f 0000 803f 0000 803f 0000 803f
00000090: 0000 803f 0000 803f 0000 803f 0000 803f
000000a0: 0000 803f 0000 803f 0000 803f 0000 803f
000000b0: 0000 803f 0000 803f 0000 803f 0000 803f
000000c0: 0000 803f 0000 803f 0000 803f 0000 803f
000000d0: 0000 803f 0000 803f 0000 803f 0000 803f
000000e0: 0000 803f 0000 803f 0000 803f 0000 803f
000000f0: 0000 803f 0000 803f 0000 803f 0000 803f
00000100: 0000 803f 0000 803f 0000 803f 0000 803f
00000110: 0000 803f 0000 803f 0000 803f 0000 803f
00000120: 0000 803f 0000 803f 0000 803f 0000 803f
00000130: 0000 803f 0000 803f 0000 803f 0000 803f
00000140: 0000 803f 0000 803f 0000 803f 0000 803f
00000150: 0000 803f 0000 803f 0000 803f 0000 803f
00000160: 0000 803f 0000 803f 0000 803f 0000 803f
00000170: 0000 803f 0000 803f 0000 803f 0000 803f
00000180: 0000 803f 0000 803f 0000 803f 0000 803f
00000190: 0000 803f 0000 803f 0000 803f 0000 803f
000001a0: 0000 803f 0000 803f 0000 803f 0000 803f
000001b0: 0000 803f 0000 803f 0000 803f 0000 803f
000001c0: 0000 803f 0000 803f 0000 803f 0000 803f
000001d0: 0000 803f 0000 803f 0000 803f 0000 803f
000001e0: 0000 803f 0000 803f 0000 803f 0000 803f
000001f0: 0000 803f 0000 803f 0000 803f 0000 803f
00000200: 0000 803f 0000 803f 0000 803f 0000 803f
00000210: 0000 803f 0000 803f 0000 803f 0000 803f
00000220: 0000 803f 0000 803f 0000 803f 0000 803f
00000230: 0000 803f 0000 803f 0000 803f 0000 803f
00000240: 0000 803f 0000 803f 0000 803f 0000 803f
00000250: 0000 803f 0000 803f 0000 803f 0000 803f
00000260: 0000 803f 0000 803f 0000 803f 0000 803f
00000270: 0000 803f 0000 803f 0000 803f 0000 803f
00000280: 0000 803f 0000 803f 0000 803f 0000 803f
00000290: 0000 803f 0000 803f 0000 803f 0000 803f
000002a0: 0000 803f 0000 803f 0000 803f 0000 803f
000002b0: 0000 803f 0000 803f 0000 803f 0000 803f
000002c0: 0000 803f 0000 803f 0000 803f 0000 803f
000002d0: 0000 803f 0000 803f 0000 803f 0000 803f
000002e0: 0000 803f 0000 803f 0000 803f 0000 803f
000002f0: 0000 803f 0000 803f 0000 803f 0000 803f
00000300: 0000 803f 0000 803f 0000 803f 0000 803f
00000310: 0000 803f 0000 803f 0000 803f 0000 803f
00000320: 0000 803f 0000 803f 0000 803f 0000 803f
00000330: 0000 803f 0000 803f 0000 803f 0000 803f
00000340: 0000 803f 0000 803f 0000 803f 0000 803f
00000350: 0000 803f 0000 803f 0000 803f 0000 803f
00000360: 0000 803f 0000 803f 0000 803f 0000 803f
00000370: 0000 803f 0000 803f 0000 803f 0000 803f
00000380: 0000 803f 0000 803f 0000 803f 0000 803f
00000390: 0000 803f 0000 803f 0000 803f 0000 803f
000003a0: 0000 803f 0000 803f 0000 803f 0000 803f
000003b0: 0000 803f 0000 803f 0000 803f 0000 803f
000003c0: 0000 803f 0000 803f 0000 803f 0000 803f
000003d0: 0000 803f 0000 803f 0000 803f 0000 803f
000003e0: 0000 803f 0000 803f 0000 803f 0000 803f
000003f0: 0000 803f 0000 803f 0000 803f 0000 803f
1.0 1.0 1.0 1.0 1.0 1.0 1.0 1.0
1.0 1.0 1.0 1.0 1.0 1.0 1.0 1.0
1.0 1.0 1.0 1.0 1.0 1.0 1.0 1.0
1.0 1.0 1.0 1.0 1.0 1.0 1.0 1.0
1.0 1.0 1.0 1.0 1.0 1.0 1.0 1.0
1.0 1.0 1.0 1.0 1.0 1.0 1.0 1.0
1.0 1.0 1.0 1.0 1.0 1.0 1.0 1.0
1.0 1.0 1.0 1.0 1.0 1.0 1.0 1.0
1.0 1.0 1.0 1.0 1.0 1.0 1.0 1.0
1.0 1.0 1.0 1.0 1.0 1.0 1.0 1.0
1.0 1.0 1.0 1.0 1.0 1.0 1.0 1.0
1.0 1.0 1.0 1.0 1.0 1.0 1.0 1.0
1.0 1.0 1.0 1.0 1.0 1.0 1.0 1.0
1.0 1.0 1.0 1.0 1.0 1.0 1.0 1.0
1.0 1.0 1.0 1.0 1.0 1.0 1.0 1.0
1.0 1.0 1.0 1.0 1.0 1.0 1.0 1.0
1.0 1.0 1.0 1.0 1.0 1.0 1.0 1.0
1.0 1.0 1.0 1.0 1.0 1.0 1.0 1.0
1.0 1.0 1.0 1.0 1.0 1.0 1.0 1.0
1.0 1.0 1.0 1.0 1.0 1.0 1.0 1.0
1.0 1.0 1.0 1.0 1.0 1.0 1.0 1.0
1.0 1.0 1.0 1.0 1.0 1.0 1.0 1.0
1.0 1.0 1.0 1.0 1.0 1.0 1.0 1.0
1.0 1.0 1.0 1.0 1.0 1.0 1.0 1.0
1.0 1.0 1.0 1.0 1.0 1.0 1.0 1.0
1.0 1.0 1.0 1.0 1.0 1.0 1.0 1.0
1.0 1.0 1.0 1.0 1.0 1.0 1.0 1.0
1.0 1.0 1.0 1.0 1.0 1.0 1.0 1.0
1.0 1.0 1.0 1.0 1.0 1.0 1.0 1.0
1.0 1.0 1.0 1.0 1.0 1.0 1.0 1.0
1.0 1.0 1.0 1.0 1.0 1.0 1.0 1.0
1.0 1.0 1.0 1.0 1.0 1.0 1.0 1.0

net.4.bias f4 [256]
00000000: 0000 0000 0000 0000 0000 0000 0000 0000
00000010: 0000 0000 0000 0000 0000 0000 0000 0000
00000020: 0000 0000 0000 0000 0000 0000 0000 0000
00000030: 0000 0000 0000 0000 0000 0000 0000 0000
00000040: 0000 0000 0000 0000 0000 0000 0000 0000
00000050: 0000 0000 0000 0000 0000 0000 0000 0000
00000060: 0000 0000 0000 0000 0000 0000 0000 0000
00000070: 0000 0000 0000 0000 0000 0000 0000 0000
00000080: 0000 0000 0000 0000 0000 0000 0000 0000
00000090: 0000 0000 0000 0000 0000 0000 0000 0000
000000a0: 0000 0000 0000 0000 0000 0000 0000 0000
000000b0: 0000 0000 0000 0000 0000 0000 0000 0000
000000c0: 0000 0000 0000 0000 0000 0000 0000 0000
000000d0: 0000 0000 0000 0000 0000 0000 0000 0000
000000e0: 0000 0000 0000 0000 0000 0000 0000 0000
000000f0: 0000 0000 0000 0000 0000 0000 0000 0000
00000100: 0000 0000 0000 0000 0000 0000 0000 0000
00000110: 0000 0000 0000 0000 0000 0000 0000 0000
00000120: 0000 0000 0000 0000 0000 0000 0000 0000
00000130: 0000 0000 0000 0000 0000 0000 0000 0000
00000140: 0000 0000 0000 0000 0000 0000 0000 0000
00000150: 0000 0000 0000 0000 0000 0000 0000 0000
00000160: 0000 0000 0000 0000 0000 0000 0000 0000
00000170: 0000 0000 0000 0000 0000 0000 0000 0000
00000180: 0000 0000 0000 0000 0000 0000 0000 0000
00000190: 0000 0000 0000 0000 0000 0000 0000 0000
000001a0: 0000 0000 0000 0000 0000 0000 0000 0000
000001b0: 0000 0000 0000 0000 0000 0000 0000 0000
000001c0: 0000 0000 0000 0000 0000 0000 0000 0000
000001d0: 0000 0000 0000 0000 0000 0000 0000 0000
000001e0: 0000 0000 0000 0000 0000 0000 0000 0000
000001f0: 0000 0000 0000 0000 0000 0000 0000 0000
00000200: 0000 0000 0000 0000 0000 0000 0000 0000
00000210: 0000 0000 0000 0000 0000 0000 0000 0000
00000220: 0000 0000 0000 0000 0000 0000 0000 0000
00000230: 0000 0000 0000 0000 0000 0000 0000 0000
00000240: 0000 0000 0000 0000 0000 0000 0000 0000
00000250: 0000 0000 0000 0000 0000 0000 0000 0000
00000260: 0000 0000 0000 0000 0000 0000 0000 0000
00000270: 0000 0000 0000 0000 0000 0000 0000 0000
00000280: 0000 0000 0000 0000 0000 0000 0000 0000
00000290: 0000 0000 0000 0000 0000 0000 0000 0000
000002a0: 0000 0000 0000 0000 0000 0000 0000 0000
000002b0: 0000 0000 0000 0000 0000 0000 0000 0000
000002c0: 0000 0000 0000 0000 0000 0000 0000 0000
000002d0: 0000 0000 0000 0000 0000 0000 0000 0000
000002e0: 0000 0000 0000 0000 0000 0000 0000 0000
000002f0: 0000 0000 0000 0000 0000 0000 0000 0000
00000300: 0000 0000 0000 0000 0000 0000 0000 0000
00000310: 0000 0000 0000 0000 0000 0000 0000 0000
00000320: 0000 0000 0000 0000 0000 0000 0000 0000
00000330: 0000 0000 0000 0000 0000 0000 0000 0000
00000340: 0000 0000 0000 0000 0000 0000 0000 0000
00000350: 0000 0000 0000 0000 0000 0000 0000 0000
00000360: 0000 0000 0000 0000 0000 0000 0000 0000
00000370: 0000 0000 0000 0000 0000 0000 0000 0000
00000380: 0000 0000 0000 0000 0000 0000 0000 0000
00000390: 0000 0000 0000 0000 0000 0000 0000 0000
000003a0: 0000 0000 0000 0000 0000 0000 0000 0000
000003b0: 0000 0000 0000 0000 0000 0000 0000 0000
000003c0: 0000 0000 0000 0000 0000 0000 0000 0000
000003d0: 0000 0000 0000 0000 0000 0000 0000 0000
000003e0: 0000 0000 0000 0000 0000 0000 0000 0000
000003f0: 0000 0000 0000 0000 0000 0000 0000 0000
0.0 0.0 0.0 0.0 0.0 0.0 0.0 0.0
0.0 0.0 0.0 0.0 0.0 0.0 0.0 0.0
0.0 0.0 0.0 0.0 0.0 0.0 0.0 0.0
0.0 0.0 0.0 0.0 0.0 0.0 0.0 0.0
0.0 0.0 0.0 0.0 0.0 0.0 0.0 0.0
0.0 0.0 0.0 0.0 0.0 0.0 0.0 0.0
0.0 0.0 0.0 0.0 0.0 0.0 0.0 0.0
0.0 0.0 0.0 0.0 0.0 0.0 0.0 0.0
0.0 0.0 0.0 0.0 0.0 0.0 0.0 0.0
0.0 0.0 0.0 0.0 0.0 0.0 0.0 0.0
0.0 0.0 0.0 0.0 0.0 0.0 0.0 0.0
0.0 0.0 0.0 0.0 0.0 0.0 0.0 0.0
0.0 0.0 0.0 0.0 0.0 0.0 0.0 0.0
0.0 0.0 0.0 0.0 0.0 0.0 0.0 0.0
0.0 0.0 0.0 0.0 0.0 0.0 0.0 0.0
0.0 0.0 0.0 0.0 0.0 0.0 0.0 0.0
0.0 0.0 0.0 0.0 0.0 0.0 0.0 0.0
0.0 0.0 0.0 0.0 0.0 0.0 0.0 0.0
0.0 0.0 0.0 0.0 0.0 0.0 0.0 0.0
0.0 0.0 0.0 0.0 0.0 0.0 0.0 0.0
0.0 0.0 0.0 0.0 0.0 0.0 0.0 0.0
0.0 0.0 0.0 0.0 0.0 0.0 0.0 0.0
0.0 0.0 0.0 0.0 0.0 0.0 0.0 0.0
0.0 0.0 0.0 0.0 0.0 0.0 0.0 0.0
0.0 0.0 0.0 0.0 0.0 0.0 0.0 0.0
0.0 0.0 0.0 0.0 0.0 0.0 0.0 0.0
0.0 0.0 0.0 0.0 0.0 0.0 0.0 0.0
0.0 0.0 0.0 0.0 0.0 0.0 0.0 0.0
0.0 0.0 0.0 0.0 0.0 0.0 0.0 0.0
0.0 0.0 0.0 0.0 0.0 0.0 0.0 0.0
0.0 0.0 0.0 0.0 0.0 0.0 0.0 0.0
0.0 0.0 0.0 0.0 0.0 0.0 0.0 0.0

net.6.weight f4 [3, 256]
00000000: 0886 8e3c c659 7dbd d09d 86bc 2679 233d
00000010: 8090 d8bb 30b1 283c e04f d13b e00b e03c
00000020: b658 663d 40e9 a33a e076 933c 20e8 72bc
00000030: 1604 523d 6025 233d 06e2 2fbd 7058 05bc
00000040: 3a39 383d ec01 c73c 4ed2 10bd 30a5 82bb
00000050: 0eb4 1ebd b45e a03c 8498 86bc 44b9 fe3c
00000060: 5aec 4e3d f831 893c f0ae 97bc 5806 1d3d
00000070: 00be a83b 843b 66bd c24c 7cbd 90eb 263d
00000080: 54dd 513d 4a05 683d 402f 77bc 303d c2bb
00000090: 60bd db3c e046 c5bb 8088 9fbb 8023 443b
000000a0: aa6e 1c3d 8047 86bc 00f2 d53a a01f 453b
000000b0: 407a 14bb 82b5 5a3d 6c9b adbc 70f2 fbbb
000000c0: 90b3 a8bc a0fd d3bb 2e09 293d e06e b63c
000000d0: 4693 2f3d 00e2 00b9 d8a7 86bc 6a8c 6d3d
000000e0: f8d6 bcbc 5c23 0e3d e01f 7fbc 24e8 5d3d
000000f0: 30fa b1bc 007b ed3a 9061 e4bc 4662 493d
00000100: f41e e83c 6857 5ebc 9e6d 5abd 6879 f2bc
00000110: 0088 3e3d 0040 35b7 1a04 163d c899 a0bc
00000120: 6c06 273d 96c0 3c3d 9c27 e3bc 0e75 3ebd
00000130: d015 13bd 44d5 c13c 707d 42bd f846 9d3c
00000140: 848a 9ebc 302e 65bc c0cf 17bc 4623 1d3d
00000150: d025 2a3d b4cd 69bd ac0c 1cbd 98bc 483c
00000160: 3082 58bd e66f 0dbd 105c d7bc 1013 4abc
00000170: 5479 6d3d c843 5a3c 5426 44bd 5c4a 0e3d
00000180: 00db 8aba 4c5d 8c3c f0cb 253d 367d 3e3d
00000190: f402 98bc 802f 963c 1097 333d e60c 12bd
000001a0: b67a 223d c07a d0ba cc06 3cbd eabc 6dbd
000001b0: fe2e 7b3d 50b4 943c e83c 553c 08e1 7d3c
000001c0: ba3c 53bd 10eb 49bc 2cfa a73c 8486 e7bc
000001d0: 94bc 323d de1c 7b3d c40f d43c a2be 373d
000001e0: ccd3 c83c 58d8 933c 7009 e83b 5250 73bd
000001f0: 0036 20ba a8a9 40bc 681f bebc bc4d 613d
00000200: 0473 e23c 9c46 903c e05d c23b 7055 07bc
00000210: d2ee 74bd 98a3 ecbc 146e 48bd 2420 5abd
00000220: ec06 6b3d 9861 633c bc84 49bd 20e5 44bb
00000230: a8b5 7e3c e06c a73b c882 463d c0d9 c5bc
00000240: 1c21 333d 9825 623d 8037 89ba a097 afbc
00000250: a0b1 0bbb c4ba 0d3d 4c29 63bd a695 133d
00000260: 36a3 5f3d 36c3 373d 30ee c5bc 8052 813c
00000270: 20df b63b 2897 023d 72f8 29bd a6d3 62bd
00000280: 9846 6f3d d017 473c 0edc 5abd 9cc7 7cbd
00000290: 3681 39bd 2e8d 223d 4c3c afbc 3c90 fe3c
000002a0: 10d2 69bc 9cdc c9bc 2080 16bd 24a2 e3bc
000002b0: 00e1 96bb c8c5 50bd 8ce4 49bd 6023 acbb
000002c0: 2c97 90bc e445 a73c 5c13 5bbd 2440 7ebd
000002d0: 60d9 64bb 901e 97bb f44f a0bc 10df 673d
000002e0: 20bc 57bd 386e 713d d805 01bc 6695 3e3d
000002f0: 60a9 14bd 8838 333d 6638 0fbd 4660 583d
00000300: d409 ff3c 18e3 3ebc 585e 1b3c c254 49bd
00000310: c020 75bd 68e9 5f3d 2410 0b3d b21b 18bd
00000320: 0098 e23a 28ef b33c 000d 93b9 c8ad cd3c
00000330: f053 6f3c 26ea 3abd f056 233d 3890 503d
00000340: 8c56 fe3c 4009 573b a467 773d 40f9 46bc
00000350: 4cf2 443d 3465 bebc 5057 a63b 9eac 36bd
00000360: de54 4bbd 5a40 61bd f842 453d ea5b 5ebd
00000370: 6474 5fbd 885f c5bc a61b 2e3d 04da 083d
00000380: 6ebc 783d 9034 50bd c8fe 70bd 6090 2a3c
00000390: 960c 33bd 40c6 1fbc 6e81 323d 04ce ccbc
000003a0: 104c b3bc cccc 6ebd 2eb0 513d 0aad 273d
000003b0: bc29 12bd 86ed 193d 404f caba 3c08 4c3d
000003c0: 40d8 dfbb f492 a0bc def4 2c3d 688c 463d
000003d0: 20c3 14bc 7086 973c c43a 91bc 004d a43c
000003e0: 108f ce3b 8a61 28bd 58ba bb3c a844 70bc
000003f0: 382b 033c 8090 313c 045a 77bd 44ae c13c
0.017397895 -0.061853193 -0.016432673 0.039910458 -0.0066090226 0.010296151 0.0063876957 0.027349412
0.056236945 0.0012505427 0.01800102 -0.014825851 0.051273428 0.039830565 -0.042940162 -0.008138761
0.04497645 0.024292909 -0.035356812 -0.003986977 -0.038745932 0.019576408 -0.016430147 0.0310942
0.05051837 0.01674746 -0.018516034 0.038336128 0.005149603 -0.056209102 -0.06159664 0.040751994
0.051236466 0.05664567 -0.015086949 -0.0059277043 0.0268237 -0.006020412 -0.004868567 0.0029928386
0.038191475 -0.016391516 0.0016322732 0.0030078664 -0.0022655874 0.053395756 -0.021192275 -0.007688813
-0.020593435 -0.0064694434 0.04126852 0.022269666 0.04286506 -0.00012291223 -0.016437456 0.057995237
-0.023051724 0.03470169 -0.015571564 0.054176465 -0.021725744 0.0018118322 -0.027878553 0.049165986
0.028335072 -0.013570644 -0.053327195 -0.029598907 0.04651642 -1.0803342e-05 0.036625005 -0.019604579
0.04077761 0.0460821 -0.027728848 -0.04649835 -0.035909474 0.023661263 -0.047482908 0.01919888
-0.019353159 -0.013988063 -0.00926584 0.038363717 0.041539967 -0.05708094 -0.038098022 0.0122519955
-0.05285853 -0.034530543 -0.026289016 -0.012333646 0.057977036 0.013321824 -0.047888115 0.034738883
-0.0010593832 0.017134331 0.040477693 0.04650613 -0.018556096 0.018333197 0.043845236 -0.035656832
0.039667808 -0.0015905723 -0.04590492 -0.05804149 0.061324112 0.018152386 0.013015009 0.015495546
-0.051571585 -0.01232411 0.020505033 -0.028262384 0.043636873 0.061306827 0.025886424 0.044859536
0.024515055 0.018047497 0.007081203 -0.05940277 -0.0006111562 -0.011759199 -0.023208335 0.055005774
0.027642734 0.017611794 0.005931601 -0.008260116 -0.05979807 -0.028886601 -0.048933104 -0.053253308
0.057379648 0.013878249 -0.04919885 -0.0030043796 0.01554624 0.0051094145 0.048464566 -0.024151683
0.043732747 0.055211633 -0.0010468811 -0.021434605 -0.002131559 0.03460194 -0.055459306 0.036031388
0.05459901 0.044863902 -0.024161428 0.01578641 0.005580798 0.031882435 -0.0414967 -0.055377625
0.058416933 0.012151673 -0.053432517 -0.0617138 -0.04528924 0.03968542 -0.021391056 0.031074636
-0.014271274 -0.024641328 -0.036743283 -0.027787276 -0.004604459 -0.05096987 -0.049290225 -0.0052532405
-0.01765021 0.020419069 -0.05348526 -0.062072888 -0.0034919605 -0.0046117976 -0.019569375 0.056609213
-0.052669644 0.058943003 -0.007874928 0.046529196 -0.03629434 0.043755084 -0.034965895 0.05282619
0.031132616 -0.011650823 0.0094829425 -0.049153097 -0.059845686 0.054665953 0.03395094 -0.037135787
0.0017287731 0.021964625 -0.0002804771 0.02510728 0.014607415 -0.045633458 0.039877832 0.050918788
0.031047128 0.003281191 0.060401574 -0.012144387 0.048082635 -0.023241617 0.0050763264 -0.044598214
-0.049641483 -0.05499301 0.04815957 -0.054286875 -0.054554358 -0.024093404 0.042506836 0.03341104
0.060726576 -0.050831378 -0.05883673 0.010410398 -0.043713175 -0.009751856 0.043580465 -0.02500058
-0.021886855 -0.05830078 0.05119341 0.040936507 -0.035684332 0.037580036 -0.0015434995 0.04981254
-0.006831199 -0.019601323 0.04222571 0.048473746 -0.009079725 0.018496722 -0.017728217 0.020056248
0.0063036755 -0.041108645 0.022916004 -0.014664806 0.00800591 0.010837674 -0.06038858 0.023642667

net.6.bias f4 [3]
00000000: 1608 523d 40ea eabc 92f5 593d
0.051277243 -0.028676152 0.05321271
