models/maddpg/best_agent_2_MomentumTrader.pt (torch, 612015 bytes, 20 tensors)

net.0.weight f4 [256, 30]
00000000: 046b 083e f6b8 103e 584e a73d 4c1d 6c3d
00000010: f41b 8e3d 60ee 303e a65e 02be 8aeb 01be
00000020: 0816 c43d 460e 283e 10b3 46bd 70e0 113d
00000030: e7e2 2ebe 46c1 1f3e 406b 253e 7c69 013d
00000040: 70d5 743c 44b9 0b3d b08d c83c ac10 b0bd
00000050: 8217 363e 2c3d ab3d 3e4f 873d 461b 8ebd
00000060: 7463 6bbd feee 28be 00a1 0bba cc72 e13d
00000070: 5877 d13d 358b abbd 9ce1 b53d 8c49 28be
00000080: 90ea a3bc 5e74 123e d42e f53d a8ca a73d
00000090: 607c 6abc 4871 853d da41 043e 20fc 4cbc
000000a0: e665 2c3e dafa 313e 8c82 ea3d d278 09be
000000b0: 4cc5 f4bd 54bd 463d 4fbe 90bd 7426 a23d
000000c0: ec17 403d 18ec b73c d682 153e c2fd 013e
000000d0: 34eb 13be 942c 243d 4cc6 fabd 40ca 153e
000000e0: da94 b3bd 2c8c 573d 54d3 bf3d e050 ed3d
000000f0: ba0b 243e aa9d 06be d4de 1b3e 3894 873c
00000100: 405e 7b3c 0483 22bd 04b5 a7bd 88a5 ba3d
00000110: 0088 233e 18d8 71bd 4c36 883d d9f7 d1bd
00000120: 50c4 993d 5c40 593d f084 eb3c 6243 0fbe
00000130: 4088 a23b 62fb 333e 4018 e43d e064 f13c
00000140: 00a9 fc3c 3b16 03be b86d 5d3d 1c49 c9bd
00000150: d656 0c3e 380f 4fbd 20c4 b53c 1684 003e
00000160: 0ae3 09be 197a 1fbe a07d dc3d 5497 a23d
00000170: d80d 9fbc 45d1 d2bd f87a 613d 44dd 0e3d
00000180: f028 e93d c072 e73b 3cc1 09bd 7008 8b3c
00000190: 6876 cbbd 3acc 053e 8e7c 243e 0fba b9bd
000001a0: 2c71 fb3d ec0d e63d 8116 2bbe 50c2 26be
000001b0: cc46 9b3d e01b cd3d 9a3a bdbd 388d 5f3d
000001c0: a038 f23b 28f6 25bd d04e 183c 014a 1ebe
000001d0: a6df 06be ae70 26be 964d 863d 8bb5 ddbd
000001e0: 483e 40bd 7563 9fbd e775 27be c0b5 a53c
000001f0: 788e d5bd 8c81 01be dcb6 833d f3db 2bbe
00000200: 948d ba3d accb 3f3d 571b 8dbd c43b b13d
00000210: 7c41 673d 25fb 8ebd 6293 0b3e 53b7 cbbd
00000220: e449 e93d 501d 2b3c 0884 693d b169 25be
00000230: 61ce 11be 3888 0abd 2cfe b13d a867 5cbd
00000240: 403f 5d3b b497 343d 40bf 3abc d344 a0bd
00000250: 00cd e3ba f448 7a3d f0ef 08be 94ec 3abe
00000260: 5853 babd 0744 38be 8c3b 973d 0b99 36be
00000270: b8e5 e0bd 2782 e1bd ac5c 57bd 3099 cf3d
00000280: d020 883d 6839 183e 6cc5 d93d 886b 03bd
00000290: 7440 40bd 4614 cbbd 1283 363e c82e cf3d
000002a0: bc0d 68bd ba1b 06be 9f66 dcbd b41c cc3d
000002b0: 2c7e 6c3d 808b b0bb 40b8 73bb 10b3 a6bc
000002c0: 582c 1abe a81a 283d dec8 34be 8070 86bb
000002d0: e0d7 f1bb 2bc0 2cbe 6075 e53b 1697 233e
000002e0: a46c 29be dc3f 3a3e d8ed 1e3e ebb9 2fbe
000002f0: c0b0 303d 1d25 96bd 70a0 62bd 3d12 d5bd
00000300: e4be 933d 44e0 0dbd acc1 c73d 0cec 973d
00000310: 6094 b9bb 7474 da3d 0097 20bb dad6 8fbd
00000320: 133e 89bd e73e 32be 78ec b03d 47d7 bbbd
00000330: 81d4 17be 485f c5bc 30b5 aa3c d4b8 79bd
00000340: 6f4f cabd 506a 233d 3027 01be 623e f3bd
00000350: ec91 ec3d 48c1 25be af09 0cbe 404f 3cbb
00000360: 8750 f0bd 2014 24be 00a8 d63c 986c 49bd
00000370: 2492 043e df20 bdbd a0b8 fd3c a049 263e
00000380: 5a50 293e a0aa ed3c f094 653c 5c8f 983d
00000390: 64db 083d c0aa 983d c823 86bc 32f0 103e
000003a0: 1c05 d6bd 2060 09bd d06d 8cbc d8ff 8d3d
000003b0: 5071 a73c ab37 1fbe 10f0 32bd 04c1 34be
000003c0: 3016 b03d 2ce4 dabd a8c6 e23d bbf9 23be
000003d0: 30d7 3d3d e086 6d3d c00f ae3b 1bc3 05be
000003e0: a40f 2a3d a0f4 9b3c ea7d 38be 882a 793d
000003f0: 584a 83bc 7806 e33c 1c94 36be a884 d1bd
0.13322073 0.14133057 0.0816924 0.057645127 0.069389254 0.17278433 -0.12731418 -0.12687507
0.095745146 0.16411695 -0.04851061 0.03561443 -0.17078744 0.15601072 0.16154194 0.03159474
0.014943466 0.03411223 0.024481624 -0.0859693 0.17782405 0.08361277 0.06606911 -0.06938796
-0.057467893 -0.16497418 -0.000532642 0.11008224 0.10227841 -0.08376161 0.08880922 -0.16434306
-0.020009309 0.14302203 0.119718224 0.081929505 -0.01431188 0.06515747 0.12915745 -0.012511283
0.16835746 0.17380849 0.11450681 -0.13424996 -0.11951694 0.0485204 -0.070675485 0.079174906
0.046897814 0.022451445 0.14600691 0.12694457 -0.14445192 0.040081576 -0.122448534 0.14627934
-0.087686256 0.052623913 0.093664795 0.11587691 0.16020098 -0.13146082 0.15221721 0.016550168
0.015342295 -0.039675727 -0.08188823 0.09113604 0.15969849 -0.059043974 0.06650981 -0.10252351
0.07508147 0.053039894 0.028749913 -0.13990548 0.00496009 0.17576364 0.11137438 0.029467046
0.030842304 -0.12801449 0.054059714 -0.09828398 0.13705 -0.050551623 0.022188246 0.12550387
-0.13465515 -0.1557392 0.107661486 0.0793902 -0.01941578 -0.10293821 0.055048913 0.034878984
0.11384761 0.00706324 -0.03363155 0.016971797 -0.099346936 0.13066188 0.16063139 -0.09068691
0.12277445 0.11233124 -0.16707803 -0.16285062 0.07581863 0.10015082 -0.09239693 0.054578036
0.007392004 -0.040517956 0.009296134 -0.15457918 -0.13171253 -0.16253921 0.06557767 -0.10825642
-0.046934396 -0.07782642 -0.1635357 0.020228267 -0.104275644 -0.12647074 0.06431362 -0.16783123
0.09109035 0.046825096 -0.0688998 0.086539775 0.056458935 -0.06981496 0.13630441 -0.09947076
0.11391047 0.010444 0.05701068 -0.161536 -0.14238884 -0.033821315 0.086910576 -0.05380979
0.0033759624 0.044089988 -0.011398137 -0.07825627 -0.001737982 0.06110473 -0.13372779 -0.1825431
-0.09097928 -0.179947 0.073844045 -0.17831819 -0.109813154 -0.11011153 -0.052578613 0.1013664
0.066468835 0.14865649 0.10633358 -0.03208497 -0.046936467 -0.09915976 0.17823437 0.10116345
-0.056653723 -0.13096514 -0.10761761 0.09966412 0.057737514 -0.0053877234 -0.003718868 -0.020349056
-0.15055978 0.041041046 -0.1765475 -0.0041027665 -0.0073804706 -0.16870181 0.0070025176 0.15975603
-0.1654535 0.18188423 0.15520418 -0.17160766 0.043137312 -0.073312975 -0.055328786 -0.10403869
0.07214144 -0.034637704 0.09753737 0.07418069 -0.0056634396 0.10666743 -0.0024504066 -0.070234016
-0.06701293 -0.17406808 0.08638853 -0.0917192 -0.14827158 -0.024093285 0.02083835 -0.06096728
-0.09878432 0.03989631 -0.12612605 -0.11877133 0.1155127 -0.16187012 -0.13675569 -0.002873376
-0.11734109 -0.16023302 0.026203156 -0.04917583 0.12946373 -0.09234785 0.030971825 0.16239023
0.16534558 0.029012024 0.01401256 0.07449219 0.033412352 0.07454443 -0.016374484 0.14154127
-0.10450193 -0.033538938 -0.017142206 0.06933564 0.020439774 -0.1554858 -0.043685973 -0.17651755
0.08597982 -0.106880516 0.11073047 -0.16013233 0.046347797 0.057989955 0.005311936 -0.13062708
0.041518822 0.019037545 -0.18016782 0.060831577 -0.01602666 0.027713045 -0.17829937 -0.1023038

net.0.bias f4 [256]
00000000: 3252 3a3e afe4 f3bd 39ad 8fbd 4c47 053e
00000010: 0f4b a2bd 1074 1abd f0af 653c b8d5 2b3e
00000020: cb1a 18be 20f1 d4bb eca1 173e 281e 89bd
00000030: 5ad5 25be 3898 ba3c d3ef 03be a965 f7bd
00000040: 9cd8 a73d bcd3 423d 808f 2dbd 5b50 2bbe
00000050: a0c7 833d 40cb eabb 902c c53d 981c 8b3d
00000060: ee89 1b3e b8df de3c c48a af3d 7cca 27bd
00000070: e611 8bbd 5455 f83d 6dca 97bd 0407 2b3e
00000080: 1085 ff3d c0b3 5a3b 2d04 2bbe d8f0 cf3c
00000090: 1297 0ebe a016 17be 1c91 69bd 8028 693d
000000a0: 3c8f 623d a686 1a3e 3850 543d fe07 043e
000000b0: 427d 08be ba03 1d3e f01a a1bd b081 1cbe
000000c0: 42b8 e3bd ac64 e53d 740d 8e3d 5087 04bc
000000d0: 60f6 aebc 733f 34be 9c8a 34be bcb5 12be
000000e0: c630 f1bd f0ce 1e3e 7e66 113e 5ab7 bfbd
000000f0: 4cdf 31be 269b 3a3e ac1e 33bd e881 493d
00000100: 1488 13bd f41d 1e3d 000c a8b9 3dd4 06be
00000110: 82dd 293e 8c7b 0fbe 984b 933c 2cae 1ebe
00000120: b174 25be ccac 25be 649a e03d 6637 893d
00000130: a8f6 36bd c065 093c 803e 683b f884 163d
00000140: 54fc c63d acba 08bd af72 e6bd 4492 233e
00000150: a8e8 93bc d00b 97bc 2077 39bc 83f1 22be
00000160: cc23 8dbd 4076 d43c 346e efbd 9c47 0c3d
00000170: 7f1f e6bd e914 f1bd 7098 5a3c 1e5d 303e
00000180: 280c 04be 4400 223d e01c 10bc d416 fe3d
00000190: 1688 bebd 119e 87bd f9c8 a7bd c841 9c3d
000001a0: b05a 0abd 464e 17be 205c 9d3c a42d 1abe
000001b0: e49b 233e 8e99 72bd 064f 133e 648c a3bd
000001c0: 0085 f93d e680 15be 0afe 2f3e 2e47 14be
000001d0: ac67 e73d e4e4 8b3d 908a 92bc c884 c93d
000001e0: 9d0d bebd 520b 14be 1e46 2abe f030 2d3c
000001f0: d4a8 c23d 8098 b0bb 4847 1e3d a1fa f7bd
00000200: 6efe 363e 76a9 a2bd a407 083e 2c83 60bd
00000210: a096 a73d b031 493d 31e3 01be 2a6f c9bd
00000220: 483a dcbc e088 b13d aaa8 16be 105c e43d
00000230: 40ee 1c3e bc3e 9d3d a028 423c f835 e5bc
00000240: 94b9 edbd 2398 c0bd cc32 803d c4d0 2f3e
00000250: ecf9 bc3d 84e4 8abd 58a4 8e3d 84f9 723d
00000260: 203f d5bb a041 d53d c088 b8bb aadc 0fbe
00000270: a001 3b3c ae39 9ebd 4f2d ebbd e2f8 053e
00000280: c8b8 5abd 1662 2a3e b2be 34be 040c bebd
00000290: e0f2 1ebe 5479 383e 8ed3 0fbe c234 8bbd
000002a0: 3684 363e 5bcd 10be f416 383e 8c8e 21be
000002b0: 187b 22bd 10d9 5abc 3ae8 2b3e b0ee d93d
000002c0: 526c 303e 30ea 833c 20a2 70bd d081 a83d
000002d0: 9c43 f93d f861 143e ac17 34be cc29 fc3d
000002e0: 4b7e 93bd 08df 9d3d 90cb 38be 229e 73bd
000002f0: 9850 343e 0eac 343e 245b 12bd a9ca dfbd
00000300: d45f c53d dfe2 f7bd eb01 11be 473b 3abe
00000310: 6891 eb3c 6cad 22bd 4033 fbbd 742f 203e
00000320: c02b 13be 9094 3e3d be07 e0bd 6dad 8abd
00000330: 4f87 17be a088 7e3c e0ca 103c 8e03 a8bd
00000340: 4a95 273e 002a 8f3b 7609 38be 20a8 fdbc
00000350: a6ec 6cbd 6ea3 83bd 0013 76ba 2a6a 233e
00000360: ae4f 253e 0c55 b03d 8038 c13d e01a 243e
00000370: 0a74 023e 4078 8e3b 288d c6bc 1ccc 263e
00000380: c534 34be e05f 043c 2ac8 0fbe cd2c aabd
00000390: d0e4 223e 40a5 47bd a805 8d3c 06b9 0f3e
000003a0: 2000 c63d 9253 123e c050 2d3b 7804 eebd
000003b0: ec39 6a3d 34fc 4fbd 0094 6939 ac9f 383e
000003c0: 020f 293e 1ce0 093d 7831 dc3c 1842 2bbe
000003d0: 349d 373d bc0e 7c3d f4a1 3abd c05a 943c
000003e0: 3403 2cbe 846e 333e 3c5c c53d 40fa 913d
000003f0: d08d cebc b46c 83bd f8bf 093e c0f6 fa3c
0.18195418 -0.11908852 -0.070154615 0.13015479 -0.079244725 -0.037708342 0.014018998 0.16780746
-0.1485397 -0.006498471 0.14807862 -0.06695205 -0.16194668 0.022777662 -0.12884454 -0.12079937
0.08195612 0.047565207 -0.04237318 -0.16729872 0.0643456 -0.0071653426 0.0962764 0.06792563
0.15189335 0.027206287 0.08571389 -0.04096459 -0.06790523 0.1212565 -0.074116565 0.16701895
0.124765515 0.00333713 -0.16700812 0.025383398 -0.13924816 -0.14754725 -0.057023153 0.05692339
0.05531238 0.15090427 0.051834315 0.12893674 -0.13329032 0.15333453 -0.07866466 -0.15283847
-0.11119129 0.11200842 0.0693616 -0.008088902 -0.021357715 -0.17602329 -0.17631 -0.14327139
-0.11776881 0.15508628 0.14199254 -0.093611434 -0.17370337 0.18223247 -0.043730423 0.049196154
-0.036018446 0.038602784 -0.00032052398 -0.131669 0.16588405 -0.14011973 0.017980382 -0.15496129
-0.16157795 -0.16179198 0.10966948 0.067000195 -0.044668823 0.0083860755 0.0035437644 0.036747903
0.097160965 -0.03338115 -0.11252343 0.15973765 -0.018055275 -0.01843825 -0.0113199055 -0.15912442
-0.06891593 0.025935292 -0.116909415 0.03424798 -0.11236476 -0.117715664 0.013342008 0.17223021
-0.12895262 0.039551035 -0.008795947 0.12406698 -0.093033 -0.06621946 -0.08192629 0.07629734
-0.033777893 -0.14775953 0.019208968 -0.15056473 0.15977436 -0.059228472 0.14385614 -0.07985762
0.12183571 -0.14599952 0.17186752 -0.14480278 0.11299071 0.06830767 -0.017888337 0.09839779
-0.0927994 -0.14457443 -0.1662831 0.01057075 0.09504858 -0.005389273 0.038642198 -0.121083505
0.17870495 -0.07942478 0.13284165 -0.054812595 0.08183026 0.04911965 -0.12684323 -0.09835656
-0.02688326 0.08668685 -0.14712778 0.11150372 0.1532526 0.07677981 0.011850506 -0.027979836
-0.11607662 -0.09404018 0.06259689 0.17169482 0.09227356 -0.06781867 0.0696494 0.059319988
-0.006507769 0.104129076 -0.0056315362 -0.1404902 0.011413962 -0.07725845 -0.11483251 0.13083223
-0.053398877 0.1663898 -0.1765087 -0.092796355 -0.15522337 0.18015033 -0.14045545 -0.06797172
0.17823872 -0.14140837 0.17977506 -0.15777034 -0.039668173 -0.013357416 0.16787806 0.10641229
0.17228821 0.01610288 -0.058748364 0.08227885 0.121710986 0.14490497 -0.17587155 0.123126596
-0.07201823 0.077085555 -0.18046403 -0.05947698 0.17608869 0.17643759 -0.03573145 -0.10927326
0.096374184 -0.12103819 -0.14160888 -0.18186675 0.028755859 -0.03971617 -0.122656345 0.15643102
-0.14372158 0.0465284 -0.10938977 -0.067713596 -0.1479771 0.015535504 0.008837432 -0.08203803
0.16365543 0.0043690205 -0.17972359 -0.030963957 -0.057842873 -0.06427656 -0.00093869865 0.15958467
0.16143677 0.086099714 0.09434605 0.16025877 0.12739578 0.004347831 -0.02423723 0.16288799
-0.17598255 0.008079499 -0.140412 -0.08309326 0.15907598 -0.04874158 0.017214611 0.14035425
0.096679926 0.14289692 0.0026445836 -0.11621946 0.057184145 -0.05077763 0.00022275746 0.1802966
0.16509631 0.033660993 0.026879057 -0.16724432 0.044827655 0.06153749 -0.045564607 0.01810968
-0.16798097 0.17522627 0.09636733 0.071278095 -0.025214106 -0.06417218 0.13452137 0.030635238

net.1.weight f4 [256]
00000000: 0000 803f 0000 803f 0000 803f 0000 803f
00000010: 0000 803f 0000 803f 0000 803f 0000 803f
00000020: 0000 803f 0000 803f 0000 803f 0000 803f
00000030: 0000 803f 0000 803f 0000 803f 0000 803f
00000040: 0000 803f 0000 803f 0000 803f 0000 803f
00000050: 0000 803f 0000 803f 0000 803f 0000 803f
00000060: 0000 803f 0000 803f 0000 803f 0000 803f
00000070: 0000 803f 0000 803f 0000 803f 0000 803f
00000080: 0000 803f 0000 803f 0000 803f 0000 803f
00000090: 0000 803f 0000 803f 0000 803f 0000 803f
000000a0: 0000 803f 0000 803f 0000 803f 0000 803f
000000b0: 0000 803f 0000 803f 0000 803f 0000 803f
000000c0: 0000 803f 0000 803f 0000 803f 0000 803f
000000d0: 0000 803f 0000 803f 0000 803f 0000 803f
000000e0: 0000 803f 0000 803f 0000 803f 0000 803f
000000f0: 0000 803f 0000 803f 0000 803f 0000 803f
00000100: 0000 803f 0000 803f 0000 803f 0000 803f
00000110: 0000 803f 0000 803f 0000 803f 0000 803f
00000120: 0000 803f 0000 803f 0000 803f 0000 803f
00000130: 0000 803f 0000 803f 0000 803f 0000 803f
00000140: 0000 803f 0000 803f 0000 803f 0000 803f
00000150: 0000 803f 0000 803f 0000 803f 0000 803f
00000160: 0000 803f 0000 803f 0000 803f 0000 803f
00000170: 0000 803f 0000 803f 0000 803f 0000 803f
00000180: 0000 803f 0000 803f 0000 803f 0000 803f
00000190: 0000 803f 0000 803f 0000 803f 0000 803f
000001a0: 0000 803f 0000 803f 0000 803f 0000 803f
000001b0: 0000 803f 0000 803f 0000 803f 0000 803f
000001c0: 0000 803f 0000 803f 0000 803f 0000 803f
000001d0: 0000 803f 0000 803f 0000 803f 0000 803f
000001e0: 0000 803f 0000 803f 0000 803f 0000 803f
000001f0: 0000 803f 0000 803f 0000 803f 0000 803f
00000200: 0000 803f 0000 803f 0000 803f 0000 803f
00000210: 0000 803f 0000 803f 0000 803f 0000 803f
00000220: 0000 803f 0000 803f 0000 803f 0000 803f
00000230: 0000 803f 0000 803f 0000 803f 0000 803f
00000240: 0000 803f 0000 803f 0000 803f 0000 803f
00000250: 0000 803f 0000 803f 0000 803f 0000 803f
00000260: 0000 803f 0000 803f 0000 803f 0000 803f
00000270: 0000 803f 0000 803f 0000 803f 0000 803f
00000280: 0000 803f 0000 803f 0000 803f 0000 803f
00000290: 0000 803f 0000 803f 0000 803f 0000 803f
000002a0: 0000 803f 0000 803f 0000 803f 0000 803f
000002b0: 0000 803f 0000 803f 0000 803f 0000 803f
000002c0: 0000 803f 0000 803f 0000 803f 0000 803f
000002d0: 0000 803f 0000 803f 0000 803f 0000 803f
000002e0: 0000 803f 0000 803f 0000 803f 0000 803f
000002f0: 0000 803f 0000 803f 0000 803f 0000 803f
00000300: 0000 803f 0000 803f 0000 803f 0000 803f
00000310: 0000 803f 0000 803f 0000 803f 0000 803f
00000320: 0000 803f 0000 803f 0000 803f 0000 803f
00000330: 0000 803f 0000 803f 0000 803f 0000 803f
00000340: 0000 803f 0000 803f 0000 803f 0000 803f
00000350: 0000 803f 0000 803f 0000 803f 0000 803f
00000360: 0000 803f 0000 803f 0000 803f 0000 803f
00000370: 0000 803f 0000 803f 0000 803f 0000 803f
00000380: 0000 803f 0000 803f 0000 803f 0000 803f
00000390: 0000 803f 0000 803f 0000 803f 0000 803f
000003a0: 0000 803f 0000 803f 0000 803f 0000 803f
000003b0: 0000 803f 0000 803f 0000 803f 0000 803f
000003c0: 0000 803f 0000 803f 0000 803f 0000 803f
000003d0: 0000 803f 0000 803f 0000 803f 0000 803f
000003e0: 0000 803f 0000 803f 0000 803f 0000 803f
000003f0: 0000 803f 0000 803f 0000 803f 0000 803f
1.0 1.0 1.0 1.0 1.0 1.0 1.0 1.0
1.0 1.0 1.0 1.0 1.0 1.0 1.0 1.0
1.0 1.0 1.0 1.0 1.0 1.0 1.0 1.0
1.0 1.0 1.0 1.0 1.0 1.0 1.0 1.0
1.0 1.0 1.0 1.0 1.0 1.0 1.0 1.0
1.0 1.0 1.0 1.0 1.0 1.0 1.0 1.0
1.0 1.0 1.0 1.0 1.0 1.0 1.0 1.0
1.0 1.0 1.0 1.0 1.0 1.0 1.0 1.0
1.0 1.0 1.0 1.0 1.0 1.0 1.0 1.0
1.0 1.0 1.0 1.0 1.0 1.0 1.0 1.0
1.0 1.0 1.0 1.0 1.0 1.0 1.0 1.0
1.0 1.0 1.0 1.0 1.0 1.0 1.0 1.0
1.0 1.0 1.0 1.0 1.0 1.0 1.0 1.0
1.0 1.0 1.0 1.0 1.0 1.0 1.0 1.0
1.0 1.0 1.0 1.0 1.0 1.0 1.0 1.0
1.0 1.0 1.0 1.0 1.0 1.0 1.0 1.0
1.0 1.0 1.0 1.0 1.0 1.0 1.0 1.0
1.0 1.0 1.0 1.0 1.0 1.0 1.0 1.0
1.0 1.0 1.0 1.0 1.0 1.0 1.0 1.0
1.0 1.0 1.0 1.0 1.0 1.0 1.0 1.0
1.0 1.0 1.0 1.0 1.0 1.0 1.0 1.0
1.0 1.0 1.0 1.0 1.0 1.0 1.0 1.0
1.0 1.0 1.0 1.0 1.0 1.0 1.0 1.0
1.0 1.0 1.0 1.0 1.0 1.0 1.0 1.0
1.0 1.0 1.0 1.0 1.0 1.0 1.0 1.0
1.0 1.0 1.0 1.0 1.0 1.0 1.0 1.0
1.0 1.0 1.0 1.0 1.0 1.0 1.0 1.0
1.0 1.0 1.0 1.0 1.0 1.0 1.0 1.0
1.0 1.0 1.0 1.0 1.0 1.0 1.0 1.0
1.0 1.0 1.0 1.0 1.0 1.0 1.0 1.0
1.0 1.0 1.0 1.0 1.0 1.0 1.0 1.0
1.0 1.0 1.0 1.0 1.0 1.0 1.0 1.0

net.1.bias f4 [256]
00000000: 0000 0000 0000 0000 0000 0000 0000 0000
00000010: 0000 0000 0000 0000 0000 0000 0000 0000
00000020: 0000 0000 0000 0000 0000 0000 0000 0000
00000030: 0000 0000 0000 0000 0000 0000 0000 0000
00000040: 0000 0000 0000 0000 0000 0000 0000 0000
00000050: 0000 0000 0000 0000 0000 0000 0000 0000
00000060: 0000 0000 0000 0000 0000 0000 0000 0000
00000070: 0000 0000 0000 0000 0000 0000 0000 0000
00000080: 0000 0000 0000 0000 0000 0000 0000 0000
00000090: 0000 0000 0000 0000 0000 0000 0000 0000
000000a0: 0000 0000 0000 0000 0000 0000 0000 0000
000000b0: 0000 0000 0000 0000 0000 0000 0000 0000
000000c0: 0000 0000 0000 0000 0000 0000 0000 0000
000000d0: 0000 0000 0000 0000 0000 0000 0000 0000
000000e0: 0000 0000 0000 0000 0000 0000 0000 0000
000000f0: 0000 0000 0000 0000 0000 0000 0000 0000
00000100: 0000 0000 0000 0000 0000 0000 0000 0000
00000110: 0000 0000 0000 0000 0000 0000 0000 0000
00000120: 0000 0000 0000 0000 0000 0000 0000 0000
00000130: 0000 0000 0000 0000 0000 0000 0000 0000
00000140: 0000 0000 0000 0000 0000 0000 0000 0000
00000150: 0000 0000 0000 0000 0000 0000 0000 0000
00000160: 0000 0000 0000 0000 0000 0000 0000 0000
00000170: 0000 0000 0000 0000 0000 0000 0000 0000
00000180: 0000 0000 0000 0000 0000 0000 0000 0000
00000190: 0000 0000 0000 0000 0000 0000 0000 0000
000001a0: 0000 0000 0000 0000 0000 0000 0000 0000
000001b0: 0000 0000 0000 0000 0000 0000 0000 0000
000001c0: 0000 0000 0000 0000 0000 0000 0000 0000
000001d0: 0000 0000 0000 0000 0000 0000 0000 0000
000001e0: 0000 0000 0000 0000 0000 0000 0000 0000
000001f0: 0000 0000 0000 0000 0000 0000 0000 0000
00000200: 0000 0000 0000 0000 0000 0000 0000 0000
00000210: 0000 0000 0000 0000 0000 0000 0000 0000
00000220: 0000 0000 0000 0000 0000 0000 0000 0000
00000230: 0000 0000 0000 0000 0000 0000 0000 0000
00000240: 0000 0000 0000 0000 0000 0000 0000 0000
00000250: 0000 0000 0000 0000 0000 0000 0000 0000
00000260: 0000 0000 0000 0000 0000 0000 0000 0000
00000270: 0000 0000 0000 0000 0000 0000 0000 0000
00000280: 0000 0000 0000 0000 0000 0000 0000 0000
00000290: 0000 0000 0000 0000 0000 0000 0000 0000
000002a0: 0000 0000 0000 0000 0000 0000 0000 0000
000002b0: 0000 0000 0000 0000 0000 0000 0000 0000
000002c0: 0000 0000 0000 0000 0000 0000 0000 0000
000002d0: 0000 0000 0000 0000 0000 0000 0000 0000
000002e0: 0000 0000 0000 0000 0000 0000 0000 0000
000002f0: 0000 0000 0000 0000 0000 0000 0000 0000
00000300: 0000 0000 0000 0000 0000 0000 0000 0000
00000310: 0000 0000 0000 0000 0000 0000 0000 0000
00000320: 0000 0000 0000 0000 0000 0000 0000 0000
00000330: 0000 0000 0000 0000 0000 0000 0000 0000
00000340: 0000 0000 0000 0000 0000 0000 0000 0000
00000350: 0000 0000 0000 0000 0000 0000 0000 0000
00000360: 0000 0000 0000 0000 0000 0000 0000 0000
00000370: 0000 0000 0000 0000 0000 0000 0000 0000
00000380: 0000 0000 0000 0000 0000 0000 0000 0000
00000390: 0000 0000 0000 0000 0000 0000 0000 0000
000003a0: 0000 0000 0000 0000 0000 0000 0000 0000
000003b0: 0000 0000 0000 0000 0000 0000 0000 0000
000003c0: 0000 0000 0000 0000 0000 0000 0000 0000
000003d0: 0000 0000 0000 0000 0000 0000 0000 0000
000003e0: 0000 0000 0000 0000 0000 0000 0000 0000
000003f0: 0000 0000 0000 0000 0000 0000 0000 0000
0.0 0.0 0.0 0.0 0.0 0.0 0.0 0.0
0.0 0.0 0.0 0.0 0.0 0.0 0.0 0.0
0.0 0.0 0.0 0.0 0.0 0.0 0.0 0.0
0.0 0.0 0.0 0.0 0.0 0.0 0.0 0.0
0.0 0.0 0.0 0.0 0.0 0.0 0.0 0.0
0.0 0.0 0.0 0.0 0.0 0.0 0.0 0.0
0.0 0.0 0.0 0.0 0.0 0.0 0.0 0.0
0.0 0.0 0.0 0.0 0.0 0.0 0.0 0.0
0.0 0.0 0.0 0.0 0.0 0.0 0.0 0.0
0.0 0.0 0.0 0.0 0.0 0.0 0.0 0.0
0.0 0.0 0.0 0.0 0.0 0.0 0.0 0.0
0.0 0.0 0.0 0.0 0.0 0.0 0.0 0.0
0.0 0.0 0.0 0.0 0.0 0.0 0.0 0.0
0.0 0.0 0.0 0.0 0.0 0.0 0.0 0.0
0.0 0.0 0.0 0.0 0.0 0.0 0.0 0.0
0.0 0.0 0.0 0.0 0.0 0.0 0.0 0.0
0.0 0.0 0.0 0.0 0.0 0.0 0.0 0.0
0.0 0.0 0.0 0.0 0.0 0.0 0.0 0.0
0.0 0.0 0.0 0.0 0.0 0.0 0.0 0.0
0.0 0.0 0.0 0.0 0.0 0.0 0.0 0.0
0.0 0.0 0.0 0.0 0.0 0.0 0.0 0.0
0.0 0.0 0.0 0.0 0.0 0.0 0.0 0.0
0.0 0.0 0.0 0.0 0.0 0.0 0.0 0.0
0.0 0.0 0.0 0.0 0.0 0.0 0.0 0.0
0.0 0.0 0.0 0.0 0.0 0.0 0.0 0.0
0.0 0.0 0.0 0.0 0.0 0.0 0.0 0.0
0.0 0.0 0.0 0.0 0.0 0.0 0.0 0.0
0.0 0.0 0.0 0.0 0.0 0.0 0.0 0.0
0.0 0.0 0.0 0.0 0.0 0.0 0.0 0.0
0.0 0.0 0.0 0.0 0.0 0.0 0.0 0.0
0.0 0.0 0.0 0.0 0.0 0.0 0.0 0.0
0.0 0.0 0.0 0.0 0.0 0.0 0.0 0.0

net.3.weight f4 [256, 256]
00000000: b080 8fbb 48ec 60bc 6ade 45bd 50b9 0c3d
00000010: fc89 da3c 02e9 3e3d ec3d 803c 6e77 5fbd
00000020: 6031 313d b051 133c 0ade 4cbd 1040 5abc
00000030: 2c43 6fbd 5046 c9bb 10a2 ef3c 80dd b9bb
00000040: b858 403d 301f 35bd 34c3 45bd 56a3 573d
00000050: 9841 49bd 782c b43c c60b 413d d023 433d
00000060: b635 723d 940e 853c 2046 e7bb 10fa a23b
00000070: a2c5 2c3d 5674 2cbd 9a7f 0dbd 34c6 023d
00000080: e073 7f3c 7ae3 7ebd 2096 49bb e6f5 30bd
00000090: cc08 593d 1cc6 c43c c244 4fbd 0852 803c
000000a0: b05a fb3c 1cb2 ac3c 5cdb 963c 94fe 633d
000000b0: 3035 1e3c 244a 6bbd 48bc 0bbc d4ac 793d
000000c0: 7c98 913c ac80 4abd f0ce 00bd 68a0 8a3c
000000d0: c0fd b5bc a093 78bd 5086 97bc 3010 323c
000000e0: 00aa b939 7a92 2a3d 6050 5bbd 20ec 3abc
000000f0: 3c39 0bbd f0b3 2d3d 9cb6 60bd d890 243c
00000100: 2834 8abc dc12 19bd 20a6 27bb 6408 86bc
00000110: d88c 93bc 8e3e 3d3d 8caf a93c c036 6c3d
00000120: 5c4b 55bd de71 3c3d 8801 26bd 18b8 123c
00000130: 30c1 863c f490 01bd a080 07bd a697 6f3d
00000140: 6425 7bbd 02ab 3d3d 6056 953b 60bc 3abd
00000150: 7406 223d 226a 213d 2e43 103d 4aa6 4e3d
00000160: 8017 2a3b c801 e5bc 80f3 93bc 4291 18bd
00000170: 4032 4cbc c2b3 06bd 20a9 eb3c fae8 25bd
00000180: 1884 c33c 26d6 70bd e6bb 1f3d 3002 963b
00000190: 4843 37bd 30fa c43b 4096 e53b e842 44bd
000001a0: 7876 2f3c c01e 54bb 680d 383c f2ee 54bd
000001b0: c8a4 0e3d 9461 4abd 40a7 b13a b833 72bc
000001c0: b07c 323d a8c8 773d 4874 5d3c 1eca 143d
000001d0: a86f 8dbc f07c cdbb ae3a 1abd 9811 2a3d
000001e0: 146a 8fbc 4e61 01bd 5ebc 523d 2688 473d
000001f0: ea91 453d 0092 3e3b c06c 2dbb d4fe 86bc
00000200: e01b f8bc 1862 443d 5240 4d3d c4a5 bdbc
00000210: b452 933c 505a c2bb 1e8b 1b3d b45e 843c
00000220: da6a 16bd c824 05bc f0cc c13c 6ab7 0f3d
00000230: 86cd 44bd 00ae d33b 40e3 243b 0a65 2abd
00000240: 6ea9 233d 364b 2e3d d4a8 303d 42bb 62bd
00000250: 9cc7 d03c 38b2 72bd a069 1a3c 286d e8bc
00000260: d8a3 5a3c 0006 c0bb 10af 00bc ee9a 333d
00000270: 4e71 54bd fa71 6ebd be16 6bbd f4e9 303d
00000280: c034 44bd bae4 66bd 00b6 80b9 8628 1e3d
00000290: 567d 0fbd 5816 613d 70cf 9cbb 8022 24bb
000002a0: 12e4 673d de8e 0c3d 202a 37bc 0c3a 19bd
000002b0: c2f4 35bd 1ca4 babc 20c4 823c 30fd ccbc
000002c0: cc25 7d3d 0090 1cb8 ee45 14bd acc5 c03c
000002d0: 5c59 94bc c040 75bc c8ef 703d 7e72 43bd
000002e0: 687f 9a3c 88cb 713c a4bf d6bc f0cb bf3c
000002f0: bcc0 a8bc 1852 12bc 4a91 0f3d b0cb bfbc
00000300: 3a48 393d 2e3d 3b3d 58f5 fa3c 92e5 48bd
00000310: 94db 73bd c07c 4cbb ce41 34bd e004 703b
00000320: 980d cebc 0016 3d3a 4cd6 09bd 846e 48bd
00000330: f680 4ebd 8816 35bc 70df 69bd 503e 633d
00000340: 9e06 153d 4c93 673d 9863 a73c f076 6c3c
00000350: 90ab a3bc 502d c53c 209d 24bd 58fe 22bd
00000360: 8ae0 493d c897 273d f874 163d e86d fe3c
00000370: a065 3dbb 4c95 fcbc 8695 7dbd 1c0a e5bc
00000380: 4cd4 f7bc 0a77 37bd 204b 34bc 8412 54bd
00000390: 307d 6dbc 4037 273b aa36 403d 6cc3 3d3d
000003a0: e882 683d ce25 273d dc20 93bc d83b 7f3c
000003b0: 0ac3 063d 18c7 5f3c 62e6 3b3d 7806 9a3c
000003c0: d0a0 b2bb 227e 4fbd 9402 70bd a4ee 6d3d
000003d0: e855 433c 80a8 5fbb bced e43c 08b5 c03c
000003e0: 0846 5dbc 5c56 9c3c 409b 4d3b 20bd 6cbd
000003f0: 28de 46bd 62b9 42bd 44fb 693d 9836 38bd
-0.0043793544 -0.013728209 -0.048307814 0.034356415 0.026677124 0.046608932 0.015654527 -0.054557256
0.04325998 0.008991644 -0.05001644 -0.013320938 -0.05841367 -0.006142415 0.029252082 -0.005672157
0.04695961 -0.044219196 -0.048281863 0.052646004 -0.04913482 0.02199386 0.04713037 0.047641575
0.059133254 0.016242303 -0.00705792 0.0049736574 0.042180665 -0.042103134 -0.03454552 0.031927302
0.015591592 -0.062228657 -0.0030759647 -0.043203257 0.052986905 0.024020247 -0.050602682 0.015664116
0.030682892 0.021081023 0.018415146 0.055662706 0.009656236 -0.057443753 -0.0085287765 0.060955837
0.017772906 -0.049439117 -0.03144735 0.01692219 -0.022215724 -0.06068766 -0.018496662 0.010868117
0.0003541261 0.041643597 -0.05354345 -0.011408836 -0.03399013 0.04240793 -0.05486165 0.010044299
-0.016870573 -0.0373715 -0.0025581196 -0.016361423 -0.018011495 0.046202235 0.02071359 0.0576694
-0.05207382 0.04600703 -0.040528804 0.008955024 0.01644954 -0.03163238 -0.03308165 0.058494233
-0.061314955 0.046305664 0.004557416 -0.045589805 0.039556935 0.039407857 0.035220318 0.050451554
0.0025953948 -0.02795495 -0.018060446 -0.037247904 -0.012463152 -0.032886274 0.028767169 -0.040505387
0.023866698 -0.058797978 0.038997553 0.0045778975 -0.0447419 0.00601127 0.0070064366 -0.04791537
0.0107093975 -0.0032366961 0.011233665 -0.05198569 0.034825116 -0.049409464 0.0013553873 -0.0147828385
0.043575943 0.060494095 0.013516493 0.036325566 -0.017265156 -0.006270997 -0.037653618 0.041520685
-0.017506637 -0.031586938 0.051449172 0.048713826 0.048234858 0.0029078722 -0.0026462525 -0.016478933
-0.03028673 0.047945112 0.05011017 -0.023150332 0.017983772 -0.0059311762 0.03797447 0.01615844
-0.036722995 -0.008126445 0.023657292 0.035087027 -0.048047565 0.0064599514 0.0025159866 -0.041600265
0.039956503 0.042552195 0.043129757 -0.055354364 0.025485806 -0.059251994 0.009424597 -0.028372362
0.013344727 -0.0058600903 -0.007854238 0.043848924 -0.05186587 -0.058214165 -0.057394736 0.043191865
-0.04790187 -0.056370474 -0.00024549663 0.038612865 -0.03503164 0.05495295 -0.0047854707 -0.0025044978
0.05661399 0.034315936 -0.011179477 -0.037408873 -0.044422872 -0.022783332 0.01596266 -0.025023073
0.061803624 -3.732741e-05 -0.036199503 0.023531757 -0.018109016 -0.014969051 0.058822423 -0.04771661
0.01885958 0.014757998 -0.026214428 0.023412675 -0.020599715 -0.0089307055 0.035050668 -0.023412555
0.045234896 0.045712642 0.030634567 -0.04904706 -0.059535578 -0.0031202286 -0.04400807 0.0036624
-0.025152966 0.0007213056 -0.033651635 -0.04893352 -0.050415955 -0.011052735 -0.057097852 0.055479348
0.036383264 0.056536958 0.020433232 0.014432654 -0.019979268 0.024069458 -0.04018891 -0.039793342
0.049286403 0.040916234 0.036732644 0.031058267 -0.0028899685 -0.030832909 -0.061910175 -0.027958922
-0.030252598 -0.04479126 -0.011004239 -0.05177547 -0.014495179 0.002551511 0.04692713 0.046328947
0.056765467 0.040807538 -0.017960005 0.015578233 0.032900847 0.0136583075 0.045874007 0.018801913
-0.0054512993 -0.0506574 -0.05859621 0.058088914 0.011922337 -0.0034127533 0.027945392 0.023523822
-0.013505466 0.019084148 0.0031373054 -0.05779755 -0.04855171 -0.047540076 0.05712439 -0.04497394

net.3.bias f4 [256]
00000000: 62a5 03bd 6c77 e33c a25f 40bd 1c77 3c3d
00000010: 4041 703d 80eb b9ba de08 453d 3cbe 6e3d
00000020: 50d9 d6bc 8c3c 423d d23a 0e3d 0804 e2bc
00000030: d4aa a63c 0caf 183d 960a 43bd 982c 513d
00000040: 8e70 08bd 46d4 3ebd 4048 9d3b 5617 0f3d
00000050: d63f 15bd 000c 9938 2018 2fbd ec71 973c
00000060: a061 21bb 46a0 753d 3025 f1bb 609f bb3b
00000070: 809f 65bc 7800 9fbc 98f0 073d 5637 15bd
00000080: a250 7f3d 6899 f13c 9843 73bd a4f5 363d
00000090: 08b3 c23c 50ad 7dbd b8aa 293c 84fe ba3c
000000a0: b4d3 a2bc c014 5dbd 3aaa 373d 7608 32bd
000000b0: 1e73 13bd 7891 44bd 507c 7d3d 14c6 7fbd
000000c0: 6248 243d 3053 f83c e86b f8bc ba7d 353d
000000d0: b85d 37bc 6eb6 79bd d80e 7c3c 44ef 25bd
000000e0: 0ab2 2abd b853 71bd 201c 08bc cc54 113d
000000f0: 2617 653d 1031 683c dc37 49bd ca65 5ebd
00000100: 4642 02bd 04f3 17bd 68d6 d53c 30a4 923b
00000110: 94ec 23bd 0eec 5bbd 344c 6a3d 4c1c e63c
00000120: 3627 09bd 8022 9bbc 52ac 393d f85d 5dbd
00000130: 7251 233d f08d 33bd 403f 09bc aa9e 57bd
00000140: 9208 1f3d 38ea 983c eceb b23c 1203 22bd
00000150: 2c43 b83c 761f 3fbd 10b4 52bd 9607 4cbd
00000160: 88ca 473d 1839 de3c 906a 06bc f0fd 163d
00000170: 6003 0ebc 7051 413c 4676 3d3d 40c1 4b3d
00000180: 6ac8 453d 3c3a 3d3d 2414 1bbd a871 5abc
00000190: d8dc a13c 1230 173d 78ff 383d a4ed 7bbd
000001a0: 44e9 0b3d 1461 9bbc d41a 103d 4056 cd3a
000001b0: 40ba 3d3c 6041 c1bb c4bd 8b3c 9857 87bc
000001c0: e418 603d c8ed 02bd b82a 66bc d04b 8e3b
000001d0: 8ebe 633d a8f9 5d3c e0fd 0abd 26ef 273d
000001e0: 72f3 1dbd 7655 4d3d dcd6 5a3d e451 b03c
000001f0: 70ee c53c 80eb a63a 62c1 5cbd ee1e 1d3d
00000200: 5281 663d 0c09 a1bc b001 98bc bc3d cbbc
00000210: 1ce1 883c 400a 78bd 0886 b0bc 4861 103d
00000220: 7cb0 623d 6c9c 5cbd 9043 1ebc 6880 803c
00000230: bc0e 48bd e450 863c 28cd bf3c 9886 c83c
00000240: 80bd e3bb 40ce 18bc 507a 583c 2287 4f3d
00000250: 0e93 2e3d 00cb c4bc 603a 2ebd e0d1 643c
00000260: 3c6a 4cbd d0b2 96bb 9013 e63b fa68 4f3d
00000270: b098 443c 807e 26bb b09b bd3c 245b 5ebd
00000280: eabb 5b3d 4014 9a3c 341e 31bd 501a d93b
00000290: 7429 a5bc 60d8 9ebc 7c53 62bd e8d3 5dbd
000002a0: 7c90 a63c 50b7 49bc 620f 413d b6cb 5c3d
000002b0: c454 2a3d 106d acbc d813 1abd 347b b2bc
000002c0: d8a4 7dbc 34b4 90bc b007 3b3c a08f 20bd
000002d0: 3641 3e3d b02b 8dbb 0cec a7bc 809d 05ba
000002e0: 2073 733b be5f 713d 2888 33bd e032 143b
000002f0: 38f2 d4bc d2df 113d c0d2 af3b 24f9 223d
00000300: c0b7 c2bb 705b 5a3d a861 b33c 80f8 e4bb
00000310: e09e 0abb 3a61 5d3d 80b7 143a 1ea9 683d
00000320: 8cca 89bc 28d6 97bc 4a35 71bd 5805 593c
00000330: f4c1 393d 201f 8fbb 288b 36bc b40e 56bd
00000340: f4a1 f53c c8e6 6dbc 2a1a 5a3d bc76 5d3d
00000350: 1ed4 13bd 68b1 213c f8f1 d9bc e8c4 1c3d
00000360: b838 2c3c b809 e3bc 1afc 4b3d 326c 2c3d
00000370: 1844 89bc 181e 273c c84f 35bd 9cad 37bd
00000380: 4893 28bc b84e 38bd 40f2 dfba 3058 a1bb
00000390: 4c13 5e3d 32c6 61bd 9050 03bd a0de c23c
000003a0: 62c1 45bd a4cf 963c 3848 6bbd f8e0 5cbd
000003b0: 887a 35bd a8a9 d33c 806a a53c 4ad9 0a3d
000003c0: 004f 99bb a06b f5bb d4e9 88bc ba56 273d
000003d0: 0054 70ba 58ee 0bbc 9a22 313d d8aa 3fbd
000003e0: e295 2abd 3013 573d a873 72bc c829 32bd
000003f0: 1a8a 05bd b268 4f3d ecb6 023d a0d2 b23b
-0.032140143 0.027766906 -0.046966203 0.04601203 0.058655977 -0.0014184564 0.04810416 0.05828689
-0.02622667 0.047421023 0.034724064 -0.027589813 0.02034513 0.037276313 -0.047617517 0.05106792
-0.033310466 -0.04658916 0.0047998726 0.034934364 -0.03643783 7.297844e-05 -0.042747617 0.01848694
-0.002462484 0.0599673 -0.0073591694 0.005725786 -0.014015079 -0.019409403 0.033188432 -0.036429726
0.062332757 0.029492095 -0.059390634 0.044667855 0.02376701 -0.06193286 0.010355644 0.02282644
-0.019876339 -0.053974867 0.044840075 -0.0434651 -0.035998456 -0.047990292 0.06188613 -0.06244476
0.040108092 0.030313104 -0.030324891 0.044309355 -0.011191778 -0.060964994 0.015384398 -0.040511385
-0.041673698 -0.05891773 -0.008307487 0.03548126 0.05593028 0.014171854 -0.049125537 -0.054296292
-0.031801485 -0.037096992 0.026103213 0.004475139 -0.04002054 -0.053691916 0.05720158 0.028089665
-0.03348466 -0.01893735 0.045330353 -0.054044694 0.039872594 -0.043836534 -0.008376896 -0.05264155
0.038826533 0.018666372 0.021841012 -0.03955371 0.022492968 -0.046660863 -0.051441252 -0.049811922
0.048777133 0.027126834 -0.008204117 0.036863267 -0.008667797 0.011799201 0.046255372 0.049744844
0.048286833 0.046198115 -0.037861004 -0.013332762 0.019758627 0.036911078 0.04516551 -0.06150593
0.034158006 -0.018967189 0.035181835 0.0015665963 0.01158005 -0.005897686 0.01705826 -0.01652126
0.054711238 -0.031965047 -0.014048271 0.0043425336 0.05560165 0.013548292 -0.03393352 0.040999554
-0.038562246 0.05013033 0.053427562 0.021523423 0.024161547 0.0012734979 -0.05389536 0.038359575
0.056275673 -0.019657634 -0.018555492 -0.02480971 0.016708903 -0.06055665 -0.021548286 0.035249025
0.05534409 -0.053860113 -0.009659663 0.015686229 -0.048842177 0.016395994 0.023413256 0.024478242
-0.0069500804 -0.009326518 0.013212755 0.050665982 0.04262071 -0.02402258 -0.04253614 0.013966054
-0.049906 -0.004598953 0.007021375 0.050637223 0.011999294 -0.002540499 0.023145527 -0.054286137
0.053646006 0.018808484 -0.043241695 0.006625451 -0.020161368 -0.019390285 -0.0552554 -0.054157168
0.020332567 -0.0123117715 0.04713381 0.05390521 0.041584745 -0.021048099 -0.03761658 -0.021787263
-0.015481196 -0.017664053 0.011415407 -0.03919947 0.04644891 -0.0043081865 -0.020498298 -0.00050970167
0.0037147477 0.058929197 -0.04383102 0.0022613332 -0.025994405 0.035613842 0.0053656995 0.03978838
-0.005942315 0.053309858 0.021897152 -0.0069876313 -0.0021151826 0.0540478 0.00056730956 0.056801908
-0.016820215 -0.018534735 -0.05888871 0.013245903 0.045350984 -0.004367724 -0.011141576 -0.052260116
0.029984452 -0.014520355 0.05324761 0.054068312 -0.036090963 0.009868957 -0.026604638 0.038273722
0.01051157 -0.027714595 0.04980097 0.04209537 -0.016756102 0.010200046 -0.04426554 -0.0448433
-0.010289021 -0.044996947 -0.0017085746 -0.004923843 0.05421762 -0.055120654 -0.032059252 0.023787796
-0.048280127 0.018409558 -0.05744192 -0.053925484 -0.044306308 0.025837734 0.020192385 0.03389863
-0.004678607 -0.0074896365 -0.01671306 0.040854193 -0.00091677904 -0.008540712 0.04324589 -0.04679379
-0.041646846 0.052508533 -0.014798082 -0.043496877 -0.032602407 0.050636955 0.03191273 0.0054572374

net.4.weight f4 [256]
00000000: 0000 803f 0000 803f 0000 803f 0000 803f
00000010: 0000 803f 0000 803f 0000 803f 0000 803f
00000020: 0000 803f 0000 803f 0000 803f 0000 803f
00000030: 0000 803f 0000 803f 0000 803f 0000 803f
00000040: 0000 803f 0000 803f 0000 803f 0000 803f
00000050: 0000 803f 0000 803f 0000 803f 0000 803f
00000060: 0000 803f 0000 803f 0000 803f 0000 803f
00000070: 0000 803f 0000 803f 0000 803f 0000 803f
00000080: 0000 803f 0000 803f 0000 803f 0000 803f
00000090: 0000 803f 0000 803f 0000 803f 0000 803f
000000a0: 0000 803f 0000 803f 0000 803f 0000 803f
000000b0: 0000 803f 0000 803f 0000 803f 0000 803f
000000c0: 0000 803f 0000 803f 0000 803f 0000 803f
000000d0: 0000 803f 0000 803f 0000 803f 0000 803f
000000e0: 0000 803f 0000 803f 0000 803f 0000 803f
000000f0: 0000 803f 0000 803f 0000 803f 0000 803f
00000100: 0000 803f 0000 803f 0000 803f 0000 803f
00000110: 0000 803f 0000 803f 0000 803f 0000 803f
00000120: 0000 803f 0000 803f 0000 803f 0000 803f
00000130: 0000 803f 0000 803f 0000 803f 0000 803f
00000140: 0000 803f 0000 803f 0000 803f 0000 803f
00000150: 0000 803f 0000 803f 0000 803f 0000 803f
00000160: 0000 803f 0000 803f 0000 803f 0000 803f
00000170: 0000 803f 0000 803f 0000 803f 0000 803f
00000180: 0000 803f 0000 803f 0000 803f 0000 803f
00000190: 0000 803f 0000 803f 0000 803f 0000 803f
000001a0: 0000 803f 0000 803f 0000 803f 0000 803f
000001b0: 0000 803f 0000 803f 0000 803f 0000 803f
000001c0: 0000 803f 0000 803f 0000 803f 0000 803f
000001d0: 0000 803f 0000 803f 0000 803f 0000 803f
000001e0: 0000 803f 0000 803f 0000 803f 0000 803f
000001f0: 0000 803f 0000 803f 0000 803f 0000 803f
00000200: 0000 803f 0000 803f 0000 803f 0000 803f
00000210: 0000 803f 0000 803f 0000 803f 0000 803f
00000220: 0000 803f 0000 803f 0000 803f 0000 803f
00000230: 0000 803f 0000 803f 0000 803f 0000 803f
00000240: 0000 803f 0000 803f 0000 803f 0000 803f
00000250: 0000 803f 0000 803f 0000 803f 0000 803f
00000260: 0000 803f 0000 803f 0000 803f 0000 803f
00000270: 0000 803f 0000 803f 0000 803f 0000 803f
00000280: 0000 803f 0000 803f 0000 803f 0000 803f
00000290: 0000 803f 0000 803f 0000 803f 0000 803f
000002a0: 0000 803f 0000 803f 0000 803f 0000 803f
000002b0: 0000 803f 0000 803f 0000 803f 0000 803f
000002c0: 0000 803f 0000 803f 0000 803f 0000 803f
000002d0: 0000 803f 0000 803f 0000 803f 0000 803f
000002e0: 0000 803f 0000 803f 0000 803f 0000 803f
000002f0: 0000 803f 0000 803f 0000 803f 0000 803f
00000300: 0000 803f 0000 803f 0000 803f 0000 803f
00000310: 0000 803f 0000 803f 0000 803f 0000 803f
00000320: 0000 803f 0000 803f 0000 803f 0000 803f
00000330: 0000 803f 0000 803f 0000 803f 0000 803f
00000340: 0000 803f 0000 803f 0000 803f 0000 803f
00000350: 0000 803f 0000 803f 0000 803f 0000 803f
00000360: 0000 803f 0000 803f 0000 803f 0000 803f
00000370: 0000 803f 0000 803f 0000 803f 0000 803f
00000380: 0000 803f 0000 803f 0000 803f 0000 803f
00000390: 0000 803f 0000 803f 0000 803f 0000 803f
000003a0: 0000 803f 0000 803f 0000 803f 0000 803f
000003b0: 0000 803f 0000 803f 0000 803f 0000 803f
000003c0: 0000 803f 0000 803f 0000 803f 0000 803f
000003d0: 0000 803f 0000 803f 0000 803f 0000 803f
000003e0: 0000 803f 0000 803f 0000 803f 0000 803f
000003f0: 0000 803f 0000 803f 0000 803f 0000 803f
1.0 1.0 1.0 1.0 1.0 1.0 1.0 1.0
1.0 1.0 1.0 1.0 1.0 1.0 1.0 1.0
1.0 1.0 1.0 1.0 1.0 1.0 1.0 1.0
1.0 1.0 1.0 1.0 1.0 1.0 1.0 1.0
1.0 1.0 1.0 1.0 1.0 1.0 1.0 1.0
1.0 1.0 1.0 1.0 1.0 1.0 1.0 1.0
1.0 1.0 1.0 1.0 1.0 1.0 1.0 1.0
1.0 1.0 1.0 1.0 1.0 1.0 1.0 1.0
1.0 1.0 1.0 1.0 1.0 1.0 1.0 1.0
1.0 1.0 1.0 1.0 1.0 1.0 1.0 1.0
1.0 1.0 1.0 1.0 1.0 1.0 1.0 1.0
1.0 1.0 1.0 1.0 1.0 1.0 1.0 1.0
1.0 1.0 1.0 1.0 1.0 1.0 1.0 1.0
1.0 1.0 1.0 1.0 1.0 1.0 1.0 1.0
1.0 1.0 1.0 1.0 1.0 1.0 1.0 1.0
1.0 1.0 1.0 1.0 1.0 1.0 1.0 1.0
1.0 1.0 1.0 1.0 1.0 1.0 1.0 1.0
1.0 1.0 1.0 1.0 1.0 1.0 1.0 1.0
1.0 1.0 1.0 1.0 1.0 1.0 1.0 1.0
1.0 1.0 1.0 1.0 1.0 1.0 1.0 1.0
1.0 1.0 1.0 1.0 1.0 1.0 1.0 1.0
1.0 1.0 1.0 1.0 1.0 1.0 1.0 1.0
1.0 1.0 1.0 1.0 1.0 1.0 1.0 1.0
1.0 1.0 1.0 1.0 1.0 1.0 1.0 1.0
1.0 1.0 1.0 1.0 1.0 1.0 1.0 1.0
1.0 1.0 1.0 1.0 1.0 1.0 1.0 1.0
1.0 1.0 1.0 1.0 1.0 1.0 1.0 1.0
1.0 1.0 1.0 1.0 1.0 1.0 1.0 1.0
1.0 1.0 1.0 1.0 1.0 1.0 1.0 1.0
1.0 1.0 1.0 1.0 1.0 1.0 1.0 1.0
1.0 1.0 1.0 1.0 1.0 1.0 1.0 1.0
1.0 1.0 1.0 1.0 1.0 1.0 1.0 1.0

net.4.bias f4 [256]
00000000: 0000 0000 0000 0000 0000 0000 0000 0000
00000010: 0000 0000 0000 0000 0000 0000 0000 0000
00000020: 0000 0000 0000 0000 0000 0000 0000 0000
00000030: 0000 0000 0000 0000 0000 0000 0000 0000
00000040: 0000 0000 0000 0000 0000 0000 0000 0000
00000050: 0000 0000 0000 0000 0000 0000 0000 0000
00000060: 0000 0000 0000 0000 0000 0000 0000 0000
00000070: 0000 0000 0000 0000 0000 0000 0000 0000
00000080: 0000 0000 0000 0000 0000 0000 0000 0000
00000090: 0000 0000 0000 0000 0000 0000 0000 0000
000000a0: 0000 0000 0000 0000 0000 0000 0000 0000
000000b0: 0000 0000 0000 0000 0000 0000 0000 0000
000000c0: 0000 0000 0000 0000 0000 0000 0000 0000
000000d0: 0000 0000 0000 0000 0000 0000 0000 0000
000000e0: 0000 0000 0000 0000 0000 0000 0000 0000
000000f0: 0000 0000 0000 0000 0000 0000 0000 0000
00000100: 0000 0000 0000 0000 0000 0000 0000 0000
00000110: 0000 0000 0000 0000 0000 0000 0000 0000
00000120: 0000 0000 0000 0000 0000 0000 0000 0000
00000130: 0000 0000 0000 0000 0000 0000 0000 0000
00000140: 0000 0000 0000 0000 0000 0000 0000 0000
00000150: 0000 0000 0000 0000 0000 0000 0000 0000
00000160: 0000 0000 0000 0000 0000 0000 0000 0000
00000170: 0000 0000 0000 0000 0000 0000 0000 0000
00000180: 0000 0000 0000 0000 0000 0000 0000 0000
00000190: 0000 0000 0000 0000 0000 0000 0000 0000
000001a0: 0000 0000 0000 0000 0000 0000 0000 0000
000001b0: 0000 0000 0000 0000 0000 0000 0000 0000
000001c0: 0000 0000 0000 0000 0000 0000 0000 0000
000001d0: 0000 0000 0000 0000 0000 0000 0000 0000
000001e0: 0000 0000 0000 0000 0000 0000 0000 0000
000001f0: 0000 0000 0000 0000 0000 0000 0000 0000
00000200: 0000 0000 0000 0000 0000 0000 0000 0000
00000210: 0000 0000 0000 0000 0000 0000 0000 0000
00000220: 0000 0000 0000 0000 0000 0000 0000 0000
00000230: 0000 0000 0000 0000 0000 0000 0000 0000
00000240: 0000 0000 0000 0000 0000 0000 0000 0000
00000250: 0000 0000 0000 0000 0000 0000 0000 0000
00000260: 0000 0000 0000 0000 0000 0000 0000 0000
00000270: 0000 0000 0000 0000 0000 0000 0000 0000
00000280: 0000 0000 0000 0000 0000 0000 0000 0000
00000290: 0000 0000 0000 0000 0000 0000 0000 0000
000002a0: 0000 0000 0000 0000 0000 0000 0000 0000
000002b0: 0000 0000 0000 0000 0000 0000 0000 0000
000002c0: 0000 0000 0000 0000 0000 0000 0000 0000
000002d0: 0000 0000 0000 0000 0000 0000 0000 0000
000002e0: 0000 0000 0000 0000 0000 0000 0000 0000
000002f0: 0000 0000 0000 0000 0000 0000 0000 0000
00000300: 0000 0000 0000 0000 0000 0000 0000 0000
00000310: 0000 0000 0000 0000 0000 0000 0000 0000
00000320: 0000 0000 0000 0000 0000 0000 0000 0000
00000330: 0000 0000 0000 0000 0000 0000 0000 0000
00000340: 0000 0000 0000 0000 0000 0000 0000 0000
00000350: 0000 0000 0000 0000 0000 0000 0000 0000
00000360: 0000 0000 0000 0000 0000 0000 0000 0000
00000370: 0000 0000 0000 0000 0000 0000 0000 0000
00000380: 0000 0000 0000 0000 0000 0000 0000 0000
00000390: 0000 0000 0000 0000 0000 0000 0000 0000
000003a0: 0000 0000 0000 0000 0000 0000 0000 0000
000003b0: 0000 0000 0000 0000 0000 0000 0000 0000
000003c0: 0000 0000 0000 0000 0000 0000 0000 0000
000003d0: 0000 0000 0000 0000 0000 0000 0000 0000
000003e0: 0000 0000 0000 0000 0000 0000 0000 0000
000003f0: 0000 0000 0000 0000 0000 0000 0000 0000
0.0 0.0 0.0 0.0 0.0 0.0 0.0 0.0
0.0 0.0 0.0 0.0 0.0 0.0 0.0 0.0
0.0 0.0 0.0 0.0 0.0 0.0 0.0 0.0
0.0 0.0 0.0 0.0 0.0 0.0 0.0 0.0
0.0 0.0 0.0 0.0 0.0 0.0 0.0 0.0
0.0 0.0 0.0 0.0 0.0 0.0 0.0 0.0
0.0 0.0 0.0 0.0 0.0 0.0 0.0 0.0
0.0 0.0 0.0 0.0 0.0 0.0 0.0 0.0
0.0 0.0 0.0 0.0 0.0 0.0 0.0 0.0
0.0 0.0 0.0 0.0 0.0 0.0 0.0 0.0
0.0 0.0 0.0 0.0 0.0 0.0 0.0 0.0
0.0 0.0 0.0 0.0 0.0 0.0 0.0 0.0
0.0 0.0 0.0 0.0 0.0 0.0 0.0 0.0
0.0 0.0 0.0 0.0 0.0 0.0 0.0 0.0
0.0 0.0 0.0 0.0 0.0 0.0 0.0 0.0
0.0 0.0 0.0 0.0 0.0 0.0 0.0 0.0
0.0 0.0 0.0 0.0 0.0 0.0 0.0 0.0
0.0 0.0 0.0 0.0 0.0 0.0 0.0 0.0
0.0 0.0 0.0 0.0 0.0 0.0 0.0 0.0
0.0 0.0 0.0 0.0 0.0 0.0 0.0 0.0
0.0 0.0 0.0 0.0 0.0 0.0 0.0 0.0
0.0 0.0 0.0 0.0 0.0 0.0 0.0 0.0
0.0 0.0 0.0 0.0 0.0 0.0 0.0 0.0
0.0 0.0 0.0 0.0 0.0 0.0 0.0 0.0
0.0 0.0 0.0 0.0 0.0 0.0 0.0 0.0
0.0 0.0 0.0 0.0 0.0 0.0 0.0 0.0
0.0 0.0 0.0 0.0 0.0 0.0 0.0 0.0
0.0 0.0 0.0 0.0 0.0 0.0 0.0 0.0
0.0 0.0 0.0 0.0 0.0 0.0 0.0 0.0
0.0 0.0 0.0 0.0 0.0 0.0 0.0 0.0
0.0 0.0 0.0 0.0 0.0 0.0 0.0 0.0
0.0 0.0 0.0 0.0 0.0 0.0 0.0 0.0

net.6.weight f4 [3, 256]
00000000: fcd4 54bd 7c03 bfbc 70d2 a4bc 9022 513d
00000010: 001e 64bc 4e6a 063d fa9f 44bd 003d 5e3c
00000020: ba40 29bd 2e6a 6d3d 72a6 003d 80ff 0ebc
00000030: de03 4d3d 6039 f33c 367a 6cbd 28df 183d
00000040: 00c0 92b8 982e b03c 809e b5bc 4c64 f83c
00000050: 4c96 38bd 20c7 14bc 78a7 f2bc e0b7 efbb
00000060: 5457 723d d06e 3e3d 0ed4 19bd 38ed ea3c
00000070: 70e1 413d 403f 253b 54bf 08bd 02bc 233d
00000080: ca5f 10bd a8b8 24bc 9813 8c3c 7860 58bd
00000090: 0224 24bd 185a 1abc 626d 333d 3e66 523d
000000a0: 3495 123d a4a6 a63c 5805 d3bc 7085 a13b
000000b0: 8435 2fbd f4c8 47bd f4aa 303d e4fa 97bc
000000c0: e8e2 103c 9018 923b c096 133b ce02 553d
000000d0: 3424 1fbd 8883 7e3c 5443 5b3d 6653 7e3d
000000e0: 0417 c03c c0f7 06bb e616 2a3d 5471 6fbd
000000f0: 40e1 433c e846 b3bc c84b 973c 1a1f 4dbd
00000100: d84f 423c 9c69 cb3c f007 ff3c e063 513c
00000110: 00d4 54b9 eeef 463d 6cb7 2cbd 7688 0cbd
00000120: a46d 583d eadb 3b3d 56d7 1b3d 707a 2abc
00000130: 500d dbbb 082c a7bc 88e0 24bc a080 d4bc
00000140: 8096 873c 54f7 83bc 8051 6eba aae8 3e3d
00000150: 6aac 54bd 320f 75bd 002f 633a c2b5 6fbd
00000160: d0f2 d93b 04c3 31bd 7e1c 483d 2af4 6cbd
00000170: 36a0 793d 1aa0 373d 124b 193d de9d 1b3d
00000180: 30f2 9bbb 081f c23c 141e 3c3d ee7d 02bd
00000190: 5cfe b23c c28a 7ebd 94c0 e0bc 08c1 193c
000001a0: 40e7 a5ba c0f7 68bd dce3 5bbd ccbf cf3c
000001b0: 9488 d6bc b8ff 5e3d 602e 33bc 92c6 063d
000001c0: a8a9 5c3d 101f 6ebd e0c7 a43c c616 48bd
000001d0: f87d 04bd 14cb 85bc b059 393c 70e4 1bbc
000001e0: 8c3b 553d e042 3e3c 48af 78bd 4001 dcbb
000001f0: 341b c8bc 3832 b33c 8008 c6bb 0a1c 093d
00000200: 1a3e 483d 4820 093d ea43 1d3d d859 f2bc
00000210: 8c4b b83c 42fd 3e3d 088b 263c 509a f83c
00000220: f89e d4bc 9cfb 8e3c 50ec 313d 9053 1f3d
00000230: 708c d63b d032 913b c08f 703b 740e 41bd
00000240: 10a6 ed3b c6e3 323d a45c 543d 785d 1c3c
00000250: b885 4abd 3846 9d3c 786d ab3c a03d 40bd
00000260: 28be e0bc 1ac7 213d 903f b6bc 5898 a43c
00000270: 1cbc b4bc 80c4 d8bc f802 4c3d 1801 abbc
00000280: 6ce8 333d a08d ce3b 9852 a83c 9887 11bd
00000290: d0a6 f7bb d4fe afbc 8834 7e3d 4c5e f8bc
000002a0: 40f7 15bd c66f 5cbd 00d4 3f3c a0db cf3c
000002b0: f678 77bd d048 73bc 6052 af3b e205 6dbd
000002c0: f84c 4e3c 90d9 ad3b 70c5 fb3b b20d 523d
000002d0: aa93 20bd 2cc5 abbc 3228 7cbd ee4d 27bd
000002e0: 16d4 21bd fce9 a33c 4446 88bc 8016 d5bc
000002f0: 78ab 1ebc 588a 5e3d 4043 b6bc 68d6 7cbc
00000300: b851 633c 8475 e7bc e04e e6bb d8d7 9c3c
00000310: 40ac 9bbb 9cfa b0bc e823 fd3c 0043 b5b9
00000320: 0cb8 44bd 4049 cd3c dcc5 b03c d03f 723d
00000330: 00b1 4b3c 6084 52bc d8cc 403c 9c5f 6c3d
00000340: c080 bb3a 1605 54bd f0c9 583d 688f 443c
00000350: 24cc 42bd 40c4 aa3a b046 bd3b e611 313d
00000360: 086a 253d c443 7b3d e663 243d b239 4cbd
00000370: 3015 143c 9a25 6fbd fc3b 4ebd 88ba 543c
00000380: c0fa 773b 9068 f6bc 44ea b23c 1072 f5bb
00000390: ac67 f83c 9e47 16bd 64d6 033d c0f6 9c3b
000003a0: 3e3c 58bd 80c5 8b3c f8a7 a9bc 8047 813c
000003b0: 80e7 153a 1617 44bd 40fc da3c 4081 0abc
000003c0: 6e01 56bd 94f9 773d 50d8 6b3d 7035 e63b
000003d0: 40ba d2bb 8081 a33b c8c9 ef3c ba5e 443d
000003e0: 68c1 703c 48f5 603c c895 233d d80d 733d
000003f0: 2c47 3cbd d0a8 8b3c b098 ff3c b03d fcbb
-0.05196093 -0.023317091 -0.020119876 0.051058352 -0.013923168 0.032816224 -0.048004128 0.013564348
-0.041321494 0.05796259 0.031408735 -0.008727908 0.050052516 0.029690444 -0.057733737 0.037322193
-6.997585e-05 0.021506593 -0.022170305 0.030321263 -0.04506521 -0.009080678 -0.029620871 -0.007315621
0.059165314 0.046492398 -0.037555747 0.028677568 0.047334135 0.0025214702 -0.03338559 0.03997422
-0.0352476 -0.010053791 0.017099187 -0.052826375 -0.040073402 -0.009420894 0.043805487 0.051367037
0.035786822 0.020343132 -0.025759384 0.004929237 -0.042775646 -0.04877563 0.043131784 -0.018552251
0.008843161 0.0044584945 0.0022520274 0.052004628 -0.038852885 0.015534289 0.053531006 0.062091254
0.023448475 -0.0020594448 0.041525744 -0.058457687 0.011955559 -0.021884397 0.018468753 -0.05007849
0.011859857 0.024830632 0.031131715 0.01278016 -0.00020296872 0.04856866 -0.042167112 -0.034309827
0.052838936 0.045864023 0.038047157 -0.010405168 -0.0066849366 -0.020406738 -0.010063298 -0.02594024
0.016551256 -0.016109146 -0.0009091124 0.046608604 -0.05192224 -0.059828945 0.00086663663 -0.058522947
0.00665126 -0.043398872 0.048855297 -0.05785004 0.060943805 0.04483042 0.03742511 0.03799235
-0.0047590956 0.023696437 0.045927122 -0.031858377 0.021849804 -0.06214405 -0.027435578 0.009384401
-0.0012657419 -0.056876898 -0.0536841 0.02536001 -0.026188172 0.05444309 -0.01093635 0.032904215
0.053872734 -0.058135092 0.02011484 -0.048849843 -0.032346696 -0.016332187 0.011312887 -0.009514913
0.05205874 0.011612624 -0.060714036 -0.006714016 -0.024427034 0.021874532 -0.0060434937 0.033474006
0.04888735 0.03347805 0.038394846 -0.029583856 0.022496961 0.046628244 0.010164984 0.03034702
-0.025954708 0.017453961 0.043438256 0.03889805 0.006547503 0.004431106 0.0036706775 -0.047132924
0.007252462 0.043674253 0.05184616 0.009543769 -0.04944393 0.019198522 0.020926222 -0.04693377
-0.027434424 0.03949652 -0.022247106 0.020092174 -0.022062354 -0.026460886 0.04980752 -0.020874545
0.043922827 0.006303504 0.020547196 -0.035529703 -0.0075577274 -0.021483816 0.062061816 -0.030318402
-0.03661275 -0.053817533 0.01170826 0.02537328 -0.06041809 -0.014848903 0.005350396 -0.05786694
0.012591593 0.0053054765 0.0076834485 0.051282592 -0.039203323 -0.020968042 -0.06156177 -0.040845804
-0.0395089 0.020009033 -0.016635068 -0.026011705 -0.009684436 0.054331154 -0.022248864 -0.015431978
0.013874464 -0.028254278 -0.0070284456 0.019145891 -0.0047507584 -0.021603875 0.03090091 -0.0003457293
-0.048027083 0.025059342 0.021578722 0.059142888 0.012432337 -0.0128489435 0.011767589 0.057708368
0.0014305338 -0.051762663 0.052926958 0.011997081 -0.047557965 0.0013028458 0.005776249 0.04322996
0.040384322 0.061343923 0.040134333 -0.04985971 0.009038255 -0.05838547 -0.050350174 0.012983926
0.0037838668 -0.030079156 0.021840222 -0.007490404 0.030322872 -0.036689393 0.03218688 0.004790157
-0.052791826 0.017061949 -0.020709977 0.015781164 0.0005718395 -0.04787358 0.02673161 -0.008453667
-0.052247457 0.06054075 0.05757934 0.007025413 -0.006430894 0.004989803 0.029271021 0.0479419
0.014694549 0.013730355 0.039937764 0.059339374 -0.045966312 0.01704827 0.031200737 -0.0076977834

net.6.bias f4 [3]
00000000: 4201 74bd a40f 333d 0c3f 653d
-0.059571512 0.043716088 0.05596833
