models/maddpg/best_agent_4_RiskManager.pt (torch, 611937 bytes, 20 tensors)

net.0.weight f4 [256, 30]
0	0xbdee725e	-0.116429076
1	0x3e1e0104	0.15430075
2	0x3d041858	0.03224978
3	0xbe23272d	-0.15932913
4	0x3e0ec438	0.13942039
5	0x3dc9d3e4	0.09854868
6	0xbe21ddf9	-0.15807332
7	0xbdde38ee	-0.10850702
8	0x3dc25538	0.094889104
9	0x3e1528ce	0.14566347
10	0x3d2440bc	0.040100798
11	0x3df27520	0.11838746
12	0xbe1ad948	-0.15121949
13	0xbcf58a80	-0.029973269
14	0xbcf78418	-0.030214354
15	0x3e235204	0.15949255
16	0xbe314b81	-0.17313959
17	0xbd86800e	-0.06567393
18	0x3e14342c	0.14473027
19	0xbe12ed2c	-0.14348286
20	0x3d147ba4	0.036250725
21	0xbc6e1160	-0.01453051
22	0x3cfaf808	0.030635849
23	0xbc4d66a0	-0.012536675
24	0x3e1b91e4	0.15192372
25	0xbc31a430	-0.010842368
26	0x3dd80980	0.10548687
27	0x3dde6048	0.10858208
28	0xbe370571	-0.1787317
29	0x3e198816	0.14993319
30	0xbd419c14	-0.04726799
31	0x3cc8c778	0.024509177
32	0xbddb8cfc	-0.1072025
33	0xbe207858	-0.15670907
34	0x3d6d9bf8	0.05801007
35	0x3e28f518	0.16499746
36	0x3db40340	0.087896824
37	0xbe3543fd	-0.17701717
38	0x3db02888	0.08601481
39	0xbdf38c43	-0.11891987
40	0x3d5f0284	0.05444576
41	0x3e33b22a	0.17548433
42	0xbe10c61f	-0.14138077
43	0xbd699d80	-0.05703497
44	0xbd028378	-0.03186366
45	0x3e303f56	0.1721166
46	0xbe3828f8	-0.17984378
47	0xbddb7649	-0.107159205
48	0xbd2d2800	-0.042274475
49	0xbe0f3797	-0.1398605
50	0xbdf0cc4d	-0.11757717
51	0x3c074250	0.008255556
52	0x3e27bd5e	0.16380832
53	0xbdc2ce1b	-0.09511968
54	0x3e14d14c	0.14532965
55	0x3d18c330	0.03729552
56	0x3c800e18	0.01563172
57	0x3da736e0	0.081647635
58	0xbd5cc45c	-0.0538982
59	0x3ce29bc0	0.027662158
60	0x3db85b14	0.09001747
61	0x3b8e62e0	0.004345283
62	0x3e288728	0.16457808
63	0x3da9777c	0.08274743
64	0x3dbc8c70	0.09206474
65	0x3e35711e	0.17718932
66	0x3caa73b0	0.020807117
67	0xbddac796	-0.10682599
68	0x3dd80614	0.10548034
69	0xbdd2a4a5	-0.1028531
70	0xbd2ee75c	-0.04270111
71	0xbd99c9a0	-0.0750916
72	0x3e36e5a8	0.17861044
73	0xbd4f251c	-0.0505725
74	0x3e3270f2	0.17425898
75	0xbe29aa6d	-0.16568919
76	0x3c9cd2c0	0.019143462
77	0xbc7c8100	-0.015411615
78	0x3c5522c0	0.013008773
79	0x3bdddf80	0.006771028
80	0x3e39fb9a	0.18162385
81	0xbe21416f	-0.15747617
82	0x3d053dac	0.032529518
83	0x3e1b8e82	0.15191081
84	0xbd05df0c	-0.032683417
85	0xbdcaab19	-0.098959155
86	0xbe2643c8	-0.16236794
87	0x3dd56880	0.104203224
88	0xbcaad2d8	-0.020852491
89	0xbe2fff65	-0.17187269
90	0x3d0bf824	0.034172192
91	0x3de21780	0.110396385
92	0x3dde287c	0.108475655
93	0xbd7afa58	-0.061273903
94	0x3e363abe	0.17795846
95	0x3e0ba29a	0.13636246
96	0x3d743554	0.05962117
97	0xbe081650	-0.13289762
98	0x3d7f729c	0.06236516
99	0x3dcc8708	0.09986693
100	0x3d8bb8dc	0.068223685
101	0xbdb7c5ba	-0.0897326
102	0xbb8f1cc0	-0.004367441
103	0xbd9d55fa	-0.07682414
104	0x3cffbb30	0.031217188
105	0xbd6e1876	-0.058128797
106	0x3aea6900	0.0017884076
107	0x3e14c52c	0.1452834
108	0x3e337f18	0.17528951
109	0xbd310fe4	-0.043228045
110	0x3e0b83f4	0.13624555
111	0xbe391ab8	-0.18076599
112	0x3d461484	0.04835941
113	0x3db153a0	0.08658528
114	0x3db3c9c8	0.08778721
115	0xbdaa4446	-0.083138034
116	0xbc1212f0	-0.008915648
117	0xbd8ed2bd	-0.06973789
118	0xbd5ee238	-0.054414958
119	0xbdb89bfd	-0.090141274
120	0xbe32f1f0	-0.17475104
121	0xbdab1ba8	-0.083548844
122	0x3e2ed172	0.17072085
123	0xbd88facc	-0.06688461
124	0xbe351b2f	-0.17686151
125	0xbe3275c3	-0.17427735
126	0xbca91070	-0.02063772
127	0x3e0e4cbe	0.13896462
128	0x3df8f7ec	0.12156662
129	0x3da0d6bc	0.07853457
130	0x3e07b5be	0.13252923
131	0xbdffec0a	-0.12496193
132	0xbdb1383f	-0.08653306
133	0xbd1b99e0	-0.037988544
134	0xbd999b1a	-0.075002864
135	0xbbbcab40	-0.0057577193
136	0xbe235e86	-0.15954027
137	0xbcbe79b0	-0.023251384
138	0xbe2535b4	-0.16133767
139	0xbdf04cc9	-0.117333956
140	0x3d46b888	0.048515826
141	0xbda72430	-0.08161199
142	0xbd689c70	-0.056789815
143	0xbd2171d8	-0.03941521
144	0xbe070fd3	-0.1318963
145	0x3ddcd11c	0.10782072
146	0x3dce3590	0.1006881
147	0x3c618880	0.013765454
148	0xbdfae016	-0.12249772
149	0x3e2e4706	0.17019281
150	0x3de33d20	0.11095643
151	0xbd1debf4	-0.0385551
152	0xbdd02106	-0.10162549
153	0xbe05309e	-0.13006827
154	0xbdd8069c	-0.10548136
155	0xbdc78705	-0.0974255
156	0x3d6e8a84	0.058237568
157	0xbe2b8ca8	-0.16752875
158	0x3df6dd8c	0.120539755
159	0x3d9dfe68	0.0771454
160	0xbd8aa32a	-0.06769402
161	0xbdce99c7	-0.100879245
162	0xbe24e2ac	-0.16102093
163	0xbdb27746	-0.08714156
164	0xb8310000	-4.220009e-05
165	0xbe1504e0	-0.14552641
166	0xbc05c710	-0.008165136
167	0xbe3772fe	-0.1791496
168	0x3ddcceb4	0.10781613
169	0xb8947800	-7.079542e-05
170	0xbd2e1d28	-0.042508274
171	0x3e18c604	0.14919287
172	0x3c155420	0.009114295
173	0xbe16047b	-0.14650147
174	0x3e0f8c2a	0.14018312
175	0xbce44a18	-0.027867362
176	0x3dff41d4	0.124637276
177	0xbe0875ba	-0.13326159
178	0xbe076f28	-0.13225996
179	0xbd713946	-0.05889251
180	0x3df2f4b8	0.11863083
181	0x3e27e112	0.16394451
182	0x3e2715d6	0.16316923
183	0x3dc18130	0.09448469
184	0xbdc7ef6e	-0.097624645
185	0x3d81b6f0	0.06333721
186	0xbe11bea2	-0.14232877
187	0x3caf7ce0	0.02142185
188	0x3e1ad080	0.15118599
189	0x3de1db94	0.11028209
190	0x3e2e27ba	0.17007342
191	0x3d9ebac4	0.077504665
192	0xbe277dc2	-0.16356567
193	0x3ca11d70	0.019667357
194	0xbc4968e0	-0.012293071
195	0x3d8ff740	0.07029581
196	0xbca0c008	-0.019622818
197	0x3da024e4	0.07819536
198	0x3b76ad80	0.0037640035
199	0xbdbaa531	-0.09113539
200	0xbe13e948	-0.14444458
201	0x3dec2870	0.1153115
202	0xbd8a3709	-0.067487784
203	0x3ce133e0	0.027490556
204	0x3e38c30e	0.18043157
205	0xbd0f933c	-0.035052523
206	0x3e07e148	0.13269532
207	0xbe0a6657	-0.13515602
208	0x3e244f12	0.16045788
209	0x3dd77438	0.10520214
210	0xbce1efe0	-0.027580202
211	0xbe1f2964	-0.15543133
212	0x3e1b3fc0	0.15161037
213	0xbe39326a	-0.18085638
214	0xbdef6909	-0.11689956
215	0x3e082d9c	0.13298649
216	0xbe172f8f	-0.14764236
217	0xbd63fac4	-0.05565907
218	0x3e2e3cfe	0.17015454
219	0xbd3a956c	-0.045552656
220	0x3c0b14a0	0.008488804
221	0xbe016e50	-0.12639737
222	0xbb2492c0	-0.0025111884
223	0x3e19c33c	0.15015882
224	0xbd61fe2c	-0.055174038
225	0xbd8ee8e3	-0.06978013
226	0x3d0bbcdc	0.034115657
227	0xbd59bf64	-0.05316104
228	0x3e36b9ec	0.17844361
229	0xbc78ed20	-0.015193254
230	0x3d268d30	0.04066199
231	0xbca61380	-0.02027297
232	0x3e279e94	0.16369087
233	0xbe080e36	-0.13286671
234	0x3d554bdc	0.0520743
235	0x3d9cacf4	0.07650176
236	0x3dea4840	0.11439562
237	0xbdc5cfad	-0.09658752
238	0x3db071b0	0.08615434
239	0x3b893d80	0.0041882396
240	0x3de1347c	0.10996339
241	0x3e274430	0.16334605
242	0x3cf62850	0.03004852
243	0x3da405ec	0.08008942
244	0xbe395633	-0.18099289
245	0xbbef5d80	-0.0073048472
246	0x3c3443a0	0.011002451
247	0xbd86899e	-0.06569217
248	0x3e32929a	0.17438737
249	0xbdf29de6	-0.11846523
250	0x3df2f37c	0.11862847
251	0x3d4e3ed0	0.05035287
252	0x3d4f7b64	0.050654784
253	0x3cc34048	0.023834363
254	0x3e37cee6	0.17950019
255	0xbdf74160	-0.12073016

net.0.bias f4 [256]
0	0x3bd98c40	0.0066390336
1	0x3bea9300	0.007158637
2	0xbd7e6fe6	-0.062118433
3	0x3dcfe8d8	0.10151833
4	0x3d311bd0	0.043239415
5	0x3df09ebc	0.11749026
6	0xbde7af18	-0.11312693
7	0xbc4569a0	-0.012049109
8	0x3d5d01f4	0.05395694
9	0x3df70cb8	0.12062973
10	0x3de7a760	0.11311221
11	0x3d0c87b8	0.03430912
12	0x3d41ceac	0.04731624
13	0xbd5408a8	-0.051766068
14	0x3dbfa6ec	0.0935801
15	0x3dcf5b38	0.101248205
16	0xbcae0188	-0.021240965
17	0x3da89920	0.08232331
18	0x3e17948e	0.14802763
19	0xbc7dee30	-0.015498683
20	0x3d917ff8	0.07104486
21	0xbda8604b	-0.082214914
22	0xbe346f2c	-0.17620534
23	0x3ce84270	0.028351992
24	0xbe2c6ef2	-0.16839197
25	0x3d2e4370	0.042544782
26	0x3cec9c20	0.02888304
27	0xbd854445	-0.06507162
28	0xbcb291c8	-0.02179803
29	0xbd805d47	-0.06267791
30	0x3e1cadae	0.15300629
31	0x3da83bc8	0.08214527
32	0x3d2e185c	0.0425037
33	0x3e13e132	0.14441374
34	0xbc649940	-0.013952553
35	0x3deb6a14	0.11494842
36	0xbda7be77	-0.08190625
37	0x3e309530	0.1724441
38	0x3e04ee32	0.1298149
39	0xbd5bb7e4	-0.05364217
40	0x3d8b6c88	0.0680781
41	0x3e37df56	0.1795629
42	0x3cd2f620	0.025752127
43	0x3bb64560	0.0055624694
44	0xbe19788c	-0.14987391
45	0xbdaf66e9	-0.085645504
46	0xbbe93040	-0.0071163476
47	0xbbc0f1a0	-0.005888179
48	0x3babfba0	0.005248502
49	0x3e286734	0.16445619
50	0x3dcde624	0.100536615
51	0xbd191d08	-0.037381202
52	0x3e1e6de8	0.15471613
53	0xbdb44cb1	-0.0880369
54	0x3db162f8	0.08661455
55	0xbdf9ee53	-0.1220366
56	0x3e1d7b9a	0.15379182
57	0x3c96e4f8	0.018419728
58	0x3e06d518	0.13167226
59	0xb9a14a00	-0.00030763447
60	0xbc0f6410	-0.008751884
61	0x3d6b3b80	0.05742979
62	0x3e046f82	0.12933162
63	0xbd9d863e	-0.0769162
64	0x3d29b908	0.041436225
65	0x3d42cdd0	0.04755956
66	0xbdd45979	-0.10368628
67	0x3ddd5d8c	0.10808858
68	0x3d629744	0.05532004
69	0xbdca1a25	-0.09868268
70	0x3e282e48	0.16423905
71	0xbcab4108	-0.020905033
72	0x3cdf9848	0.027294293
73	0x3e1597f4	0.14608747
74	0xbc6dace0	-0.014506549
75	0xbd5ae818	-0.053443998
76	0xbe3689c2	-0.17825988
77	0x3df2028c	0.11816892
78	0x3d1540d4	0.036438778
79	0x3d20beb8	0.039244384
80	0xbdbe9044	-0.0930486
81	0xbcfbc2e0	-0.030732572
82	0xbd958df1	-0.07302464
83	0x3e31508c	0.17315882
84	0x3cf227a8	0.029559925
85	0xbd857d9f	-0.06518101
86	0xbd9f4fa6	-0.077788636
87	0xbd0be17c	-0.034150586
88	0xbda8900f	-0.08230602
89	0x3de50c54	0.11183992
90	0xbe1835ea	-0.14864317
91	0xbd7303ac	-0.059329674
92	0xbdba4f33	-0.09097137
93	0xbdbca435	-0.092110075
94	0xbe22aa04	-0.15885168
95	0x3e199b66	0.15000686
96	0x3b2d1bc0	0.0026414245
97	0x3e2f5a0a	0.17124191
98	0xbd97cfe8	-0.07412702
99	0x3db5590c	0.08854875
100	0x3e309d92	0.17247608
101	0xbe2bacf7	-0.167652
102	0xbdf1d8a4	-0.11808899
103	0x3e3a3cdc	0.18187279
104	0xbd41110c	-0.047135398
105	0x3d98fa20	0.074695826
106	0x3ce04b28	0.027379587
107	0x3c5d1d60	0.013495773
108	0xbddea266	-0.10870819
109	0x3de54098	0.11193961
110	0x3cbd36f0	0.023097485
111	0xbccf93d8	-0.025339052
112	0x3d87325e	0.06601404
113	0xbdf35661	-0.1188171
114	0xbe37f574	-0.17964727
115	0xbd4caadc	-0.04996763
116	0xbd643254	-0.05571206
117	0x3c049410	0.0080919415
118	0x3e2ce0ba	0.16882601
119	0x3cc8b0b0	0.024498314
120	0xbdb3c60e	-0.0877801
121	0x3cc32250	0.023820072
122	0xbe199688	-0.1499883
123	0x3e1a2b34	0.15055543
124	0x3e33d6e4	0.17562443
125	0xbe15f61c	-0.14644665
126	0xbda3e2a5	-0.080022134
127	0xbdadce8a	-0.0848666
128	0x3c91dab0	0.017804474
129	0x3d20dc28	0.039272457
130	0x3dd245c0	0.1026721
131	0xbe105bd4	-0.1409753
132	0x3e2d7c82	0.16942027
133	0x3ad86280	0.0016508847
134	0x3d1b1b64	0.03786792
135	0xbe0c4cea	-0.13701215
136	0xbc0c5280	-0.008564591
137	0x3dceab0c	0.10091218
138	0xbded4582	-0.11585523
139	0x3c760500	0.0150158405
140	0xbd5b4558	-0.05353293
141	0x3d274774	0.040839627
142	0x3df28644	0.118420154
143	0xbe132620	-0.14370012
144	0xbe17a6ca	-0.14809719
145	0xbd8fd14b	-0.07022341
146	0x3e27c298	0.16382825
147	0x3de87098	0.113496006
148	0x3dd88478	0.105721414
149	0xbdccb0e4	-0.09994677
150	0x3e1e0778	0.15432537
151	0x3e299a24	0.16562706
152	0xbddb0748	-0.10694748
153	0xbbea4620	-0.007149473
154	0x3d1b3844	0.037895456
155	0xbd076350	-0.033053696
156	0x3e321898	0.17392194
157	0xbde5516d	-0.11197171
158	0x3cc3e1a8	0.023911312
159	0xbe0b9064	-0.136293
160	0x3e1fb254	0.1559537
161	0x3e2a4564	0.16628033
162	0x3e07ee46	0.13274488
163	0x3e347d2c	0.17625874
164	0x3e1e7766	0.15475234
165	0x3deb6cb8	0.11495346
166	0xbd5754a0	-0.05257094
167	0xbd20e588	-0.039281398
168	0x3dbf630c	0.093450636
169	0x3cea15c8	0.02857484
170	0xbe1bca0a	-0.1521379
171	0xbe014222	-0.12622884
172	0xbe143c83	-0.14476208
173	0x3e1ce43a	0.15321437
174	0x3de2be94	0.11071506
175	0xbd5344a8	-0.051579148
176	0xbd9280ad	-0.07153449
177	0xbe0faa8f	-0.14029907
178	0x3d109bec	0.03530495
179	0xbcd36bd8	-0.02580826
180	0xbda1a0d5	-0.078920044
181	0x3dbee678	0.09321302
182	0x3e323970	0.17404723
183	0xbe12848b	-0.14308374
184	0xbce334f0	-0.027735204
185	0xbb934ce0	-0.004495248
186	0x3df4aa74	0.11946574
187	0xbe2d8abb	-0.16947453
188	0x3e269770	0.16268706
189	0xbe13cb97	-0.14433132
190	0xbe23baaf	-0.15989183
191	0xbe1242ce	-0.14283296
192	0x3d95ffa8	0.07324153
193	0x3e23d574	0.15999395
194	0xbdc94b13	-0.098287724
195	0x3df36610	0.11884701
196	0x3dfcd8c4	0.12346032
197	0x3dd47cb8	0.10375351
198	0xbe273782	-0.16329768
199	0xbe1bfeae	-0.15233871
200	0xbdba98ea	-0.09111197
201	0xbe2a524c	-0.16632956
202	0x3e2d95d2	0.16951683
203	0x3c03cd10	0.008044496
204	0x3d8e1660	0.069378614
205	0x3e139aaa	0.14414468
206	0x3e0e3f94	0.1389144
207	0x3d9a29c4	0.075274974
208	0x3cecc608	0.028903022
209	0x3e25447a	0.16139403
210	0xbe003122	-0.12518743
211	0xbd9a0c4c	-0.07521877
212	0xbdf9f30a	-0.12204559
213	0xbde0f7da	-0.10984774
214	0x3dd0fd3c	0.102045506
215	0xbe24f16e	-0.16107723
216	0x3da78778	0.081801355
217	0x3e3451de	0.17609355
218	0x3ca21b28	0.01978834
219	0xbd9ae75d	-0.0756366
220	0x3e37511c	0.17902035
221	0x3da49cd8	0.08037728
222	0x3db5597c	0.088549584
223	0xbd95f9c4	-0.0732303
224	0x3e26dda0	0.1629548
225	0xbd9b28cb	-0.0757614
226	0x3d301bd8	0.042995304
227	0xbd2a0574	-0.041509107
228	0xbd926f54	-0.071501404
229	0x3b7c4ac0	0.0038496703
230	0xbe2fa7f8	-0.17153919
231	0x3db03c6c	0.086052746
232	0x3e3a4d1c	0.18193477
233	0x3d4effc4	0.050536886
234	0x3d4fc5e4	0.050725833
235	0x3d8ea880	0.069657326
236	0x3d9f7cd8	0.07787484
237	0x3e0c9878	0.13730037
238	0x3d4514b0	0.048115432
239	0xbe386711	-0.18008067
240	0x3c4a71b0	0.012356207
241	0xbdff1bd8	-0.12456483
242	0x3da9cbd4	0.0829083
243	0xbd288ef8	-0.04115197
244	0x3e03ac52	0.12858704
245	0x3ced39f8	0.028958306
246	0x3e0cf6ee	0.13766071
247	0xbe14a523	-0.1451612
248	0x3e1f8b92	0.15580586
249	0xbc3bcbd0	-0.011462167
250	0xbc2db8b0	-0.010603115
251	0xbd020ea8	-0.03175226
252	0xbc936360	-0.017991722
253	0xbce126b8	-0.027484283
254	0xbd7799a0	-0.060449243
255	0xbd92f7fa	-0.07176204

net.1.weight f4 [256]
0	0x3f800000	1.0
1	0x3f800000	1.0
2	0x3f800000	1.0
3	0x3f800000	1.0
4	0x3f800000	1.0
5	0x3f800000	1.0
6	0x3f800000	1.0
7	0x3f800000	1.0
8	0x3f800000	1.0
9	0x3f800000	1.0
10	0x3f800000	1.0
11	0x3f800000	1.0
12	0x3f800000	1.0
13	0x3f800000	1.0
14	0x3f800000	1.0
15	0x3f800000	1.0
16	0x3f800000	1.0
17	0x3f800000	1.0
18	0x3f800000	1.0
19	0x3f800000	1.0
20	0x3f800000	1.0
21	0x3f800000	1.0
22	0x3f800000	1.0
23	0x3f800000	1.0
24	0x3f800000	1.0
25	0x3f800000	1.0
26	0x3f800000	1.0
27	0x3f800000	1.0
28	0x3f800000	1.0
29	0x3f800000	1.0
30	0x3f800000	1.0
31	0x3f800000	1.0
32	0x3f800000	1.0
33	0x3f800000	1.0
34	0x3f800000	1.0
35	0x3f800000	1.0
36	0x3f800000	1.0
37	0x3f800000	1.0
38	0x3f800000	1.0
39	0x3f800000	1.0
40	0x3f800000	1.0
41	0x3f800000	1.0
42	0x3f800000	1.0
43	0x3f800000	1.0
44	0x3f800000	1.0
45	0x3f800000	1.0
46	0x3f800000	1.0
47	0x3f800000	1.0
48	0x3f800000	1.0
49	0x3f800000	1.0
50	0x3f800000	1.0
51	0x3f800000	1.0
52	0x3f800000	1.0
53	0x3f800000	1.0
54	0x3f800000	1.0
55	0x3f800000	1.0
56	0x3f800000	1.0
57	0x3f800000	1.0
58	0x3f800000	1.0
59	0x3f800000	1.0
60	0x3f800000	1.0
61	0x3f800000	1.0
62	0x3f800000	1.0
63	0x3f800000	1.0
64	0x3f800000	1.0
65	0x3f800000	1.0
66	0x3f800000	1.0
67	0x3f800000	1.0
68	0x3f800000	1.0
69	0x3f800000	1.0
70	0x3f800000	1.0
71	0x3f800000	1.0
72	0x3f800000	1.0
73	0x3f800000	1.0
74	0x3f800000	1.0
75	0x3f800000	1.0
76	0x3f800000	1.0
77	0x3f800000	1.0
78	0x3f800000	1.0
79	0x3f800000	1.0
80	0x3f800000	1.0
81	0x3f800000	1.0
82	0x3f800000	1.0
83	0x3f800000	1.0
84	0x3f800000	1.0
85	0x3f800000	1.0
86	0x3f800000	1.0
87	0x3f800000	1.0
88	0x3f800000	1.0
89	0x3f800000	1.0
90	0x3f800000	1.0
91	0x3f800000	1.0
92	0x3f800000	1.0
93	0x3f800000	1.0
94	0x3f800000	1.0
95	0x3f800000	1.0
96	0x3f800000	1.0
97	0x3f800000	1.0
98	0x3f800000	1.0
99	0x3f800000	1.0
100	0x3f800000	1.0
101	0x3f800000	1.0
102	0x3f800000	1.0
103	0x3f800000	1.0
104	0x3f800000	1.0
105	0x3f800000	1.0
106	0x3f800000	1.0
107	0x3f800000	1.0
108	0x3f800000	1.0
109	0x3f800000	1.0
110	0x3f800000	1.0
111	0x3f800000	1.0
112	0x3f800000	1.0
113	0x3f800000	1.0
114	0x3f800000	1.0
115	0x3f800000	1.0
116	0x3f800000	1.0
117	0x3f800000	1.0
118	0x3f800000	1.0
119	0x3f800000	1.0
120	0x3f800000	1.0
121	0x3f800000	1.0
122	0x3f800000	1.0
123	0x3f800000	1.0
124	0x3f800000	1.0
125	0x3f800000	1.0
126	0x3f800000	1.0
127	0x3f800000	1.0
128	0x3f800000	1.0
129	0x3f800000	1.0
130	0x3f800000	1.0
131	0x3f800000	1.0
132	0x3f800000	1.0
133	0x3f800000	1.0
134	0x3f800000	1.0
135	0x3f800000	1.0
136	0x3f800000	1.0
137	0x3f800000	1.0
138	0x3f800000	1.0
139	0x3f800000	1.0
140	0x3f800000	1.0
141	0x3f800000	1.0
142	0x3f800000	1.0
143	0x3f800000	1.0
144	0x3f800000	1.0
145	0x3f800000	1.0
146	0x3f800000	1.0
147	0x3f800000	1.0
148	0x3f800000	1.0
149	0x3f800000	1.0
150	0x3f800000	1.0
151	0x3f800000	1.0
152	0x3f800000	1.0
153	0x3f800000	1.0
154	0x3f800000	1.0
155	0x3f800000	1.0
156	0x3f800000	1.0
157	0x3f800000	1.0
158	0x3f800000	1.0
159	0x3f800000	1.0
160	0x3f800000	1.0
161	0x3f800000	1.0
162	0x3f800000	1.0
163	0x3f800000	1.0
164	0x3f800000	1.0
165	0x3f800000	1.0
166	0x3f800000	1.0
167	0x3f800000	1.0
168	0x3f800000	1.0
169	0x3f800000	1.0
170	0x3f800000	1.0
171	0x3f800000	1.0
172	0x3f800000	1.0
173	0x3f800000	1.0
174	0x3f800000	1.0
175	0x3f800000	1.0
176	0x3f800000	1.0
177	0x3f800000	1.0
178	0x3f800000	1.0
179	0x3f800000	1.0
180	0x3f800000	1.0
181	0x3f800000	1.0
182	0x3f800000	1.0
183	0x3f800000	1.0
184	0x3f800000	1.0
185	0x3f800000	1.0
186	0x3f800000	1.0
187	0x3f800000	1.0
188	0x3f800000	1.0
189	0x3f800000	1.0
190	0x3f800000	1.0
191	0x3f800000	1.0
192	0x3f800000	1.0
193	0x3f800000	1.0
194	0x3f800000	1.0
195	0x3f800000	1.0
196	0x3f800000	1.0
197	0x3f800000	1.0
198	0x3f800000	1.0
199	0x3f800000	1.0
200	0x3f800000	1.0
201	0x3f800000	1.0
202	0x3f800000	1.0
203	0x3f800000	1.0
204	0x3f800000	1.0
205	0x3f800000	1.0
206	0x3f800000	1.0
207	0x3f800000	1.0
208	0x3f800000	1.0
209	0x3f800000	1.0
210	0x3f800000	1.0
211	0x3f800000	1.0
212	0x3f800000	1.0
213	0x3f800000	1.0
214	0x3f800000	1.0
215	0x3f800000	1.0
216	0x3f800000	1.0
217	0x3f800000	1.0
218	0x3f800000	1.0
219	0x3f800000	1.0
220	0x3f800000	1.0
221	0x3f800000	1.0
222	0x3f800000	1.0
223	0x3f800000	1.0
224	0x3f800000	1.0
225	0x3f800000	1.0
226	0x3f800000	1.0
227	0x3f800000	1.0
228	0x3f800000	1.0
229	0x3f800000	1.0
230	0x3f800000	1.0
231	0x3f800000	1.0
232	0x3f800000	1.0
233	0x3f800000	1.0
234	0x3f800000	1.0
235	0x3f800000	1.0
236	0x3f800000	1.0
237	0x3f800000	1.0
238	0x3f800000	1.0
239	0x3f800000	1.0
240	0x3f800000	1.0
241	0x3f800000	1.0
242	0x3f800000	1.0
243	0x3f800000	1.0
244	0x3f800000	1.0
245	0x3f800000	1.0
246	0x3f800000	1.0
247	0x3f800000	1.0
248	0x3f800000	1.0
249	0x3f800000	1.0
250	0x3f800000	1.0
251	0x3f800000	1.0
252	0x3f800000	1.0
253	0x3f800000	1.0
254	0x3f800000	1.0
255	0x3f800000	1.0

net.1.bias f4 [256]
0	0x00000000	0.0
1	0x00000000	0.0
2	0x00000000	0.0
3	0x00000000	0.0
4	0x00000000	0.0
5	0x00000000	0.0
6	0x00000000	0.0
7	0x00000000	0.0
8	0x00000000	0.0
9	0x00000000	0.0
10	0x00000000	0.0
11	0x00000000	0.0
12	0x00000000	0.0
13	0x00000000	0.0
14	0x00000000	0.0
15	0x00000000	0.0
16	0x00000000	0.0
17	0x00000000	0.0
18	0x00000000	0.0
19	0x00000000	0.0
20	0x00000000	0.0
21	0x00000000	0.0
22	0x00000000	0.0
23	0x00000000	0.0
24	0x00000000	0.0
25	0x00000000	0.0
26	0x00000000	0.0
27	0x00000000	0.0
28	0x00000000	0.0
29	0x00000000	0.0
30	0x00000000	0.0
31	0x00000000	0.0
32	0x00000000	0.0
33	0x00000000	0.0
34	0x00000000	0.0
35	0x00000000	0.0
36	0x00000000	0.0
37	0x00000000	0.0
38	0x00000000	0.0
39	0x00000000	0.0
40	0x00000000	0.0
41	0x00000000	0.0
42	0x00000000	0.0
43	0x00000000	0.0
44	0x00000000	0.0
45	0x00000000	0.0
46	0x00000000	0.0
47	0x00000000	0.0
48	0x00000000	0.0
49	0x00000000	0.0
50	0x00000000	0.0
51	0x00000000	0.0
52	0x00000000	0.0
53	0x00000000	0.0
54	0x00000000	0.0
55	0x00000000	0.0
56	0x00000000	0.0
57	0x00000000	0.0
58	0x00000000	0.0
59	0x00000000	0.0
60	0x00000000	0.0
61	0x00000000	0.0
62	0x00000000	0.0
63	0x00000000	0.0
64	0x00000000	0.0
65	0x00000000	0.0
66	0x00000000	0.0
67	0x00000000	0.0
68	0x00000000	0.0
69	0x00000000	0.0
70	0x00000000	0.0
71	0x00000000	0.0
72	0x00000000	0.0
73	0x00000000	0.0
74	0x00000000	0.0
75	0x00000000	0.0
76	0x00000000	0.0
77	0x00000000	0.0
78	0x00000000	0.0
79	0x00000000	0.0
80	0x00000000	0.0
81	0x00000000	0.0
82	0x00000000	0.0
83	0x00000000	0.0
84	0x00000000	0.0
85	0x00000000	0.0
86	0x00000000	0.0
87	0x00000000	0.0
88	0x00000000	0.0
89	0x00000000	0.0
90	0x00000000	0.0
91	0x00000000	0.0
92	0x00000000	0.0
93	0x00000000	0.0
94	0x00000000	0.0
95	0x00000000	0.0
96	0x00000000	0.0
97	0x00000000	0.0
98	0x00000000	0.0
99	0x00000000	0.0
100	0x00000000	0.0
101	0x00000000	0.0
102	0x00000000	0.0
103	0x00000000	0.0
104	0x00000000	0.0
105	0x00000000	0.0
106	0x00000000	0.0
107	0x00000000	0.0
108	0x00000000	0.0
109	0x00000000	0.0
110	0x00000000	0.0
111	0x00000000	0.0
112	0x00000000	0.0
113	0x00000000	0.0
114	0x00000000	0.0
115	0x00000000	0.0
116	0x00000000	0.0
117	0x00000000	0.0
118	0x00000000	0.0
119	0x00000000	0.0
120	0x00000000	0.0
121	0x00000000	0.0
122	0x00000000	0.0
123	0x00000000	0.0
124	0x00000000	0.0
125	0x00000000	0.0
126	0x00000000	0.0
127	0x00000000	0.0
128	0x00000000	0.0
129	0x00000000	0.0
130	0x00000000	0.0
131	0x00000000	0.0
132	0x00000000	0.0
133	0x00000000	0.0
134	0x00000000	0.0
135	0x00000000	0.0
136	0x00000000	0.0
137	0x00000000	0.0
138	0x00000000	0.0
139	0x00000000	0.0
140	0x00000000	0.0
141	0x00000000	0.0
142	0x00000000	0.0
143	0x00000000	0.0
144	0x00000000	0.0
145	0x00000000	0.0
146	0x00000000	0.0
147	0x00000000	0.0
148	0x00000000	0.0
149	0x00000000	0.0
150	0x00000000	0.0
151	0x00000000	0.0
152	0x00000000	0.0
153	0x00000000	0.0
154	0x00000000	0.0
155	0x00000000	0.0
156	0x00000000	0.0
157	0x00000000	0.0
158	0x00000000	0.0
159	0x00000000	0.0
160	0x00000000	0.0
161	0x00000000	0.0
162	0x00000000	0.0
163	0x00000000	0.0
164	0x00000000	0.0
165	0x00000000	0.0
166	0x00000000	0.0
167	0x00000000	0.0
168	0x00000000	0.0
169	0x00000000	0.0
170	0x00000000	0.0
171	0x00000000	0.0
172	0x00000000	0.0
173	0x00000000	0.0
174	0x00000000	0.0
175	0x00000000	0.0
176	0x00000000	0.0
177	0x00000000	0.0
178	0x00000000	0.0
179	0x00000000	0.0
180	0x00000000	0.0
181	0x00000000	0.0
182	0x00000000	0.0
183	0x00000000	0.0
184	0x00000000	0.0
185	0x00000000	0.0
186	0x00000000	0.0
187	0x00000000	0.0
188	0x00000000	0.0
189	0x00000000	0.0
190	0x00000000	0.0
191	0x00000000	0.0
192	0x00000000	0.0
193	0x00000000	0.0
194	0x00000000	0.0
195	0x00000000	0.0
196	0x00000000	0.0
197	0x00000000	0.0
198	0x00000000	0.0
199	0x00000000	0.0
200	0x00000000	0.0
201	0x00000000	0.0
202	0x00000000	0.0
203	0x00000000	0.0
204	0x00000000	0.0
205	0x00000000	0.0
206	0x00000000	0.0
207	0x00000000	0.0
208	0x00000000	0.0
209	0x00000000	0.0
210	0x00000000	0.0
211	0x00000000	0.0
212	0x00000000	0.0
213	0x00000000	0.0
214	0x00000000	0.0
215	0x00000000	0.0
216	0x00000000	0.0
217	0x00000000	0.0
218	0x00000000	0.0
219	0x00000000	0.0
220	0x00000000	0.0
221	0x00000000	0.0
222	0x00000000	0.0
223	0x00000000	0.0
224	0x00000000	0.0
225	0x00000000	0.0
226	0x00000000	0.0
227	0x00000000	0.0
228	0x00000000	0.0
229	0x00000000	0.0
230	0x00000000	0.0
231	0x00000000	0.0
232	0x00000000	0.0
233	0x00000000	0.0
234	0x00000000	0.0
235	0x00000000	0.0
236	0x00000000	0.0
237	0x00000000	0.0
238	0x00000000	0.0
239	0x00000000	0.0
240	0x00000000	0.0
241	0x00000000	0.0
242	0x00000000	0.0
243	0x00000000	0.0
244	0x00000000	0.0
245	0x00000000	0.0
246	0x00000000	0.0
247	0x00000000	0.0
248	0x00000000	0.0
249	0x00000000	0.0
250	0x00000000	0.0
251	0x00000000	0.0
252	0x00000000	0.0
253	0x00000000	0.0
254	0x00000000	0.0
255	0x00000000	0.0

net.3.weight f4 [256, 256]
0	0x3d491c96	0.049099527
1	0x3cbfc038	0.023407087
2	0xbd20e3c4	-0.039279714
3	0xbd318706	-0.04334166
4	0xbcbb943c	-0.022897832
5	0x3d702a3c	0.058634028
6	0xbcea7a84	-0.028622873
7	0xbd7a4f50	-0.061110795
8	0x3cfd4230	0.03091535
9	0xbd36e7f2	-0.044654794
10	0xbb841420	-0.0040307194
11	0x3c263fa0	0.010147005
12	0x3d4ad5ee	0.049520425
13	0xbcab270c	-0.020892642
14	0xbc240090	-0.0100099
15	0x3d416718	0.04721746
16	0xbc595508	-0.013264902
17	0xbd43d488	-0.047810107
18	0x3b3a9800	0.0028471947
19	0x3d4763aa	0.04867903
20	0xbd2f62f8	-0.042818993
21	0x3d2bbf42	0.041930445
22	0xbd232362	-0.039828666
23	0x3c279538	0.010228448
24	0xbd0f6786	-0.035010837
25	0xbd49ae42	-0.04923845
26	0xbd57a256	-0.05264505
27	0x3bcc3970	0.006232433
28	0x3cd7dd94	0.026350774
29	0xbcb6c960	-0.02231282
30	0xbc83f634	-0.01610861
31	0x3d468700	0.04846859
32	0xbd5bcd6c	-0.053662702
33	0x3cc53a3c	0.02407562
34	0x3cf34648	0.029696599
35	0xbcc82960	-0.024433792
36	0xbd5ded7a	-0.054181553
37	0x3d29ae42	0.04142595
38	0x3d7ac062	0.061218627
39	0x3ce15920	0.027508318
40	0x3d5441ca	0.051820554
41	0x3c368710	0.0111406
42	0xbd3fd158	-0.046830505
43	0x3d6db04c	0.058029458
44	0x3c768878	0.015047185
45	0x3c1dc478	0.009629361
46	0x3c98f0a8	0.018669441
47	0xbd751a1c	-0.059839353
48	0x3c60a848	0.013711996
49	0x3c9aede8	0.01891227
50	0x3d502a96	0.050821863
51	0xbd468392	-0.04846532
52	0xbcf9b804	-0.030483253
53	0x3d3d07ee	0.04615014
54	0x3d7b3e84	0.061338916
55	0xbb112ba0	-0.0022151247
56	0xbd349222	-0.044084676
57	0x3d28ff8a	0.041259326
58	0xbba78d30	-0.0051132664
59	0x3b9a7ba0	0.0047144443
60	0x3c990454	0.018678822
61	0xbb8bac00	-0.0042624474
62	0x3d430f20	0.047621846
63	0x3d52fb36	0.051509105
64	0x3b680200	0.0035401583
65	0x3d1a0560	0.037602782
66	0xbc582bb8	-0.013194017
67	0xbc0e2cc0	-0.008677661
68	0xbcfc80f8	-0.030823216
69	0xbb367d80	-0.00278458
70	0x3ca8fd5c	0.020628624
71	0x3c404850	0.011735991
72	0x3d70e070	0.05880779
73	0x3d685ad8	0.05672726
74	0xbd0e9c5e	-0.034817092
75	0x3d174a36	0.036936007
76	0x3d4ee900	0.050515175
77	0x3d711770	0.058860242
78	0xbd1dc344	-0.038516298
79	0xbd4da180	-0.050202847
80	0xbcdcad0c	-0.026937984
81	0xbc5419b0	-0.0129455775
82	0x3bc17850	0.005904235
83	0x3d10b614	0.035329893
84	0xbd5cbaa0	-0.053888917
85	0xbd55543c	-0.052082285
86	0xbd303a42	-0.04302431
87	0x3d4de80a	0.050270118
88	0xbd543502	-0.051808365
89	0xbd30b1ce	-0.043138318
90	0xbba53880	-0.0050421357
91	0xbceee1dc	-0.029160433
92	0xbd456592	-0.048192568
93	0x3d5a310c	0.05326943
94	0x3d783a46	0.06060245
95	0xbcccf664	-0.025019832
96	0x3d77e69a	0.060522653
97	0xbd534a70	-0.05158466
98	0x3d0811f8	0.03322026
99	0x3cf28534	0.029604532
100	0xbc90292c	-0.017597757
101	0xbcda5728	-0.026652887
102	0xbd337d72	-0.043820806
103	0xbb9c7670	-0.004774861
104	0x3c5abd88	0.013350852
105	0x3d1bb8d2	0.038018055
106	0x3d23eb70	0.040019453
107	0x3d75c71a	0.06000433
108	0x3bac4ff0	0.0052585527
109	0xbc961084	-0.018318422
110	0x3b9d5db0	0.004802428
111	0xbca91324	-0.02063901
112	0x3cc154c4	0.02359999
113	0xbbcc7e50	-0.0062406436
114	0xbd49c29c	-0.04925786
115	0xbcd70d5c	-0.026251487
116	0xbc352610	-0.011056438
117	0xbc170548	-0.009217568
118	0x3d586da4	0.052838936
119	0xbd099dda	-0.033597805
120	0x3ce91188	0.028450742
121	0x3c897194	0.016777791
122	0xbd1cbe12	-0.038267203
123	0x3c408d90	0.011752501
124	0xbc49d120	-0.012317926
125	0xbd32f4f6	-0.043690644
126	0xbd0a01a0	-0.033692956
127	0x3cc2c00c	0.023773216
128	0xbd443d88	-0.047910243
129	0xbc9e4a50	-0.019322544
130	0xbc48a6a0	-0.012246758
131	0xbc848cc8	-0.016180411
132	0x3d7a38b0	0.061089218
133	0x3d6f2f44	0.058394685
134	0xbc89877c	-0.016788237
135	0x3c0bf3a0	0.008541971
136	0xbbf198a0	-0.0073729306
137	0x3cd91768	0.026500419
138	0x3d2be9a8	0.04197088
139	0x3afe8140	0.0019417182
140	0x3d779c38	0.060451716
141	0x3ba028c0	0.0048876703
142	0xbc093168	-0.008373596
143	0x3c80ce64	0.015723415
144	0x3c22e138	0.009941392
145	0xbb5b50e0	-0.0033464953
146	0x3c2cafa0	0.010539919
147	0xbb33abe0	-0.0027415678
148	0x3d286bc8	0.041118413
149	0x3d5a3cb4	0.053280547
150	0xbd1727d2	-0.03690321
151	0xbd71ba4a	-0.05901555
152	0xbd599030	-0.053116024
153	0x3d367100	0.04454136
154	0xbc0328b8	-0.008005314
155	0xbc8e0e7c	-0.017340891
156	0x3ce68800	0.028141022
157	0xbc160158	-0.009155594
158	0x3a8613c0	0.0010229275
159	0x3c95486c	0.01822301
160	0x3ce25ef8	0.027633175
161	0xbce66be8	-0.028127626
162	0xbd0e2d9c	-0.034711465
163	0xbc206ad0	-0.009791091
164	0x3d736830	0.059425533
165	0x3c9c3234	0.019066907
166	0x3d0da4c4	0.03458096
167	0xbd5e8d92	-0.05433423
168	0x3b5ca040	0.0033664852
169	0xbcef112c	-0.029182993
170	0x3d3cdc0c	0.04610829
171	0xbc6882f8	-0.014191382
172	0xbd60dd42	-0.054898508
173	0x3c4e07f0	0.012575135
174	0x3bbc6bc0	0.0057501495
175	0x3d2ad494	0.041706637
176	0x3c69f240	0.014278948
177	0x3cfa05ec	0.030520402
178	0x3caf0eb4	0.021369316
179	0x3d50460a	0.050848044
180	0x3c3b8290	0.011444703
181	0x3d3a5d9c	0.04549943
182	0x3cd8ad40	0.0264498
183	0x3bb4c7e0	0.005516991
184	0xbc53ba68	-0.012922861
185	0xbcd99040	-0.026558042
186	0xbd059996	-0.032617174
187	0xbd4e3b28	-0.050349385
188	0x3d0465bc	0.032323584
189	0x3d6b6aa4	0.057474747
190	0xbd70d568	-0.05879727
191	0x3d505c7a	0.050869443
192	0xbd792598	-0.060826868
193	0x3d3057fe	0.043052666
194	0x3d599ef0	0.05313009
195	0xbc2f4bd0	-0.010699227
196	0x3d5062fe	0.050875656
197	0xbd01139a	-0.031512834
198	0xbd7d7c16	-0.061885916
199	0xbac29f80	-0.001484856
200	0x3d08b152	0.03337223
201	0x3bb8d570	0.005640678
202	0x3c509a90	0.012732163
203	0x3d65a068	0.05606118
204	0x3d123dc4	0.035703436
205	0xbd199630	-0.037496746
206	0xbcde6144	-0.02714599
207	0x3d51fbf8	0.051265687
208	0x3bbc3c10	0.0057444647
209	0xbd763420	-0.060108304
210	0x3d243d5c	0.04009758
211	0x3ae7d400	0.0017687082
212	0x3d0b7dc2	0.03405548
213	0xbc6f4730	-0.014604375
214	0x3d477474	0.048695043
215	0x3b948130	0.004532002
216	0x3cb3c430	0.021944135
217	0xbca6fa18	-0.020382926
218	0x3a8ecf80	0.001089558
219	0xbd2251f8	-0.039628953
220	0xbccb0570	-0.024782866
221	0x3d013e74	0.0315537
222	0xbd4281c0	-0.04748702
223	0x3d24feb8	0.04028198
224	0x3d72b5b6	0.059255324
225	0xbd15c612	-0.036565848
226	0xbb11e620	-0.002226241
227	0x3d71d0e8	0.05903712
228	0x3d05f69a	0.03270588
229	0x3d46b200	0.048509598
230	0xbd2eee3c	-0.042707667
231	0x3c82f664	0.015986629
232	0x3d50584c	0.050865456
233	0x3d3a6b1a	0.045512296
234	0xbac3c1c0	-0.0014935061
235	0xbc948cec	-0.018133603
236	0x3bf14ab0	0.00736364
237	0x3d4079ee	0.04699128
238	0xbd404dd0	-0.046949208
239	0x3b9825a0	0.004643157
240	0x3d63d2a8	0.05562082
241	0x3d68345a	0.05669055
242	0xbcf841a8	-0.030304745
243	0x3d28e79e	0.041236512
244	0x3c1a54b0	0.009419605
245	0x3d6e106c	0.05812113
246	0x3d3bbd6c	0.045834944
247	0xbd142640	-0.03616929
248	0x3c5078a0	0.012724072
249	0xbc6a3dd8	-0.014296971
250	0x3d6b09d8	0.057382435
251	0x3cf4f780	0.029903173
252	0xbd4cab08	-0.049967796
253	0xbd577426	-0.052601002
254	0x3c9af0e0	0.018913686
255	0x3b5fc2e0	0.0034143254

net.3.bias f4 [256]
0	0x3d6d7d42	0.057980783
1	0x3d356b8c	0.044292018
2	0x3ca66284	0.020310648
3	0xbd245476	-0.04011961
4	0xbd407cde	-0.046994083
5	0x3bac3ba0	0.0052561313
6	0x3d381aa2	0.044947274
7	0xbd0fbc40	-0.03509164
8	0x3c52e8a0	0.012872845
9	0x3cfbbab0	0.030728668
10	0xbcbae63c	-0.022814862
11	0x3d4bce8a	0.049757518
12	0xbc6afe40	-0.0143428445
13	0xba413580	-0.0007370338
14	0x3cbd8d34	0.02313862
15	0xbd7b5988	-0.06136468
16	0xbd5f5618	-0.054525465
17	0xbd247a26	-0.040155552
18	0x3cbd3660	0.023097217
19	0xbc50f278	-0.012753122
20	0x3ce063e8	0.027391389
21	0x3bb71710	0.005587466
22	0x3d4b8902	0.049691208
23	0xbcc8405c	-0.024444751
24	0xbd74c6ce	-0.059759907
25	0x3ce3e560	0.027819335
26	0xbac7d7c0	-0.0015246794
27	0xbc74d210	-0.014942661
28	0xbc3c02a0	-0.011475235
29	0x3d135e6e	0.035978727
30	0x3d1e3948	0.038628846
31	0x3bf73b50	0.0075449124
32	0x3d633fc6	0.05548074
33	0xbbd01520	-0.0063501745
34	0xbb1f7260	-0.0024329647
35	0x3bd39200	0.0064566135
36	0xbd305452	-0.043049164
37	0xbbde6780	-0.0067872405
38	0x3cdbe038	0.026840314
39	0x3d60f2fa	0.05491922
40	0xbae1cbc0	-0.001722686
41	0x3d5979be	0.053094618
42	0x3c37aa18	0.011209987
43	0x3c7e7450	0.015530661
44	0x3d11a138	0.03555414
45	0x39830300	0.00024988502
46	0x3b2a11a0	0.0025950447
47	0x3c0a5918	0.008444093
48	0x3d0659f0	0.032800615
49	0xbc20a780	-0.00980556
50	0x3c15f408	0.00915242
51	0x3d35da3c	0.044397578
52	0x3d478e48	0.048719674
53	0x3d2be44c	0.041965768
54	0xbcba6cb4	-0.022756912
55	0xbc6e8100	-0.014557123
56	0x3d5a2ad6	0.053263508
57	0x3d4d6304	0.050143257
58	0x3d2b6930	0.04184836
59	0xbcd1d86c	-0.025615893
60	0x3c6c6ac8	0.0144297555
61	0xbbe621a0	-0.0070230514
62	0xbb0ee860	-0.0021805987
63	0x3d0c09e6	0.034189127
64	0xbc80010c	-0.0156255
65	0x3d03ed7a	0.032208897
66	0xbd5629ae	-0.052285843
67	0xbbbd5700	-0.0057781935
68	0x3c063500	0.008191347
69	0xbcf5bd24	-0.029997416
70	0x3cf013d4	0.02930633
71	0x3c844a3c	0.016148679
72	0x3c5b0db8	0.01336997
73	0x3cdeb2d0	0.027184874
74	0xbc66a568	-0.014077522
75	0x3c7ccbf0	0.015429482
76	0xbb674100	-0.0035286546
77	0xbccdcdd4	-0.02512256
78	0xbd2662e4	-0.040621653
79	0xbc700918	-0.014650606
80	0x3d700672	0.058599897
81	0xbaca9c40	-0.0015457943
82	0xbc90f6bc	-0.017695777
83	0xbcfeebac	-0.031118236
84	0xbbd466d0	-0.006481983
85	0x3bb3c610	0.0054862574
86	0xbc78cdd0	-0.015185788
87	0x3b24e6e0	0.0025162026
88	0xbd5bbeae	-0.053648643
89	0x3d0f092c	0.034920856
90	0x3d0835c0	0.033254385
91	0xbd6ab33a	-0.05729983
92	0xbd391c78	-0.045193166
93	0x3d554788	0.05207017
94	0xbd03f5d6	-0.03221687
95	0x3cebfb2c	0.028806292
96	0xbca73c70	-0.020414561
97	0xbc75cc10	-0.015002266
98	0x3d47d7dc	0.048789844
99	0xbbd5ddb0	-0.0065266714
100	0xbc8c7e60	-0.017150104
101	0xbab47f40	-0.0013770834
102	0x3cd4ba94	0.025967874
103	0x3d5cf946	0.053948663
104	0x3a9caf80	0.0011954159
105	0xbd23635c	-0.03988968
106	0xbd7be7f0	-0.06150049
107	0xbd33a97c	-0.043862805
108	0xbc519200	-0.012791157
109	0x3d465cb0	0.048428237
110	0x3d2f4e88	0.042799503
111	0xbd4e556c	-0.050374433
112	0x3b8e4070	0.0043411776
113	0x3c49a398	0.01230707
114	0x3d5dbb56	0.054133736
115	0x3cf26e88	0.029593721
116	0x3bc98a80	0.0061505437
117	0xbd7a70e8	-0.061142832
118	0x3cd5558c	0.026041768
119	0x3d64e0c0	0.0558784
120	0x3d3e532e	0.046466045
121	0xbb9287d0	-0.0044717565
122	0xbbd66aa0	-0.0065434724
123	0xbc90765c	-0.017634563
124	0xbb7dc3a0	-0.0038721338
125	0x3c051fd8	0.008125268
126	0x3ca737ac	0.020412289
127	0xbb0abc80	-0.0021169484
128	0x3b1e1e80	0.0024127066
129	0x3d6b47ca	0.05744151
130	0x3cc767d0	0.024341494
131	0xbd7e7242	-0.062120683
132	0x3d6fc8c2	0.058541067
133	0xbd16f9b2	-0.03685922
134	0xbd4e0de8	-0.05030623
135	0x3d6893d8	0.05678162
136	0x3d2383aa	0.039920487
137	0xbd432794	-0.047645167
138	0x3aa2fdc0	0.0012435243
139	0x3c7f0458	0.0155650005
140	0xbc0c1ad8	-0.008551322
141	0xbc932f50	-0.017966896
142	0x3cfe7edc	0.03106635
143	0xbc8f0984	-0.017460592
144	0x3d0c02fc	0.034182534
145	0xbd695f5e	-0.056975715
146	0x3c81269c	0.01576548
147	0xbd05a020	-0.03262341
148	0x3a5a3600	0.00083240867
149	0xbd254974	-0.040353253
150	0xbd786f18	-0.060652822
151	0xbd34d5c6	-0.044149183
152	0x3c2d2f80	0.010570407
153	0xbd3914fa	-0.04518602
154	0xbb8ec1f0	-0.0043566152
155	0x3d67f9be	0.056634657
156	0x3d415dba	0.047208525
157	0x3ce7084c	0.028202198
158	0x3c2a70e0	0.010402888
159	0xbcecba30	-0.028897375
160	0xbd1b83ac	-0.03796737
161	0xbcd3ae10	-0.025839835
162	0x3c22ad80	0.009929061
163	0xbd281470	-0.041035116
164	0x3d69999e	0.057031266
165	0x3c4c6c00	0.012476921
166	0x3d03ba00	0.032159805
167	0xbd74ae26	-0.059736393
168	0xbb92fb10	-0.0044854954
169	0xbcaa0ba0	-0.020757496
170	0x3d28507a	0.041092373
171	0xbd06746c	-0.032825872
172	0xbd354986	-0.04425957
173	0xbd0bf214	-0.03416641
174	0x3d5fa63a	0.054601885
175	0xbd3889c4	-0.04505326
176	0x3cc9d9dc	0.024640016
177	0xbc9598bc	-0.018261306
178	0xbca3f144	-0.020012505
179	0xbd67c132	-0.05658073
180	0xbb9da220	-0.0048105866
181	0xbd416b5a	-0.04722152
182	0xbc64a580	-0.013955474
183	0xbd538158	-0.051637024
184	0xbd388502	-0.04504872
185	0x3d2f53b2	0.042804427
186	0xbd2af428	-0.04173675
187	0x3b3057e0	0.0026907846
188	0x3d08a9dc	0.033365116
189	0xbd584d52	-0.052808113
190	0xbc85bb70	-0.016324729
191	0xbd2ad9a2	-0.041711457
192	0x3d610c74	0.054943517
193	0x3a085500	0.0005200654
194	0xbd795f48	-0.060881883
195	0x3d22fd1a	0.039792158
196	0x3c827ef4	0.015929677
197	0x3cffb478	0.031213984
198	0xbce260e8	-0.0276341
199	0xbd7c25c8	-0.06155947
200	0xbcd59d34	-0.026075937
201	0x3d49c264	0.04925765
202	0x3d5c5460	0.053791404
203	0x3d527678	0.05138251
204	0xbd340ade	-0.043955676
205	0x3d318454	0.04333909
206	0x3c3daec0	0.011577308
207	0xbcfc8060	-0.030822933
208	0x3ca99e34	0.02070532
209	0xbd197fd4	-0.037475422
210	0xbd2a6c28	-0.041607052
211	0xbd168a4a	-0.036752976
212	0x3d4b41d0	0.04962331
213	0xbd58a3a0	-0.05289042
214	0xbd3def08	-0.046370536
215	0x3cc2a074	0.02375815
216	0xbd0a5db8	-0.033780783
217	0x3cd190ec	0.0255818
218	0x3a157e00	0.00057026744
219	0x3c434090	0.011917248
220	0xbd0cc32e	-0.034365825
221	0xbc0ea7b8	-0.008706979
222	0x3b99aa30	0.0046894774
223	0x3d2b9024	0.04188551
224	0xbcb9cb70	-0.022680014
225	0xbc7d9f38	-0.015479855
226	0x3d38feea	0.04516498
227	0x3bc24900	0.0059291124
228	0x3d49a4b4	0.04922934
229	0xbcf29104	-0.029610164
230	0xbd7ac8b8	-0.061226577
231	0xbc7a5250	-0.015278414
232	0xbd2037e4	-0.0391158
233	0xbcb68c04	-0.022283562
234	0x3bab7470	0.0052323863
235	0x3d2ae4c0	0.04172206
236	0x3d2932ec	0.04130833
237	0x3c07f888	0.008299001
238	0xbccd6f68	-0.025077537
239	0xbd154d02	-0.036450393
240	0x3d1b7efe	0.037962906
241	0x3ce45064	0.027870364
242	0xbc8a8c50	-0.01691261
243	0x3beeb340	0.007284552
244	0xbd38f368	-0.045154005
245	0x3d507062	0.050888427
246	0x3aa35d00	0.0012463629
247	0xbd5fe5b8	-0.054662436
248	0xbc522758	-0.012826763
249	0xbd30e2a8	-0.043184906
250	0x3ba79080	0.0051136613
251	0xbcaa2664	-0.02077026
252	0x3c82da60	0.01597327
253	0x3d02c34c	0.03192453
254	0xbb2ad880	-0.0026068985
255	0x3d40d572	0.047078557

net.4.weight f4 [256]
0	0x3f800000	1.0
1	0x3f800000	1.0
2	0x3f800000	1.0
3	0x3f800000	1.0
4	0x3f800000	1.0
5	0x3f800000	1.0
6	0x3f800000	1.0
7	0x3f800000	1.0
8	0x3f800000	1.0
9	0x3f800000	1.0
10	0x3f800000	1.0
11	0x3f800000	1.0
12	0x3f800000	1.0
13	0x3f800000	1.0
14	0x3f800000	1.0
15	0x3f800000	1.0
16	0x3f800000	1.0
17	0x3f800000	1.0
18	0x3f800000	1.0
19	0x3f800000	1.0
20	0x3f800000	1.0
21	0x3f800000	1.0
22	0x3f800000	1.0
23	0x3f800000	1.0
24	0x3f800000	1.0
25	0x3f800000	1.0
26	0x3f800000	1.0
27	0x3f800000	1.0
28	0x3f800000	1.0
29	0x3f800000	1.0
30	0x3f800000	1.0
31	0x3f800000	1.0
32	0x3f800000	1.0
33	0x3f800000	1.0
34	0x3f800000	1.0
35	0x3f800000	1.0
36	0x3f800000	1.0
37	0x3f800000	1.0
38	0x3f800000	1.0
39	0x3f800000	1.0
40	0x3f800000	1.0
41	0x3f800000	1.0
42	0x3f800000	1.0
43	0x3f800000	1.0
44	0x3f800000	1.0
45	0x3f800000	1.0
46	0x3f800000	1.0
47	0x3f800000	1.0
48	0x3f800000	1.0
49	0x3f800000	1.0
50	0x3f800000	1.0
51	0x3f800000	1.0
52	0x3f800000	1.0
53	0x3f800000	1.0
54	0x3f800000	1.0
55	0x3f800000	1.0
56	0x3f800000	1.0
57	0x3f800000	1.0
58	0x3f800000	1.0
59	0x3f800000	1.0
60	0x3f800000	1.0
61	0x3f800000	1.0
62	0x3f800000	1.0
63	0x3f800000	1.0
64	0x3f800000	1.0
65	0x3f800000	1.0
66	0x3f800000	1.0
67	0x3f800000	1.0
68	0x3f800000	1.0
69	0x3f800000	1.0
70	0x3f800000	1.0
71	0x3f800000	1.0
72	0x3f800000	1.0
73	0x3f800000	1.0
74	0x3f800000	1.0
75	0x3f800000	1.0
76	0x3f800000	1.0
77	0x3f800000	1.0
78	0x3f800000	1.0
79	0x3f800000	1.0
80	0x3f800000	1.0
81	0x3f800000	1.0
82	0x3f800000	1.0
83	0x3f800000	1.0
84	0x3f800000	1.0
85	0x3f800000	1.0
86	0x3f800000	1.0
87	0x3f800000	1.0
88	0x3f800000	1.0
89	0x3f800000	1.0
90	0x3f800000	1.0
91	0x3f800000	1.0
92	0x3f800000	1.0
93	0x3f800000	1.0
94	0x3f800000	1.0
95	0x3f800000	1.0
96	0x3f800000	1.0
97	0x3f800000	1.0
98	0x3f800000	1.0
99	0x3f800000	1.0
100	0x3f800000	1.0
101	0x3f800000	1.0
102	0x3f800000	1.0
103	0x3f800000	1.0
104	0x3f800000	1.0
105	0x3f800000	1.0
106	0x3f800000	1.0
107	0x3f800000	1.0
108	0x3f800000	1.0
109	0x3f800000	1.0
110	0x3f800000	1.0
111	0x3f800000	1.0
112	0x3f800000	1.0
113	0x3f800000	1.0
114	0x3f800000	1.0
115	0x3f800000	1.0
116	0x3f800000	1.0
117	0x3f800000	1.0
118	0x3f800000	1.0
119	0x3f800000	1.0
120	0x3f800000	1.0
121	0x3f800000	1.0
122	0x3f800000	1.0
123	0x3f800000	1.0
124	0x3f800000	1.0
125	0x3f800000	1.0
126	0x3f800000	1.0
127	0x3f800000	1.0
128	0x3f800000	1.0
129	0x3f800000	1.0
130	0x3f800000	1.0
131	0x3f800000	1.0
132	0x3f800000	1.0
133	0x3f800000	1.0
134	0x3f800000	1.0
135	0x3f800000	1.0
136	0x3f800000	1.0
137	0x3f800000	1.0
138	0x3f800000	1.0
139	0x3f800000	1.0
140	0x3f800000	1.0
141	0x3f800000	1.0
142	0x3f800000	1.0
143	0x3f800000	1.0
144	0x3f800000	1.0
145	0x3f800000	1.0
146	0x3f800000	1.0
147	0x3f800000	1.0
148	0x3f800000	1.0
149	0x3f800000	1.0
150	0x3f800000	1.0
151	0x3f800000	1.0
152	0x3f800000	1.0
153	0x3f800000	1.0
154	0x3f800000	1.0
155	0x3f800000	1.0
156	0x3f800000	1.0
157	0x3f800000	1.0
158	0x3f800000	1.0
159	0x3f800000	1.0
160	0x3f800000	1.0
161	0x3f800000	1.0
162	0x3f800000	1.0
163	0x3f800000	1.0
164	0x3f800000	1.0
165	0x3f800000	1.0
166	0x3f800000	1.0
167	0x3f800000	1.0
168	0x3f800000	1.0
169	0x3f800000	1.0
170	0x3f800000	1.0
171	0x3f800000	1.0
172	0x3f800000	1.0
173	0x3f800000	1.0
174	0x3f800000	1.0
175	0x3f800000	1.0
176	0x3f800000	1.0
177	0x3f800000	1.0
178	0x3f800000	1.0
179	0x3f800000	1.0
180	0x3f800000	1.0
181	0x3f800000	1.0
182	0x3f800000	1.0
183	0x3f800000	1.0
184	0x3f800000	1.0
185	0x3f800000	1.0
186	0x3f800000	1.0
187	0x3f800000	1.0
188	0x3f800000	1.0
189	0x3f800000	1.0
190	0x3f800000	1.0
191	0x3f800000	1.0
192	0x3f800000	1.0
193	0x3f800000	1.0
194	0x3f800000	1.0
195	0x3f800000	1.0
196	0x3f800000	1.0
197	0x3f800000	1.0
198	0x3f800000	1.0
199	0x3f800000	1.0
200	0x3f800000	1.0
201	0x3f800000	1.0
202	0x3f800000	1.0
203	0x3f800000	1.0
204	0x3f800000	1.0
205	0x3f800000	1.0
206	0x3f800000	1.0
207	0x3f800000	1.0
208	0x3f800000	1.0
209	0x3f800000	1.0
210	0x3f800000	1.0
211	0x3f800000	1.0
212	0x3f800000	1.0
213	0x3f800000	1.0
214	0x3f800000	1.0
215	0x3f800000	1.0
216	0x3f800000	1.0
217	0x3f800000	1.0
218	0x3f800000	1.0
219	0x3f800000	1.0
220	0x3f800000	1.0
221	0x3f800000	1.0
222	0x3f800000	1.0
223	0x3f800000	1.0
224	0x3f800000	1.0
225	0x3f800000	1.0
226	0x3f800000	1.0
227	0x3f800000	1.0
228	0x3f800000	1.0
229	0x3f800000	1.0
230	0x3f800000	1.0
231	0x3f800000	1.0
232	0x3f800000	1.0
233	0x3f800000	1.0
234	0x3f800000	1.0
235	0x3f800000	1.0
236	0x3f800000	1.0
237	0x3f800000	1.0
238	0x3f800000	1.0
239	0x3f800000	1.0
240	0x3f800000	1.0
241	0x3f800000	1.0
242	0x3f800000	1.0
243	0x3f800000	1.0
244	0x3f800000	1.0
245	0x3f800000	1.0
246	0x3f800000	1.0
247	0x3f800000	1.0
248	0x3f800000	1.0
249	0x3f800000	1.0
250	0x3f800000	1.0
251	0x3f800000	1.0
252	0x3f800000	1.0
253	0x3f800000	1.0
254	0x3f800000	1.0
255	0x3f800000	1.0

net.4.bias f4 [256]
0	0x00000000	0.0
1	0x00000000	0.0
2	0x00000000	0.0
3	0x00000000	0.0
4	0x00000000	0.0
5	0x00000000	0.0
6	0x00000000	0.0
7	0x00000000	0.0
8	0x00000000	0.0
9	0x00000000	0.0
10	0x00000000	0.0
11	0x00000000	0.0
12	0x00000000	0.0
13	0x00000000	0.0
14	0x00000000	0.0
15	0x00000000	0.0
16	0x00000000	0.0
17	0x00000000	0.0
18	0x00000000	0.0
19	0x00000000	0.0
20	0x00000000	0.0
21	0x00000000	0.0
22	0x00000000	0.0
23	0x00000000	0.0
24	0x00000000	0.0
25	0x00000000	0.0
26	0x00000000	0.0
27	0x00000000	0.0
28	0x00000000	0.0
29	0x00000000	0.0
30	0x00000000	0.0
31	0x00000000	0.0
32	0x00000000	0.0
33	0x00000000	0.0
34	0x00000000	0.0
35	0x00000000	0.0
36	0x00000000	0.0
37	0x00000000	0.0
38	0x00000000	0.0
39	0x00000000	0.0
40	0x00000000	0.0
41	0x00000000	0.0
42	0x00000000	0.0
43	0x00000000	0.0
44	0x00000000	0.0
45	0x00000000	0.0
46	0x00000000	0.0
47	0x00000000	0.0
48	0x00000000	0.0
49	0x00000000	0.0
50	0x00000000	0.0
51	0x00000000	0.0
52	0x00000000	0.0
53	0x00000000	0.0
54	0x00000000	0.0
55	0x00000000	0.0
56	0x00000000	0.0
57	0x00000000	0.0
58	0x00000000	0.0
59	0x00000000	0.0
60	0x00000000	0.0
61	0x00000000	0.0
62	0x00000000	0.0
63	0x00000000	0.0
64	0x00000000	0.0
65	0x00000000	0.0
66	0x00000000	0.0
67	0x00000000	0.0
68	0x00000000	0.0
69	0x00000000	0.0
70	0x00000000	0.0
71	0x00000000	0.0
72	0x00000000	0.0
73	0x00000000	0.0
74	0x00000000	0.0
75	0x00000000	0.0
76	0x00000000	0.0
77	0x00000000	0.0
78	0x00000000	0.0
79	0x00000000	0.0
80	0x00000000	0.0
81	0x00000000	0.0
82	0x00000000	0.0
83	0x00000000	0.0
84	0x00000000	0.0
85	0x00000000	0.0
86	0x00000000	0.0
87	0x00000000	0.0
88	0x00000000	0.0
89	0x00000000	0.0
90	0x00000000	0.0
91	0x00000000	0.0
92	0x00000000	0.0
93	0x00000000	0.0
94	0x00000000	0.0
95	0x00000000	0.0
96	0x00000000	0.0
97	0x00000000	0.0
98	0x00000000	0.0
99	0x00000000	0.0
100	0x00000000	0.0
101	0x00000000	0.0
102	0x00000000	0.0
103	0x00000000	0.0
104	0x00000000	0.0
105	0x00000000	0.0
106	0x00000000	0.0
107	0x00000000	0.0
108	0x00000000	0.0
109	0x00000000	0.0
110	0x00000000	0.0
111	0x00000000	0.0
112	0x00000000	0.0
113	0x00000000	0.0
114	0x00000000	0.0
115	0x00000000	0.0
116	0x00000000	0.0
117	0x00000000	0.0
118	0x00000000	0.0
119	0x00000000	0.0
120	0x00000000	0.0
121	0x00000000	0.0
122	0x00000000	0.0
123	0x00000000	0.0
124	0x00000000	0.0
125	0x00000000	0.0
126	0x00000000	0.0
127	0x00000000	0.0
128	0x00000000	0.0
129	0x00000000	0.0
130	0x00000000	0.0
131	0x00000000	0.0
132	0x00000000	0.0
133	0x00000000	0.0
134	0x00000000	0.0
135	0x00000000	0.0
136	0x00000000	0.0
137	0x00000000	0.0
138	0x00000000	0.0
139	0x00000000	0.0
140	0x00000000	0.0
141	0x00000000	0.0
142	0x00000000	0.0
143	0x00000000	0.0
144	0x00000000	0.0
145	0x00000000	0.0
146	0x00000000	0.0
147	0x00000000	0.0
148	0x00000000	0.0
149	0x00000000	0.0
150	0x00000000	0.0
151	0x00000000	0.0
152	0x00000000	0.0
153	0x00000000	0.0
154	0x00000000	0.0
155	0x00000000	0.0
156	0x00000000	0.0
157	0x00000000	0.0
158	0x00000000	0.0
159	0x00000000	0.0
160	0x00000000	0.0
161	0x00000000	0.0
162	0x00000000	0.0
163	0x00000000	0.0
164	0x00000000	0.0
165	0x00000000	0.0
166	0x00000000	0.0
167	0x00000000	0.0
168	0x00000000	0.0
169	0x00000000	0.0
170	0x00000000	0.0
171	0x00000000	0.0
172	0x00000000	0.0
173	0x00000000	0.0
174	0x00000000	0.0
175	0x00000000	0.0
176	0x00000000	0.0
177	0x00000000	0.0
178	0x00000000	0.0
179	0x00000000	0.0
180	0x00000000	0.0
181	0x00000000	0.0
182	0x00000000	0.0
183	0x00000000	0.0
184	0x00000000	0.0
185	0x00000000	0.0
186	0x00000000	0.0
187	0x00000000	0.0
188	0x00000000	0.0
189	0x00000000	0.0
190	0x00000000	0.0
191	0x00000000	0.0
192	0x00000000	0.0
193	0x00000000	0.0
194	0x00000000	0.0
195	0x00000000	0.0
196	0x00000000	0.0
197	0x00000000	0.0
198	0x00000000	0.0
199	0x00000000	0.0
200	0x00000000	0.0
201	0x00000000	0.0
202	0x00000000	0.0
203	0x00000000	0.0
204	0x00000000	0.0
205	0x00000000	0.0
206	0x00000000	0.0
207	0x00000000	0.0
208	0x00000000	0.0
209	0x00000000	0.0
210	0x00000000	0.0
211	0x00000000	0.0
212	0x00000000	0.0
213	0x00000000	0.0
214	0x00000000	0.0
215	0x00000000	0.0
216	0x00000000	0.0
217	0x00000000	0.0
218	0x00000000	0.0
219	0x00000000	0.0
220	0x00000000	0.0
221	0x00000000	0.0
222	0x00000000	0.0
223	0x00000000	0.0
224	0x00000000	0.0
225	0x00000000	0.0
226	0x00000000	0.0
227	0x00000000	0.0
228	0x00000000	0.0
229	0x00000000	0.0
230	0x00000000	0.0
231	0x00000000	0.0
232	0x00000000	0.0
233	0x00000000	0.0
234	0x00000000	0.0
235	0x00000000	0.0
236	0x00000000	0.0
237	0x00000000	0.0
238	0x00000000	0.0
239	0x00000000	0.0
240	0x00000000	0.0
241	0x00000000	0.0
242	0x00000000	0.0
243	0x00000000	0.0
244	0x00000000	0.0
245	0x00000000	0.0
246	0x00000000	0.0
247	0x00000000	0.0
248	0x00000000	0.0
249	0x00000000	0.0
250	0x00000000	0.0
251	0x00000000	0.0
252	0x00000000	0.0
253	0x00000000	0.0
254	0x00000000	0.0
255	0x00000000	0.0
