models/maddpg/best_agent_1_MeanReversion.pt (torch, 611989 bytes, 20 tensors)

net.0.weight f4 [256, 30]
000000 20 5a 64 3d a4 f1 1a 3d 11 9f 14 be 78 4b 68 bd
       0.055750012 0.037828103 -0.14513804 -0.056712598
000010 0a fd 12 3e b8 35 1e 3e 68 42 93 3c f0 ad 1a be
       0.14354339 0.1545018 0.017976 -0.15105414
000020 1c 16 af 3d 4e 10 36 3e 04 7c ca 3d a0 e3 4e 3d
       0.08549139 0.17779657 0.09886935 0.05051005
000030 90 8a 31 bd 48 13 00 3e cf bb f6 bd 00 de e7 3a
       -0.043345034 0.12507355 -0.120475404 0.0017690063
000040 7b 34 28 be 8c 28 32 3e 2c 7f d8 3d 1c 85 4f 3d
       -0.1642627 0.1739828 0.10571131 0.050664052
000050 d1 e2 bb bd 98 6f 80 bc b2 ee aa bd cd fc 09 be
       -0.09174121 -0.015678212 -0.08346309 -0.13475342
000060 ea df 24 3e 0c e5 cd 3d 34 f1 c3 3d 00 2b a1 bb
       0.16101041 0.10053453 0.0956749 -0.004918456
000070 ec 71 17 bd bb e1 83 bd d3 c1 29 be 3c 8a 54 3d
       -0.03697388 -0.06439539 -0.16577844 0.051889643
000080 84 4d 15 bd 14 ca 02 3d 18 bd 8e 3c d8 8b e8 3d
       -0.036450878 0.031930998 0.017424151 0.11354798
000090 a6 b4 7a bd 00 5f b6 3c c0 b8 16 bd 8c 14 6d 3d
       -0.061207436 0.022262096 -0.036797285 0.057880923
0000a0 10 76 53 bd 18 27 15 3e 34 73 2b 3e 96 d5 8f bd
       -0.051626265 0.14565694 0.16743165 -0.0702316
0000b0 30 c9 d6 3c 18 83 d3 3d 6c aa 97 3d 33 9c 1a be
       0.02621898 0.103277385 0.07405552 -0.15098648
0000c0 37 6d e6 bd ea 8d 1c be 50 8d f1 bc 0a 87 98 bd
       -0.112513 -0.15288511 -0.029486328 -0.07447632
0000d0 48 41 d8 bc f4 1e c0 3d c1 e7 2b be 94 d1 28 be
       -0.026398316 0.09380904 -0.16787626 -0.16486198
0000e0 be f9 29 3e 44 3e 95 3d c8 fd 33 3d 80 fc 21 be
       0.16599175 0.07287267 0.043943197 -0.15818977
0000f0 75 d5 1e be e3 6f aa bd e2 2d e5 bd 54 e6 2e 3e
       -0.15511115 -0.08322122 -0.11190392 0.1708005
000100 b6 34 02 be 3c b3 73 3d 88 ce 9d 3d 38 d1 26 3d
       -0.1271542 0.059497103 0.07705408 0.04072687
000110 9e 43 32 3e 7c c7 a7 3d 58 36 c7 bc 58 88 cc bc
       0.17408606 0.081923455 -0.024317905 -0.024967358
000120 d0 10 3e bc 80 01 b4 ba 10 7b 1d be 1e f1 39 3e
       -0.011600688 -0.0013733357 -0.15378976 0.18158385
000130 ac f4 17 3e 51 f7 b3 bd 58 ac e4 3c 76 09 35 3e
       0.14839429 -0.08787406 0.027914211 0.1767939
000140 40 c1 2e 3d fc ab 06 3e f8 d3 dd 3d c0 83 cb bb
       0.042664766 0.13151544 0.108314455 -0.006210774
000150 36 e2 2d be 44 df a3 3d 40 80 33 bd 60 9b 99 3b
       -0.16980824 0.08001569 -0.04382348 0.0046877116
000160 50 f4 c9 3c 58 e1 e4 3c 9e 07 31 3e 90 9b 2e bc
       0.02465263 0.027939484 0.17288062 -0.010657206
000170 30 5a d0 3c 7a e0 f8 bd 3f 06 dc bd 4e 2a 05 3e
       0.02543363 -0.121521905 -0.10743379 0.13004419
000180 40 16 d3 3b 18 c0 e0 3d d0 3c ae bd 67 16 3a be
       0.0064418614 0.10974139 -0.08507693 -0.18172608
000190 ab d1 aa bd 24 86 95 3d 70 1a d7 3d 7b 61 03 be
       -0.08340772 0.07300976 0.105030894 -0.12830155
0001a0 3c 43 d3 3d 18 49 24 3e c7 d0 ff bd f8 20 fa 3d
       0.10315558 0.16043508 -0.12490993 0.122133195
0001b0 18 28 0a 3e b0 6a 22 3e 36 83 0d 3e e0 6b b2 3c
       0.13491857 0.1586101 0.13819584 0.021779954
0001c0 bc 05 d2 3d 20 36 da 3c 10 f4 12 3c 46 c6 82 3d
       0.10255 0.026637137 0.008969322 0.06385474
0001d0 1f 9b 8d bd 90 1e 6d bd 66 a6 2d 3e 20 62 96 3d
       -0.069143526 -0.057890475 0.16958007 0.073429346
0001e0 70 be 19 be 48 50 d6 3d 0a e5 09 be ae ea 3a 3e
       -0.15014052 0.10464531 -0.13466278 0.18253586
0001f0 3c be c7 bd 19 c8 b3 bd 00 1c 7a 39 40 48 b2 3b
       -0.09753081 -0.087784 0.00023852289 0.005440742
000200 30 f6 8b 3d e0 63 b4 3d f1 47 d9 bd 56 67 28 3e
       0.06834066 0.08808112 -0.10609425 0.1644567
000210 04 a8 8f 3d e0 b2 a6 3b 62 61 35 be f8 e5 36 3e
       0.07014468 0.0050872415 -0.1771293 0.17861164
000220 b6 9a 33 3e 44 10 f7 3d 0d 4a c3 bd 30 bc cd 3d
       0.17539486 0.12063649 -0.095356084 0.100456595
000230 5b fb 05 be ec 85 0f 3e 78 e2 01 be aa a9 a8 bd
       -0.13084166 0.14015931 -0.12684047 -0.08235486
000240 81 3d 34 be 1c 69 23 3e 16 fc 05 3e 40 5f 46 bb
       -0.17601587 0.15958065 0.13084444 -0.0030269176
000250 1c c4 73 bd 28 52 c5 3c a8 fc 66 3d 04 1e ad 3d
       -0.059513196 0.024087027 0.056393296 0.08452991
000260 94 90 7b 3d 26 2b d5 bd 23 91 d4 bd ce 2f 18 3e
       0.061417177 -0.104086205 -0.10379245 0.14861986
000270 dc ef 15 3e 64 f6 a9 3d 78 78 c5 3d ec bd ca 3d
       0.1464228 0.082989484 0.09642118 0.09899506
000280 bc 80 18 3d a7 de c3 bd 10 a2 06 bd c4 12 ee bd
       0.037232146 -0.09563952 -0.0328694 -0.11624673
000290 58 84 f3 bd 04 40 6e 3d c6 1e 0a be 10 8f 10 3d
       -0.11890477 0.05816652 -0.13488302 0.035292685
0002a0 8c 4d 9d 3d 00 90 cc 39 a0 8f 6d 3d 0c 8b 36 be
       0.076808065 0.000390172 0.0579983 -0.1782648
0002b0 8b be ce bd 50 a7 ef 3c c6 d8 17 3e c3 fb 99 bd
       -0.10094937 0.029254586 0.14828786 -0.07518723
0002c0 00 fa 3d 3d d8 58 d2 3d 94 ea da 3d bc 17 11 be
       0.046380997 0.10270852 0.106892735 -0.1416921
0002d0 a4 40 2c bd a8 4b e3 3d 4c 61 8a 3d a5 71 23 be
       -0.042053834 0.11098415 0.06756839 -0.1596132
0002e0 2e ff 13 3e 1c 1e ef bd 48 35 00 be 70 44 94 3c
       0.14452812 -0.11675665 -0.12520325 0.01809904
0002f0 b8 23 c3 3c 1a 6a 7e bd d0 bc f5 3c f8 98 a6 3d
       0.023820743 -0.062112905 0.02999726 0.08134645
000300 ae 4b 38 3e 40 52 25 bc e4 c7 12 bd 48 7a a0 3c
       0.1799762 -0.010090411 -0.03583516 0.019589558
000310 07 0e 2a be 09 35 35 be 5f fb 0a be f0 80 99 3c
       -0.16606914 -0.17696013 -0.13572453 0.01873824
000320 52 61 a8 bd 40 e2 14 3e fc 5a 33 3d 60 d6 44 bc
       -0.082216874 0.14539433 0.04378794 -0.012014002
000330 50 f7 42 bd 0e b7 0f be 69 f8 a8 bd 6c 5f 21 3e
       -0.047599137 -0.14034674 -0.082505055 0.15759057
000340 a9 62 bf bd 48 f4 8c bc e1 d9 32 be 0a 48 7c bd
       -0.0934499 -0.017206326 -0.17465927 -0.06159214
000350 92 5f 33 3e 28 a5 b7 bc 7c 59 f2 3d 66 e7 af bd
       0.17516926 -0.02241762 0.11833474 -0.085890576
000360 b7 69 12 be 27 8a 2b be 68 ee 90 bd f4 c7 71 3d
       -0.1429814 -0.1675192 -0.070767224 0.05902858
000370 30 f3 69 3c df a9 ba bd 34 6c 92 bd 64 a3 d8 3d
       0.014279172 -0.091144316 -0.07149544 0.10578039
000380 0a ef 07 be c0 ae 28 be 10 9a b5 3d e0 52 89 bb
       -0.1327478 -0.16472912 0.08867276 -0.0041907877
000390 6f 18 20 be 78 72 e8 3d 60 9f 81 bb de cb 07 3e
       -0.1563432 0.11349958 -0.0039557666 0.13261363
0003a0 6e 16 3a 3e 80 b8 d7 ba e0 e6 69 bc 54 ad c4 bd
       0.18172619 -0.0016458184 -0.014276236 -0.09603372
0003b0 15 a7 ae bd e0 09 d9 3d c0 e9 38 bd dc 39 37 3d
       -0.08527962 0.10597587 -0.045144796 0.044732913
0003c0 b8 f9 d6 3d e0 21 2f 3d 5e 1b 3a be 18 1b 97 bc
       0.10496849 0.042756915 -0.18174502 -0.018445536
0003d0 64 b3 1a 3e 40 3e 29 bb 70 8e 85 bc a0 8e f5 3c
       0.15107495 -0.0025824457 -0.016303271 0.029975235
0003e0 57 b4 f1 bd c8 99 1c 3d 97 ad 32 be 84 d6 03 be
       -0.11801975 0.038232595 -0.17449032 -0.128748
0003f0 c0 bc 27 3e c0 86 94 3d 5e 7b d1 bd 90 90 da 3c
       0.16380596 0.07252264 -0.102286085 0.02668026

net.0.bias f4 [256]
000000 78 65 fa bc 4e e9 1c 3e 08 1c 2e be ff 19 34 be
       -0.030565962 0.15323374 -0.1700288 -0.17588042
000010 a0 f1 f3 3d 08 42 bd 3d bc 5f c4 3d 88 47 4d bd
       0.11911321 0.0924111 0.095885724 -0.050117046
000020 30 33 23 3c 3e 60 2d 3e 20 54 fe 3d e4 7e 5c 3d
       0.0099609345 0.16931245 0.12418389 0.05383195
000030 37 a9 0e be 00 f8 97 b9 e8 6c be bd 6c 52 ad 3d
       -0.13931738 -0.0002898574 -0.09298116 0.08462986
000040 f8 91 ed bc 88 42 87 3c a7 99 00 be 40 eb 78 3b
       -0.029000267 0.016511217 -0.12558614 0.0037982017
000050 58 83 42 3d 20 f4 c2 bc ce 97 3a 3e 78 8c 22 3d
       0.04748854 -0.023798048 0.18221971 0.039684743
000060 74 42 94 3d ee 04 e9 bd 20 d4 e7 bb 7c 56 10 3d
       0.072392374 -0.113778934 -0.007074848 0.035238728
000070 f0 3f 19 3e 88 d9 91 3d a0 93 dd 3d 80 ce 2f 3e
       0.14965796 0.07121569 0.10819173 0.17168617
000080 50 b8 a1 3d 14 e8 94 3d 56 b0 36 3e 8f bc 02 be
       0.07896483 0.07270828 0.17840704 -0.12767242
000090 bc 0a 85 bd 60 e8 41 bc 7e 1b 11 3e f0 74 e0 3d
       -0.06496188 -0.011835188 0.14170644 0.10959804
0000a0 26 ad 80 3d 00 21 fd bd 3e 16 21 3e c7 a8 2c be
       0.062830254 -0.1235981 0.15731141 -0.16861258
0000b0 14 7e 3f bd 7c 62 90 3d f3 d8 19 be 40 46 f1 3b
       -0.046751097 0.070500344 -0.15024166 0.007363111
0000c0 00 fe a8 ba 5d e7 16 be 00 41 7d 3a b8 a8 a5 bd
       -0.0012893081 -0.14736696 0.000966087 -0.08088821
0000d0 51 aa 03 be 14 78 0d 3e 36 9e 39 3e da 24 23 3e
       -0.1285794 0.13815337 0.18126759 0.15932027
0000e0 10 7b 6e bc fa 33 2d 3e f4 24 a7 3d 90 a0 17 be
       -0.014555708 0.16914359 0.08161345 -0.14807343
0000f0 d8 2f 24 bd 70 d5 12 3e 09 80 e7 bd 2c 7e 53 bd
       -0.04008469 0.14339232 -0.11303718 -0.051634
000100 3c 17 19 3e 20 e7 e1 bb 3e 05 d9 bd 7c e8 e6 3d
       0.1495027 -0.0068940073 -0.10596703 0.112748116
000110 ee ce 10 be 66 62 23 be e8 17 0a be c4 73 47 3d
       -0.14141437 -0.15955505 -0.13485682 0.048694387
000120 13 be ce bd 98 cc fd bc 98 98 e5 bc 3e 41 eb bd
       -0.100948475 -0.030981347 -0.028026864 -0.11487053
000130 0c 59 f4 3d 2c 8a b3 3d 44 1c b4 bd 3e 51 89 bd
       0.11931047 0.087665886 -0.08794454 -0.06704949
000140 50 cf 9c 3d 40 30 70 bc a0 d4 b6 bc a0 24 06 3c
       0.07656729 -0.014659941 -0.022318184 0.008187443
000150 d0 4d 03 3e 7c ac c7 3d 78 af 9d 3c bc dd e2 3d
       0.12822652 0.09749696 0.01924871 0.11077449
000160 ac fb 02 be 60 3f f8 3c 28 ca 2c 3e ec 12 c5 3d
       -0.12791318 0.030303657 0.16873991 0.0962275
000170 98 ae 19 3e 3c 23 0e bd a0 a1 c7 bb e4 0e 25 3e
       0.15008008 -0.03470157 -0.0060922652 0.16118962
000180 f0 25 72 bd 40 56 0d 3d 04 aa cd 3d a2 3b 38 3e
       -0.05911821 0.034506083 0.100421935 0.17991498
000190 a0 4d 36 be 70 6c 91 bd c4 f9 1f 3e 90 72 99 bc
       -0.17803049 -0.07100761 0.15622622 -0.018731385
0001a0 90 08 f9 bc 48 a4 2e bd db 11 ba bd 19 9a d2 bd
       -0.03039959 -0.04263714 -0.09085437 -0.10283298
0001b0 f0 f4 7a 3d fc 78 43 3d fc 31 a3 3d f4 00 37 3e
       0.061268747 0.0477228 0.07968518 0.17871457
0001c0 14 c4 2b 3e 72 b9 f6 bd b0 c5 19 be 69 0b 10 be
       0.16774017 -0.1204709 -0.15016818 -0.14066853
0001d0 74 c4 2b 3e 60 a7 c9 3b 04 4d ec 3d 18 f6 81 bd
       0.1677416 0.006153986 0.11538127 -0.06345767
0001e0 a8 92 da 3c 65 1a 0f be 8a a5 bb bd b0 ec 8e bc
       0.02668126 -0.13974912 -0.091624334 -0.017446846
0001f0 e4 19 2b 3d 72 98 10 3e 90 54 d0 3d 64 8f 8a bd
       0.041772738 0.14120653 0.10172379 -0.06765631
000200 e0 12 bf bc dc eb 0b 3e 18 63 1e bd c8 20 da 3d
       -0.02332443 0.13664192 -0.038668722 0.10650784
000210 18 45 0d 3d dc 81 d2 3d 4c 2b ca 3d 30 16 26 3e
       0.03448972 0.10278675 0.098715395 0.16219401
000220 88 97 99 3d 50 12 f6 3c 14 71 f2 3d 07 8f 00 be
       0.074996054 0.030038029 0.11837974 -0.1255456
000230 20 7b 03 bc b9 e4 21 be 40 e1 82 3d d5 d7 01 be
       -0.008024961 -0.15809907 0.06390619 -0.1267999
000240 a0 c6 c5 3d e0 37 ac bb e0 3b cf 3d a8 84 a6 3c
       0.09657025 -0.0052556843 0.10118842 0.020326927
000250 ec f7 ae 3d a8 16 ad bc 4c ca 92 3d 9c b3 59 3d
       0.08543381 -0.021128967 0.07167491 0.053149804
000260 77 71 d6 bd 18 60 df bd b6 e6 d2 bd 3b 56 04 be
       -0.104708605 -0.10907 -0.10297911 -0.1292352
000270 58 b3 0b 3d 40 0d 16 3d 00 e7 3b 3d c4 5f 56 bd
       0.034106582 0.03663373 0.045874596 -0.052337423
000280 3c 1d 4e 3d 3d 57 1f be 38 b5 1e be f8 11 f5 bc
       0.05032085 -0.15560623 -0.15498817 -0.029915795
000290 a8 ba c1 bd 40 7d 2d 3c fc dc c6 3d 70 db b0 3c
       -0.0945943 0.010588944 0.09710118 0.021589011
0002a0 ac ac e6 3d 8f d2 1e be f0 41 8e 3c 47 88 97 bd
       0.11263403 -0.15510009 0.017365426 -0.0739904
0002b0 88 b9 d9 bc 4c 2b 25 3d 4c 03 55 bd c8 c5 af 3d
       -0.026577726 0.040324494 -0.052005097 0.08582646
0002c0 1a 17 06 3e 14 db 34 3e e0 30 c3 3c 9a 93 21 3e
       0.1309475 0.17661697 0.023827016 0.15778962
0002d0 20 f4 5a 3d 70 18 b9 bd c0 6b 88 3c a8 cb 9c 3c
       0.053455472 -0.09037864 0.016652942 0.01914008
0002e0 b8 d0 de 3d 1c 06 d2 3d 80 fc ec ba cc 43 8d 3d
       0.10879654 0.102550715 -0.0018080622 0.06897697
0002f0 e0 00 4a 3c 8c 36 b6 3d aa 33 2e 3e 1a 30 0f 3e
       0.01232931 0.08897123 0.17011896 0.13983193
000300 20 b7 b2 bb 60 3b e6 bd 4e 14 27 be ca 27 17 be
       -0.005453959 -0.11241794 -0.1631634 -0.14761272
000310 18 ae 8a bc 64 b5 0f 3e 30 a6 e7 3c 74 7a 2f 3d
       -0.016928717 0.14034039 0.028277487 0.04284139
000320 70 50 3e bc 32 59 02 3e 8e e4 2c 3e 84 d5 a2 3d
       -0.0116158575 0.12729338 0.16884062 0.07950881
000330 d0 57 49 bd 80 8c dd 3d 04 40 9e 3d 70 8d de 3d
       -0.04915601 0.10817814 0.07727054 0.10866821
000340 fc 5a c2 3d a0 f3 40 3d fc a9 85 3d 23 78 33 be
       0.0949001 0.04710734 0.065265626 -0.17526297
000350 d8 f9 c1 3d a5 b8 30 be f7 b1 38 be 00 0f 91 3c
       0.09471482 -0.17257936 -0.18036638 0.017707348
000360 ed 3f bc bd 50 e1 25 3c 00 fa d8 b9 b6 f2 0b be
       -0.091918804 0.0101245195 -0.00041384995 -0.13666806
000370 5a b1 0d 3e 64 55 a6 bd bd 0a 1b be 88 dc e7 3d
       0.13837186 -0.08121756 -0.15140815 0.1132136
000380 04 23 ce 3d ce 8d 91 bd 40 b8 94 bd f8 84 1b 3e
       0.100652725 -0.07107125 -0.072617054 0.15187442
000390 7e 4e 07 be 60 18 91 3d 40 eb 6f 3c f0 3c 98 bc
       -0.13213536 0.07084727 0.01464349 -0.018583745
0003a0 95 7b 13 be 5a f5 f5 bd 04 b7 06 3e 00 f4 e6 bd
       -0.14402612 -0.12009688 0.13155752 -0.11277008
0003b0 a0 4c 24 bc c6 ff 37 be c8 40 a7 3d e0 4a bb 3b
       -0.010028034 -0.17968664 0.08166653 0.005715713
0003c0 b0 6d 80 3d 30 92 cd bc 70 15 03 3d c6 52 29 3e
       0.06270921 -0.025094122 0.032002866 0.16535482
0003d0 ec 53 06 be f4 df 33 3e 94 d1 22 be c0 cf 10 3b
       -0.13117951 0.175659 -0.1590026 0.0022096485
0003e0 78 7e 04 bd 54 bd 5d bd 30 d3 a1 3c 68 59 ca bc
       -0.032347172 -0.054135635 0.019754022 -0.024700835
0003f0 00 d4 de 3a fc ca 12 3e 8f 97 34 be 08 d6 11 be
       0.0017000437 0.14335245 -0.1763594 -0.14241803

net.1.weight f4 [256]
000000 00 00 80 3f 00 00 80 3f 00 00 80 3f 00 00 80 3f
       1.0 1.0 1.0 1.0
000010 00 00 80 3f 00 00 80 3f 00 00 80 3f 00 00 80 3f
       1.0 1.0 1.0 1.0
000020 00 00 80 3f 00 00 80 3f 00 00 80 3f 00 00 80 3f
       1.0 1.0 1.0 1.0
000030 00 00 80 3f 00 00 80 3f 00 00 80 3f 00 00 80 3f
       1.0 1.0 1.0 1.0
000040 00 00 80 3f 00 00 80 3f 00 00 80 3f 00 00 80 3f
       1.0 1.0 1.0 1.0
000050 00 00 80 3f 00 00 80 3f 00 00 80 3f 00 00 80 3f
       1.0 1.0 1.0 1.0
000060 00 00 80 3f 00 00 80 3f 00 00 80 3f 00 00 80 3f
       1.0 1.0 1.0 1.0
000070 00 00 80 3f 00 00 80 3f 00 00 80 3f 00 00 80 3f
       1.0 1.0 1.0 1.0
000080 00 00 80 3f 00 00 80 3f 00 00 80 3f 00 00 80 3f
       1.0 1.0 1.0 1.0
000090 00 00 80 3f 00 00 80 3f 00 00 80 3f 00 00 80 3f
       1.0 1.0 1.0 1.0
0000a0 00 00 80 3f 00 00 80 3f 00 00 80 3f 00 00 80 3f
       1.0 1.0 1.0 1.0
0000b0 00 00 80 3f 00 00 80 3f 00 00 80 3f 00 00 80 3f
       1.0 1.0 1.0 1.0
0000c0 00 00 80 3f 00 00 80 3f 00 00 80 3f 00 00 80 3f
       1.0 1.0 1.0 1.0
0000d0 00 00 80 3f 00 00 80 3f 00 00 80 3f 00 00 80 3f
       1.0 1.0 1.0 1.0
0000e0 00 00 80 3f 00 00 80 3f 00 00 80 3f 00 00 80 3f
       1.0 1.0 1.0 1.0
0000f0 00 00 80 3f 00 00 80 3f 00 00 80 3f 00 00 80 3f
       1.0 1.0 1.0 1.0
000100 00 00 80 3f 00 00 80 3f 00 00 80 3f 00 00 80 3f
       1.0 1.0 1.0 1.0
000110 00 00 80 3f 00 00 80 3f 00 00 80 3f 00 00 80 3f
       1.0 1.0 1.0 1.0
000120 00 00 80 3f 00 00 80 3f 00 00 80 3f 00 00 80 3f
       1.0 1.0 1.0 1.0
000130 00 00 80 3f 00 00 80 3f 00 00 80 3f 00 00 80 3f
       1.0 1.0 1.0 1.0
000140 00 00 80 3f 00 00 80 3f 00 00 80 3f 00 00 80 3f
       1.0 1.0 1.0 1.0
000150 00 00 80 3f 00 00 80 3f 00 00 80 3f 00 00 80 3f
       1.0 1.0 1.0 1.0
000160 00 00 80 3f 00 00 80 3f 00 00 80 3f 00 00 80 3f
       1.0 1.0 1.0 1.0
000170 00 00 80 3f 00 00 80 3f 00 00 80 3f 00 00 80 3f
       1.0 1.0 1.0 1.0
000180 00 00 80 3f 00 00 80 3f 00 00 80 3f 00 00 80 3f
       1.0 1.0 1.0 1.0
000190 00 00 80 3f 00 00 80 3f 00 00 80 3f 00 00 80 3f
       1.0 1.0 1.0 1.0
0001a0 00 00 80 3f 00 00 80 3f 00 00 80 3f 00 00 80 3f
       1.0 1.0 1.0 1.0
0001b0 00 00 80 3f 00 00 80 3f 00 00 80 3f 00 00 80 3f
       1.0 1.0 1.0 1.0
0001c0 00 00 80 3f 00 00 80 3f 00 00 80 3f 00 00 80 3f
       1.0 1.0 1.0 1.0
0001d0 00 00 80 3f 00 00 80 3f 00 00 80 3f 00 00 80 3f
       1.0 1.0 1.0 1.0
0001e0 00 00 80 3f 00 00 80 3f 00 00 80 3f 00 00 80 3f
       1.0 1.0 1.0 1.0
0001f0 00 00 80 3f 00 00 80 3f 00 00 80 3f 00 00 80 3f
       1.0 1.0 1.0 1.0
000200 00 00 80 3f 00 00 80 3f 00 00 80 3f 00 00 80 3f
       1.0 1.0 1.0 1.0
000210 00 00 80 3f 00 00 80 3f 00 00 80 3f 00 00 80 3f
       1.0 1.0 1.0 1.0
000220 00 00 80 3f 00 00 80 3f 00 00 80 3f 00 00 80 3f
       1.0 1.0 1.0 1.0
000230 00 00 80 3f 00 00 80 3f 00 00 80 3f 00 00 80 3f
       1.0 1.0 1.0 1.0
000240 00 00 80 3f 00 00 80 3f 00 00 80 3f 00 00 80 3f
       1.0 1.0 1.0 1.0
000250 00 00 80 3f 00 00 80 3f 00 00 80 3f 00 00 80 3f
       1.0 1.0 1.0 1.0
000260 00 00 80 3f 00 00 80 3f 00 00 80 3f 00 00 80 3f
       1.0 1.0 1.0 1.0
000270 00 00 80 3f 00 00 80 3f 00 00 80 3f 00 00 80 3f
       1.0 1.0 1.0 1.0
000280 00 00 80 3f 00 00 80 3f 00 00 80 3f 00 00 80 3f
       1.0 1.0 1.0 1.0
000290 00 00 80 3f 00 00 80 3f 00 00 80 3f 00 00 80 3f
       1.0 1.0 1.0 1.0
0002a0 00 00 80 3f 00 00 80 3f 00 00 80 3f 00 00 80 3f
       1.0 1.0 1.0 1.0
0002b0 00 00 80 3f 00 00 80 3f 00 00 80 3f 00 00 80 3f
       1.0 1.0 1.0 1.0
0002c0 00 00 80 3f 00 00 80 3f 00 00 80 3f 00 00 80 3f
       1.0 1.0 1.0 1.0
0002d0 00 00 80 3f 00 00 80 3f 00 00 80 3f 00 00 80 3f
       1.0 1.0 1.0 1.0
0002e0 00 00 80 3f 00 00 80 3f 00 00 80 3f 00 00 80 3f
       1.0 1.0 1.0 1.0
0002f0 00 00 80 3f 00 00 80 3f 00 00 80 3f 00 00 80 3f
       1.0 1.0 1.0 1.0
000300 00 00 80 3f 00 00 80 3f 00 00 80 3f 00 00 80 3f
       1.0 1.0 1.0 1.0
000310 00 00 80 3f 00 00 80 3f 00 00 80 3f 00 00 80 3f
       1.0 1.0 1.0 1.0
000320 00 00 80 3f 00 00 80 3f 00 00 80 3f 00 00 80 3f
       1.0 1.0 1.0 1.0
000330 00 00 80 3f 00 00 80 3f 00 00 80 3f 00 00 80 3f
       1.0 1.0 1.0 1.0
000340 00 00 80 3f 00 00 80 3f 00 00 80 3f 00 00 80 3f
       1.0 1.0 1.0 1.0
000350 00 00 80 3f 00 00 80 3f 00 00 80 3f 00 00 80 3f
       1.0 1.0 1.0 1.0
000360 00 00 80 3f 00 00 80 3f 00 00 80 3f 00 00 80 3f
       1.0 1.0 1.0 1.0
000370 00 00 80 3f 00 00 80 3f 00 00 80 3f 00 00 80 3f
       1.0 1.0 1.0 1.0
000380 00 00 80 3f 00 00 80 3f 00 00 80 3f 00 00 80 3f
       1.0 1.0 1.0 1.0
000390 00 00 80 3f 00 00 80 3f 00 00 80 3f 00 00 80 3f
       1.0 1.0 1.0 1.0
0003a0 00 00 80 3f 00 00 80 3f 00 00 80 3f 00 00 80 3f
       1.0 1.0 1.0 1.0
0003b0 00 00 80 3f 00 00 80 3f 00 00 80 3f 00 00 80 3f
       1.0 1.0 1.0 1.0
0003c0 00 00 80 3f 00 00 80 3f 00 00 80 3f 00 00 80 3f
       1.0 1.0 1.0 1.0
0003d0 00 00 80 3f 00 00 80 3f 00 00 80 3f 00 00 80 3f
       1.0 1.0 1.0 1.0
0003e0 00 00 80 3f 00 00 80 3f 00 00 80 3f 00 00 80 3f
       1.0 1.0 1.0 1.0
0003f0 00 00 80 3f 00 00 80 3f 00 00 80 3f 00 00 80 3f
       1.0 1.0 1.0 1.0

net.1.bias f4 [256]
000000 00 00 00 00 00 00 00 00 00 00 00 00 00 00 00 00
       0.0 0.0 0.0 0.0
000010 00 00 00 00 00 00 00 00 00 00 00 00 00 00 00 00
       0.0 0.0 0.0 0.0
000020 00 00 00 00 00 00 00 00 00 00 00 00 00 00 00 00
       0.0 0.0 0.0 0.0
000030 00 00 00 00 00 00 00 00 00 00 00 00 00 00 00 00
       0.0 0.0 0.0 0.0
000040 00 00 00 00 00 00 00 00 00 00 00 00 00 00 00 00
       0.0 0.0 0.0 0.0
000050 00 00 00 00 00 00 00 00 00 00 00 00 00 00 00 00
       0.0 0.0 0.0 0.0
000060 00 00 00 00 00 00 00 00 00 00 00 00 00 00 00 00
       0.0 0.0 0.0 0.0
000070 00 00 00 00 00 00 00 00 00 00 00 00 00 00 00 00
       0.0 0.0 0.0 0.0
000080 00 00 00 00 00 00 00 00 00 00 00 00 00 00 00 00
       0.0 0.0 0.0 0.0
000090 00 00 00 00 00 00 00 00 00 00 00 00 00 00 00 00
       0.0 0.0 0.0 0.0
0000a0 00 00 00 00 00 00 00 00 00 00 00 00 00 00 00 00
       0.0 0.0 0.0 0.0
0000b0 00 00 00 00 00 00 00 00 00 00 00 00 00 00 00 00
       0.0 0.0 0.0 0.0
0000c0 00 00 00 00 00 00 00 00 00 00 00 00 00 00 00 00
       0.0 0.0 0.0 0.0
0000d0 00 00 00 00 00 00 00 00 00 00 00 00 00 00 00 00
       0.0 0.0 0.0 0.0
0000e0 00 00 00 00 00 00 00 00 00 00 00 00 00 00 00 00
       0.0 0.0 0.0 0.0
0000f0 00 00 00 00 00 00 00 00 00 00 00 00 00 00 00 00
       0.0 0.0 0.0 0.0
000100 00 00 00 00 00 00 00 00 00 00 00 00 00 00 00 00
       0.0 0.0 0.0 0.0
000110 00 00 00 00 00 00 00 00 00 00 00 00 00 00 00 00
       0.0 0.0 0.0 0.0
000120 00 00 00 00 00 00 00 00 00 00 00 00 00 00 00 00
       0.0 0.0 0.0 0.0
000130 00 00 00 00 00 00 00 00 00 00 00 00 00 00 00 00
       0.0 0.0 0.0 0.0
000140 00 00 00 00 00 00 00 00 00 00 00 00 00 00 00 00
       0.0 0.0 0.0 0.0
000150 00 00 00 00 00 00 00 00 00 00 00 00 00 00 00 00
       0.0 0.0 0.0 0.0
000160 00 00 00 00 00 00 00 00 00 00 00 00 00 00 00 00
       0.0 0.0 0.0 0.0
000170 00 00 00 00 00 00 00 00 00 00 00 00 00 00 00 00
       0.0 0.0 0.0 0.0
000180 00 00 00 00 00 00 00 00 00 00 00 00 00 00 00 00
       0.0 0.0 0.0 0.0
000190 00 00 00 00 00 00 00 00 00 00 00 00 00 00 00 00
       0.0 0.0 0.0 0.0
0001a0 00 00 00 00 00 00 00 00 00 00 00 00 00 00 00 00
       0.0 0.0 0.0 0.0
0001b0 00 00 00 00 00 00 00 00 00 00 00 00 00 00 00 00
       0.0 0.0 0.0 0.0
0001c0 00 00 00 00 00 00 00 00 00 00 00 00 00 00 00 00
       0.0 0.0 0.0 0.0
0001d0 00 00 00 00 00 00 00 00 00 00 00 00 00 00 00 00
       0.0 0.0 0.0 0.0
0001e0 00 00 00 00 00 00 00 00 00 00 00 00 00 00 00 00
       0.0 0.0 0.0 0.0
0001f0 00 00 00 00 00 00 00 00 00 00 00 00 00 00 00 00
       0.0 0.0 0.0 0.0
000200 00 00 00 00 00 00 00 00 00 00 00 00 00 00 00 00
       0.0 0.0 0.0 0.0
000210 00 00 00 00 00 00 00 00 00 00 00 00 00 00 00 00
       0.0 0.0 0.0 0.0
000220 00 00 00 00 00 00 00 00 00 00 00 00 00 00 00 00
       0.0 0.0 0.0 0.0
000230 00 00 00 00 00 00 00 00 00 00 00 00 00 00 00 00
       0.0 0.0 0.0 0.0
000240 00 00 00 00 00 00 00 00 00 00 00 00 00 00 00 00
       0.0 0.0 0.0 0.0
000250 00 00 00 00 00 00 00 00 00 00 00 00 00 00 00 00
       0.0 0.0 0.0 0.0
000260 00 00 00 00 00 00 00 00 00 00 00 00 00 00 00 00
       0.0 0.0 0.0 0.0
000270 00 00 00 00 00 00 00 00 00 00 00 00 00 00 00 00
       0.0 0.0 0.0 0.0
000280 00 00 00 00 00 00 00 00 00 00 00 00 00 00 00 00
       0.0 0.0 0.0 0.0
000290 00 00 00 00 00 00 00 00 00 00 00 00 00 00 00 00
       0.0 0.0 0.0 0.0
0002a0 00 00 00 00 00 00 00 00 00 00 00 00 00 00 00 00
       0.0 0.0 0.0 0.0
0002b0 00 00 00 00 00 00 00 00 00 00 00 00 00 00 00 00
       0.0 0.0 0.0 0.0
0002c0 00 00 00 00 00 00 00 00 00 00 00 00 00 00 00 00
       0.0 0.0 0.0 0.0
0002d0 00 00 00 00 00 00 00 00 00 00 00 00 00 00 00 00
       0.0 0.0 0.0 0.0
0002e0 00 00 00 00 00 00 00 00 00 00 00 00 00 00 00 00
       0.0 0.0 0.0 0.0
0002f0 00 00 00 00 00 00 00 00 00 00 00 00 00 00 00 00
       0.0 0.0 0.0 0.0
000300 00 00 00 00 00 00 00 00 00 00 00 00 00 00 00 00
       0.0 0.0 0.0 0.0
000310 00 00 00 00 00 00 00 00 00 00 00 00 00 00 00 00
       0.0 0.0 0.0 0.0
000320 00 00 00 00 00 00 00 00 00 00 00 00 00 00 00 00
       0.0 0.0 0.0 0.0
000330 00 00 00 00 00 00 00 00 00 00 00 00 00 00 00 00
       0.0 0.0 0.0 0.0
000340 00 00 00 00 00 00 00 00 00 00 00 00 00 00 00 00
       0.0 0.0 0.0 0.0
000350 00 00 00 00 00 00 00 00 00 00 00 00 00 00 00 00
       0.0 0.0 0.0 0.0
000360 00 00 00 00 00 00 00 00 00 00 00 00 00 00 00 00
       0.0 0.0 0.0 0.0
000370 00 00 00 00 00 00 00 00 00 00 00 00 00 00 00 00
       0.0 0.0 0.0 0.0
000380 00 00 00 00 00 00 00 00 00 00 00 00 00 00 00 00
       0.0 0.0 0.0 0.0
000390 00 00 00 00 00 00 00 00 00 00 00 00 00 00 00 00
       0.0 0.0 0.0 0.0
0003a0 00 00 00 00 00 00 00 00 00 00 00 00 00 00 00 00
       0.0 0.0 0.0 0.0
0003b0 00 00 00 00 00 00 00 00 00 00 00 00 00 00 00 00
       0.0 0.0 0.0 0.0
0003c0 00 00 00 00 00 00 00 00 00 00 00 00 00 00 00 00
       0.0 0.0 0.0 0.0
0003d0 00 00 00 00 00 00 00 00 00 00 00 00 00 00 00 00
       0.0 0.0 0.0 0.0
0003e0 00 00 00 00 00 00 00 00 00 00 00 00 00 00 00 00
       0.0 0.0 0.0 0.0
0003f0 00 00 00 00 00 00 00 00 00 00 00 00 00 00 00 00
       0.0 0.0 0.0 0.0

net.3.weight f4 [256, 256]
000000 7c 77 a0 bc 80 3a 51 3a 50 54 00 bc 40 f6 8b 3c
       -0.019588225 0.00079814345 -0.007832602 0.017085195
000010 46 be 30 bd 24 42 09 bd d8 6d 19 3c 3e 90 53 3d
       -0.04315021 -0.033510342 0.009364568 0.051651232
000020 58 40 80 bc c0 07 f0 3c 26 02 28 bd 30 19 1b 3d
       -0.015655681 0.02930057 -0.041017674 0.037865818
000030 08 2b 0f 3d 3e 76 53 bd 90 fe 87 bb 0a bb 38 bd
       0.034953147 -0.051626436 -0.0041502193 -0.04510025
000040 68 cd 67 3c f0 64 7a 3d 30 f7 1f bd f0 9a f1 3b
       0.014148094 0.061131418 -0.039054096 0.0073732063
000050 80 90 e1 3c ee d6 2e bd 46 bd 29 bd 64 a4 86 3c
       0.027534723 -0.04268544 -0.04144027 0.01643581
000060 5c 8d 23 3d 8c 1f b9 bc 9e 25 37 3d 38 b7 15 bc
       0.039929733 -0.02259805 0.04471361 -0.009137921
000070 5c 38 ca bc ea 44 5c 3d 38 9a 81 3c c8 fa af bc
       -0.024685077 0.05377666 0.015820608 -0.021481887
000080 b4 d9 a7 bc 88 bf 7b bc 78 f4 71 bc a4 77 e2 3c
       -0.020489551 -0.015365489 -0.014767759 0.02764494
000090 00 30 18 b8 1c 79 ad 3c 00 d5 44 3d 84 88 af bc
       -3.6284328e-05 0.021175914 0.048054695 -0.0214274
0000a0 00 cd 6e 3b 88 37 70 3c d2 e4 34 bd e4 11 51 3d
       0.0036438107 0.014661677 -0.044163533 0.051042452
0000b0 80 fd 2a 3b 38 f9 5e 3d 82 6a 7e bd a4 9d 7a bd
       0.002609104 0.054436892 -0.062113293 -0.061185494
0000c0 c4 87 19 bd a0 78 18 3b b0 a4 ca 3c ba e1 09 bd
       -0.03748299 0.0023265257 0.024736732 -0.033662535
0000d0 40 d6 bd bc c4 08 f7 bc 70 13 1c bc 98 d4 db bc
       -0.023173451 -0.030155547 -0.009526119 -0.026834771
0000e0 b0 ae 3e bd 38 24 bd 3c 92 fb 12 3d 46 d8 09 bd
       -0.046553314 0.02308856 0.035884447 -0.03365352
0000f0 30 4c 3d 3d 28 32 55 3c 1c 50 42 bd d8 56 ac bc
       0.046215236 0.013012446 -0.04743968 -0.021037504
000100 3e 6b 71 bd ba 7a 06 bd d0 8e 13 3c b8 37 0e 3d
       -0.058940165 -0.032831885 0.009006217 0.034721106
000110 30 b0 c3 3b f0 a2 01 bc 70 b4 d7 bc 60 2f 64 3d
       0.005971931 -0.0079123825 -0.026331156 0.055709243
000120 d0 c8 fe 3c d0 a9 6d 3d 3c ee 97 bc d0 68 bb 3c
       0.031101614 0.058023274 -0.018546216 0.022877127
000130 ac b6 64 bd 66 fe 37 3d 1a b6 5b 3d 3c c4 52 3d
       -0.055838272 0.044920348 0.053640462 0.051456675
000140 dc 2e be bc b0 7b 90 bb 32 2e 54 bd 8a 83 02 bd
       -0.023215704 -0.004409276 -0.051801868 -0.031863727
000150 d0 96 f1 bc 40 d2 a5 3a ac e8 22 bd 82 1e 09 bd
       -0.029490858 0.001265116 -0.039772674 -0.03347636
000160 1c 5b 58 3d a4 b6 4d 3d 98 c7 42 bc 84 1a ed bc
       0.052821264 0.050223008 -0.011888407 -0.028943308
000170 8c 0e 80 3c 68 24 28 3c c6 29 64 3d 40 39 02 3c
       0.015631936 0.010262586 0.0557039 0.00794822
000180 92 36 2f bd 38 89 a5 bc 80 d9 f8 bc 70 e9 09 bc
       -0.04277665 -0.020207033 -0.03037715 -0.008417472
000190 ea b9 41 3d 14 40 8e bc 7a b2 05 bd 9c 19 ad bc
       0.047296442 -0.01736454 -0.03264091 -0.021130376
0001a0 b2 28 51 3d 94 4a 53 bd 5c 07 5b bd 12 30 12 bd
       0.0510642 -0.051584795 -0.053473815 -0.035690375
0001b0 20 71 5f 3d 22 52 06 3d 72 9c 5e 3d de b3 0f bd
       0.054551244 0.03279317 0.054348417 -0.035083644
0001c0 78 b2 28 bd 16 a2 66 3d e8 5a c4 3c e0 b0 fb 3c
       -0.041185826 0.05630692 0.023969129 0.030723989
0001d0 9c 64 f3 bc f8 2a 77 bd 94 96 e8 3c d4 fb ea 3c
       -0.02971106 -0.060343713 0.028392114 0.028684534
0001e0 d8 af 5b 3c 10 2c 7c bc 54 0c 50 3d 00 69 cc bc
       0.013408624 -0.015391365 0.050793007 -0.024952412
0001f0 d0 4a a7 bc bc b3 4f 3d 00 f2 cd bb 00 cf 26 3c
       -0.020421416 0.050708517 -0.006284952 0.010181189
000200 2c cd 7a bd b8 34 42 bc cc 80 9c bc 40 9b 8f 3c
       -0.061230823 -0.011853389 -0.019104384 0.017530084
000210 c0 71 2b bd 44 07 ee bc ae 66 63 3d 4c 86 0d bd
       -0.041856527 -0.029056199 0.055517845 -0.034551904
000220 22 e6 6a 3d d0 fb 9d bb f4 1e f2 3c 10 ac c0 3b
       0.057348378 -0.004821278 0.029555775 0.0058798864
000230 78 bb fa bc 88 77 20 bc f2 c8 18 bd 90 b6 c0 bb
       -0.03060697 -0.0097941235 -0.03730101 -0.005881138
000240 40 aa fb 3c 44 32 de bc 58 e8 67 3d 80 f2 37 bd
       0.03072083 -0.027123578 0.056618065 -0.044909
000250 f8 4e 96 3c 80 36 bc 3b b6 af 50 3d e8 d1 3e 3d
       0.018348202 0.0057438016 0.05094882 0.0465869
000260 20 73 9b bc 70 89 20 3c 60 de b3 bb 5c 6c 6b 3d
       -0.018975794 0.009798393 -0.0054891557 0.057476386
000270 70 85 0c 3c c0 d6 c4 bb 16 97 12 bd e0 a8 06 bc
       0.008576736 -0.0060070455 -0.035788618 -0.008218974
000280 38 a3 bf bc 74 ce 1c bd a4 17 3f bd ca 2e 04 bd
       -0.023393258 -0.038282827 -0.046653405 -0.032271184
000290 9c ee 4c 3d d8 1b bf 3c 70 08 f5 bc 24 9f 1f bd
       0.050032243 0.023328707 -0.02991125 -0.038970128
0002a0 34 8e a9 bc c0 72 ea 3a 78 09 7c bc 78 a6 e4 bc
       -0.02069769 0.0017886981 -0.015383117 -0.02791141
0002b0 be 47 6b 3d dc a1 99 3c 1c 3f 60 3d b4 c6 2b 3d
       0.057441466 0.018753938 0.054747686 0.041937545
0002c0 08 53 f2 bc aa c9 25 3d 8c d1 b2 bc 22 75 06 3d
       -0.029580608 0.040475525 -0.021828435 0.03282655
0002d0 64 c7 e4 bc 14 4c a5 3c 90 31 19 3c 98 10 62 3c
       -0.027927108 0.020177878 0.0093501955 0.013797902
0002e0 4c 96 4e 3d 40 ab 03 bd 60 1c 1e bb f8 22 7c bd
       0.050436303 -0.03214574 -0.00241258 -0.061556786
0002f0 64 55 db bc 80 d9 47 bc 00 80 df b6 96 29 29 bd
       -0.026774116 -0.012197852 -6.660819e-06 -0.041299425
000300 e6 60 72 3d 80 30 27 bd 1e 32 45 bd 1c dc c6 bc
       0.05917444 -0.040817738 -0.0481435 -0.024274878
000310 00 84 df ba b8 7f 26 bd 12 d8 77 3d a0 28 d6 3b
       -0.0017052889 -0.040649146 0.060508795 0.0065356046
000320 08 dc d1 bc 26 8c 18 3d 00 80 12 38 e0 1f 91 3b
       -0.025617614 0.03724303 3.4928322e-05 0.0044288486
000330 6a 33 5f 3d 8a c9 24 3d cc 9a 3b bd 2e 0a 1c 3d
       0.05449239 0.040231265 -0.045801923 0.038095646
000340 12 7c 1a bd 68 8f 4c 3d 1a ba 37 bd 1a 05 15 bd
       -0.03771598 0.04994145 -0.044855215 -0.03638182
000350 60 39 5c 3c 7e 87 6e bd b2 ab 26 bd 48 e3 88 3c
       0.013441414 -0.058234684 -0.040691085 0.016709939
000360 c0 5b 0d bd e4 dc 12 bd c0 84 37 bb 84 e4 57 3d
       -0.034511328 -0.03585519 -0.002800271 0.052708164
000370 0c 2e 78 3d 98 ee 11 bd c0 71 39 bc 6c 5d 9b 3c
       0.06059079 -0.03562793 -0.011318624 0.018965445
000380 d6 92 5b 3d a0 59 fc bb 38 58 fb bc 90 b6 55 bd
       0.05360683 -0.007701114 -0.030681714 -0.05217606
000390 48 36 5e 3c 6c bb 72 3d 98 a4 a7 bc 6e 7b 54 3d
       0.013562746 0.05926077 -0.020464227 0.051875524
0003a0 e6 58 13 bd f2 c8 31 bd 98 0c 3a 3c 40 95 6e 3c
       -0.035973452 -0.043404527 0.011355542 0.014561951
0003b0 dc 83 9b bc 20 29 e0 bc c0 4d 7d 3b 02 47 1c 3d
       -0.018983774 -0.02736336 0.003865108 0.038153656
0003c0 34 94 15 3d c2 7e 30 3d 0a 85 72 bd 7c b2 b4 3c
       0.03651829 0.043089636 -0.059208907 0.022057764
0003d0 2a d6 62 bd 80 bc 0a 3b 50 35 ef 3b f0 90 85 3b
       -0.055380024 0.0021169484 0.0073000565 0.004076116
0003e0 48 f8 d7 3c c0 db 9c 3c 72 47 12 bd 5a cc 66 3d
       0.026363507 0.019147754 -0.035712667 0.05634723
0003f0 e8 12 7b 3c f4 67 26 3d 00 8d 84 b9 40 c7 1d bc
       0.015324332 0.04062648 -0.00025282055 -0.009630024

net.3.bias f4 [256]
000000 1c ab a5 3c 0c b4 e7 3c a6 5d 0d 3d 34 06 49 3d
       0.020223193 0.028284095 0.03451314 0.04907818
000010 60 5d 10 bc 60 18 0c bd 64 67 d6 3c 3c cf 2b bd
       -0.008811325 -0.034202933 0.026172347 -0.04194568
000020 a0 89 00 3b 92 ba 24 3d b8 62 75 3c d8 af 78 bc
       0.001961328 0.04021699 0.01497715 -0.015178643
000030 46 ac 3e 3d 60 3a 46 bc 90 79 35 3c 86 69 26 3d
       0.04655101 -0.012098879 0.011076346 0.04062798
000040 00 20 ca ba 34 c4 f7 bc 40 36 90 3b 02 b3 3f bd
       -0.0015420914 -0.030244924 0.0044009984 -0.046801575
000050 5e 96 75 bd 7a e4 76 3d c8 55 b0 bc d4 5c a2 bc
       -0.059957854 0.060276486 -0.021525279 -0.019819655
000060 20 d1 99 bc 60 a8 0b 3b 20 e1 24 bd 14 c2 ba bc
       -0.018776476 0.0021310076 -0.04025376 -0.022797622
000070 a6 c2 2b 3d b4 d3 8a bc 24 65 0c bd 80 fc 69 bc
       0.041933678 -0.016946651 -0.034276143 -0.014281392
000080 20 75 32 3d 90 9f 4d bd 00 de c4 ba 84 8c 26 3d
       0.04356873 -0.050201 -0.0015019774 0.04066135
000090 a8 a0 1a 3c 08 a1 2a 3d 10 51 df 3c 54 aa 57 bd
       0.0094377175 0.041657478 0.027260333 -0.052652672
0000a0 00 34 29 bb 3e 74 31 3d c0 d2 2e 3b c8 89 1e 3c
       -0.0025818348 0.043323748 0.002667591 0.009676404
0000b0 a6 c8 51 3d 7c 00 86 bc d4 8d 07 bd d2 05 32 3d
       0.051216744 -0.016357653 -0.033094242 0.043462582
0000c0 cc 6d 56 3d 3a b4 26 3d 82 70 38 bd 08 b5 1c 3c
       0.052350804 0.04069922 -0.04502917 0.009564646
0000d0 10 96 97 3b 72 b7 24 3d 6c 71 99 bc 52 e0 55 bd
       0.004626043 0.04021401 -0.018730842 -0.05221588
0000e0 30 c4 4d 3d 32 8e 16 3d 88 03 84 3c 7e b6 72 3d
       0.050235927 0.0367567 0.016114965 0.05925607
0000f0 08 05 89 3c 4c da 99 3c c8 00 b6 bc 1a 12 0a bd
       0.016726032 0.01878085 -0.02221717 -0.03370867
000100 72 dd 35 bd 28 b2 d4 3c 5e ae 7a bd e8 33 5e bd
       -0.04440064 0.025963858 -0.061201446 -0.05424872
000110 24 48 6d 3d c0 f0 37 3b 68 37 d7 bc 74 de 79 bd
       0.057930127 0.0028067082 -0.026271537 -0.061003163
000120 3c 2b d3 3c a0 18 0e 3c 62 2c 21 bd 5c 1f b9 3c
       0.025777452 0.008672863 -0.039348967 0.022597961
000130 d4 14 f9 3c da d8 24 3d 94 29 ea bc 5a 71 16 bd
       0.03040544 0.04024587 -0.02858428 -0.036729194
000140 10 2e 2d bc 18 ad 74 bc de 32 21 bd 80 b2 10 3b
       -0.010570064 -0.014933847 -0.03935515 0.002207905
000150 a0 78 e3 bc d4 17 40 bd e0 73 a3 bc d8 12 de bc
       -0.02776748 -0.046897724 -0.019952714 -0.027108595
000160 a0 a2 52 3c 44 18 78 bd 48 e3 70 3d ea c2 1e 3d
       0.012856156 -0.060570017 0.058810502 0.038760103
000170 cc e4 90 3c 4c 57 35 bd 90 04 3c bc 36 79 26 bd
       0.017687224 -0.044272706 -0.011475697 -0.04064294
000180 e0 6c bc 3c 46 ed 6e bd d0 32 35 bc e0 0b 29 3d
       0.023001134 -0.05833175 -0.011059478 0.04127109
000190 e0 63 8d bc 38 84 00 3d ba 73 05 3d 30 0c a3 3b
       -0.017259538 0.031376094 0.03258107 0.004975818
0001a0 80 a4 34 3b 18 b2 48 3c 8c a4 ff 3c 10 58 b5 bb
       0.002756387 0.012249492 0.031206392 -0.0055341795
0001b0 00 8b 77 3d d4 44 a0 bc 80 4a 10 3d 92 1a 4b 3d
       0.060435295 -0.01956407 0.0352273 0.049585886
0001c0 bc 06 a9 bc 00 06 b7 bb b8 2d 1a bd 8e 35 3e 3d
       -0.020633094 -0.005585432 -0.037641257 0.046437792
0001d0 64 96 e2 3c 20 b2 ae bc d0 ac d7 3c 4e 10 6c 3d
       0.027659602 -0.021325171 0.02632752 0.057632737
0001e0 34 d7 d0 3c 30 7d 46 3c 64 b6 a6 bc 24 3e 47 3d
       0.025493242 0.012114808 -0.020350643 0.048643246
0001f0 d0 39 da 3c 20 d4 a5 bc 80 66 c6 3c c0 95 95 3c
       0.026638895 -0.02024275 0.024218798 0.018259883
000200 c0 a6 9d ba 9a 89 48 3d ca 8a 76 3d b8 42 49 3d
       -0.0012027845 0.048959352 0.060190953 0.049135894
000210 dc a4 7d bd 20 71 3f 3b 70 2d ab bb 40 fa 81 bc
       -0.0619248 0.0029211715 -0.0052239224 -0.015866399
000220 78 09 1f bc 0a 25 6a 3d 90 d7 85 bc 4a 8f 46 bd
       -0.009706847 0.05716423 -0.01633814 -0.048476495
000230 b8 68 16 bd 62 49 2b bd 98 45 47 3c ae d8 11 3d
       -0.03672096 -0.04181803 0.012162589 0.035607032
000240 70 49 eb 3b 52 be 46 bd 10 7a c6 bb b8 8d 2a 3c
       0.0071803853 -0.048521347 -0.0060570315 0.010409765
000250 a4 07 7d 3d 60 14 54 3d c8 3f 67 3d 24 9f b9 3c
       0.061774865 0.051777244 0.05645731 0.022658892
000260 c0 dd 44 bc 2a 17 1f bd a2 9a 38 bd 44 55 1c bd
       -0.01201576 -0.03884045 -0.045069344 -0.038167253
000270 12 16 6e bd 26 8c 27 bd 24 bc c7 bc 38 b2 58 3c
       -0.058126517 -0.04090514 -0.024381705 0.013226084
000280 50 a1 aa bc ac 8d 90 3c 54 4c ce bc b0 c7 35 3d
       -0.020828873 0.01764568 -0.02518288 0.04437989
000290 10 78 ae 3b e0 cc 21 bd 04 e0 66 3d d0 2e ec 3b
       0.005324371 -0.039502025 0.05636598 0.007207729
0002a0 ec 84 ee bc 0e 32 48 bd ce fa 1d bd 4c be d8 bc
       -0.029116116 -0.04887586 -0.038569264 -0.026457928
0002b0 68 a4 49 bc b4 97 42 3d 30 d8 42 bd 8c 66 67 3d
       -0.012307264 0.047507957 -0.047569454 0.05649428
0002c0 ae 57 27 bd 66 89 4e bd 20 ab f2 3c 18 b8 6e 3c
       -0.040855102 -0.050424002 0.029622614 0.014570259
0002d0 00 9e b1 3c 5a 06 10 3d 1e ec 4a 3d e8 d7 60 3d
       0.021681786 0.035162307 0.049541585 0.054893404
0002e0 70 39 71 bc 18 14 b7 bc 6c 08 22 3d b2 1f 75 bd
       -0.014723167 -0.022348449 0.039558813 -0.05984468
0002f0 fa 58 2e 3d 44 03 b0 3c 6c 03 cc bc 94 b0 9a 3c
       0.042565323 0.021485932 -0.024903975 0.018883027
000300 00 40 c6 3c 5c 26 93 3c 30 18 a9 bc 60 76 84 3c
       0.02420044 0.017962627 -0.020641416 0.016169727
000310 a8 93 ef bc 70 65 77 3c e0 5c 8f bb da b9 29 3d
       -0.029245213 0.015099868 -0.0043750852 0.041437007
000320 a4 b5 fd bc 04 6e f0 3c 5c eb 1e bd 20 92 a2 3c
       -0.030970402 0.029349335 -0.038798675 0.019845068
000330 0c 09 16 bd fe dc 6c 3d c8 ea 12 3c 2c aa a5 bc
       -0.03662972 0.057827942 0.008967109 -0.020222746
000340 8c 3b 53 bd 70 be 83 bb fa bb 0f 3d 28 1f 8a bc
       -0.05157046 -0.0040205047 0.035091378 -0.01686056
000350 86 9a 4a 3d ec 5f 5b bd 1c 9d cf bc 9a 29 2b bd
       0.04946377 -0.053558275 -0.02534347 -0.04178772
000360 40 f1 92 3c 9a ea 66 bd d8 d7 4b bc 34 ad 81 3c
       0.017937303 -0.056376077 -0.012441598 0.01582966
000370 a0 14 00 3c 64 ee ba 3c 30 c6 d6 bc a6 e2 16 3d
       0.007817417 0.022818752 -0.02621755 0.036837243
000380 64 0e f1 3c 9e 49 47 bd c8 5f 44 3d f8 d0 6e 3c
       0.029425807 -0.04865419 0.047942907 0.014576189
000390 60 ca fa 3b f2 19 6c 3d 66 e6 30 bd 84 2a 42 bd
       0.0076535195 0.05764193 -0.043188475 -0.047403827
0003a0 bc ac c3 bc dc a6 21 3d fe df 58 bd 34 4a a9 bc
       -0.023886077 0.03946577 -0.05294799 -0.020665266
0003b0 8e 6f 61 bd 60 7d 13 3d d8 78 49 bc c6 16 08 bd
       -0.055038027 0.03600824 -0.012296878 -0.033224843
0003c0 28 e4 2d 3d e0 43 75 bd fc 33 3d bd 52 b0 76 3d
       0.042453915 -0.059879184 -0.046192154 0.060226746
0003d0 e4 57 cb 3c 64 86 95 bc 20 5c 76 3b a0 7a 27 3d
       0.024822183 -0.018252559 0.0037591532 0.04088843
0003e0 2c 98 4e bd e0 17 c8 bc 74 50 a3 bc 2c 24 6f bd
       -0.05043809 -0.024425447 -0.019935824 -0.058384106
0003f0 a4 41 fb 3c d2 06 23 3d 70 7f 00 3c 62 b0 4c 3d
       0.030670948 0.039801426 0.0078428835 0.0499729

net.4.weight f4 [256]
000000 00 00 80 3f 00 00 80 3f 00 00 80 3f 00 00 80 3f
       1.0 1.0 1.0 1.0
000010 00 00 80 3f 00 00 80 3f 00 00 80 3f 00 00 80 3f
       1.0 1.0 1.0 1.0
000020 00 00 80 3f 00 00 80 3f 00 00 80 3f 00 00 80 3f
       1.0 1.0 1.0 1.0
000030 00 00 80 3f 00 00 80 3f 00 00 80 3f 00 00 80 3f
       1.0 1.0 1.0 1.0
000040 00 00 80 3f 00 00 80 3f 00 00 80 3f 00 00 80 3f
       1.0 1.0 1.0 1.0
000050 00 00 80 3f 00 00 80 3f 00 00 80 3f 00 00 80 3f
       1.0 1.0 1.0 1.0
000060 00 00 80 3f 00 00 80 3f 00 00 80 3f 00 00 80 3f
       1.0 1.0 1.0 1.0
000070 00 00 80 3f 00 00 80 3f 00 00 80 3f 00 00 80 3f
       1.0 1.0 1.0 1.0
000080 00 00 80 3f 00 00 80 3f 00 00 80 3f 00 00 80 3f
       1.0 1.0 1.0 1.0
000090 00 00 80 3f 00 00 80 3f 00 00 80 3f 00 00 80 3f
       1.0 1.0 1.0 1.0
0000a0 00 00 80 3f 00 00 80 3f 00 00 80 3f 00 00 80 3f
       1.0 1.0 1.0 1.0
0000b0 00 00 80 3f 00 00 80 3f 00 00 80 3f 00 00 80 3f
       1.0 1.0 1.0 1.0
0000c0 00 00 80 3f 00 00 80 3f 00 00 80 3f 00 00 80 3f
       1.0 1.0 1.0 1.0
0000d0 00 00 80 3f 00 00 80 3f 00 00 80 3f 00 00 80 3f
       1.0 1.0 1.0 1.0
0000e0 00 00 80 3f 00 00 80 3f 00 00 80 3f 00 00 80 3f
       1.0 1.0 1.0 1.0
0000f0 00 00 80 3f 00 00 80 3f 00 00 80 3f 00 00 80 3f
       1.0 1.0 1.0 1.0
000100 00 00 80 3f 00 00 80 3f 00 00 80 3f 00 00 80 3f
       1.0 1.0 1.0 1.0
000110 00 00 80 3f 00 00 80 3f 00 00 80 3f 00 00 80 3f
       1.0 1.0 1.0 1.0
000120 00 00 80 3f 00 00 80 3f 00 00 80 3f 00 00 80 3f
       1.0 1.0 1.0 1.0
000130 00 00 80 3f 00 00 80 3f 00 00 80 3f 00 00 80 3f
       1.0 1.0 1.0 1.0
000140 00 00 80 3f 00 00 80 3f 00 00 80 3f 00 00 80 3f
       1.0 1.0 1.0 1.0
000150 00 00 80 3f 00 00 80 3f 00 00 80 3f 00 00 80 3f
       1.0 1.0 1.0 1.0
000160 00 00 80 3f 00 00 80 3f 00 00 80 3f 00 00 80 3f
       1.0 1.0 1.0 1.0
000170 00 00 80 3f 00 00 80 3f 00 00 80 3f 00 00 80 3f
       1.0 1.0 1.0 1.0
000180 00 00 80 3f 00 00 80 3f 00 00 80 3f 00 00 80 3f
       1.0 1.0 1.0 1.0
000190 00 00 80 3f 00 00 80 3f 00 00 80 3f 00 00 80 3f
       1.0 1.0 1.0 1.0
0001a0 00 00 80 3f 00 00 80 3f 00 00 80 3f 00 00 80 3f
       1.0 1.0 1.0 1.0
0001b0 00 00 80 3f 00 00 80 3f 00 00 80 3f 00 00 80 3f
       1.0 1.0 1.0 1.0
0001c0 00 00 80 3f 00 00 80 3f 00 00 80 3f 00 00 80 3f
       1.0 1.0 1.0 1.0
0001d0 00 00 80 3f 00 00 80 3f 00 00 80 3f 00 00 80 3f
       1.0 1.0 1.0 1.0
0001e0 00 00 80 3f 00 00 80 3f 00 00 80 3f 00 00 80 3f
       1.0 1.0 1.0 1.0
0001f0 00 00 80 3f 00 00 80 3f 00 00 80 3f 00 00 80 3f
       1.0 1.0 1.0 1.0
000200 00 00 80 3f 00 00 80 3f 00 00 80 3f 00 00 80 3f
       1.0 1.0 1.0 1.0
000210 00 00 80 3f 00 00 80 3f 00 00 80 3f 00 00 80 3f
       1.0 1.0 1.0 1.0
000220 00 00 80 3f 00 00 80 3f 00 00 80 3f 00 00 80 3f
       1.0 1.0 1.0 1.0
000230 00 00 80 3f 00 00 80 3f 00 00 80 3f 00 00 80 3f
       1.0 1.0 1.0 1.0
000240 00 00 80 3f 00 00 80 3f 00 00 80 3f 00 00 80 3f
       1.0 1.0 1.0 1.0
000250 00 00 80 3f 00 00 80 3f 00 00 80 3f 00 00 80 3f
       1.0 1.0 1.0 1.0
000260 00 00 80 3f 00 00 80 3f 00 00 80 3f 00 00 80 3f
       1.0 1.0 1.0 1.0
000270 00 00 80 3f 00 00 80 3f 00 00 80 3f 00 00 80 3f
       1.0 1.0 1.0 1.0
000280 00 00 80 3f 00 00 80 3f 00 00 80 3f 00 00 80 3f
       1.0 1.0 1.0 1.0
000290 00 00 80 3f 00 00 80 3f 00 00 80 3f 00 00 80 3f
       1.0 1.0 1.0 1.0
0002a0 00 00 80 3f 00 00 80 3f 00 00 80 3f 00 00 80 3f
       1.0 1.0 1.0 1.0
0002b0 00 00 80 3f 00 00 80 3f 00 00 80 3f 00 00 80 3f
       1.0 1.0 1.0 1.0
0002c0 00 00 80 3f 00 00 80 3f 00 00 80 3f 00 00 80 3f
       1.0 1.0 1.0 1.0
0002d0 00 00 80 3f 00 00 80 3f 00 00 80 3f 00 00 80 3f
       1.0 1.0 1.0 1.0
0002e0 00 00 80 3f 00 00 80 3f 00 00 80 3f 00 00 80 3f
       1.0 1.0 1.0 1.0
0002f0 00 00 80 3f 00 00 80 3f 00 00 80 3f 00 00 80 3f
       1.0 1.0 1.0 1.0
000300 00 00 80 3f 00 00 80 3f 00 00 80 3f 00 00 80 3f
       1.0 1.0 1.0 1.0
000310 00 00 80 3f 00 00 80 3f 00 00 80 3f 00 00 80 3f
       1.0 1.0 1.0 1.0
000320 00 00 80 3f 00 00 80 3f 00 00 80 3f 00 00 80 3f
       1.0 1.0 1.0 1.0
000330 00 00 80 3f 00 00 80 3f 00 00 80 3f 00 00 80 3f
       1.0 1.0 1.0 1.0
000340 00 00 80 3f 00 00 80 3f 00 00 80 3f 00 00 80 3f
       1.0 1.0 1.0 1.0
000350 00 00 80 3f 00 00 80 3f 00 00 80 3f 00 00 80 3f
       1.0 1.0 1.0 1.0
000360 00 00 80 3f 00 00 80 3f 00 00 80 3f 00 00 80 3f
       1.0 1.0 1.0 1.0
000370 00 00 80 3f 00 00 80 3f 00 00 80 3f 00 00 80 3f
       1.0 1.0 1.0 1.0
000380 00 00 80 3f 00 00 80 3f 00 00 80 3f 00 00 80 3f
       1.0 1.0 1.0 1.0
000390 00 00 80 3f 00 00 80 3f 00 00 80 3f 00 00 80 3f
       1.0 1.0 1.0 1.0
0003a0 00 00 80 3f 00 00 80 3f 00 00 80 3f 00 00 80 3f
       1.0 1.0 1.0 1.0
0003b0 00 00 80 3f 00 00 80 3f 00 00 80 3f 00 00 80 3f
       1.0 1.0 1.0 1.0
0003c0 00 00 80 3f 00 00 80 3f 00 00 80 3f 00 00 80 3f
       1.0 1.0 1.0 1.0
0003d0 00 00 80 3f 00 00 80 3f 00 00 80 3f 00 00 80 3f
       1.0 1.0 1.0 1.0
0003e0 00 00 80 3f 00 00 80 3f 00 00 80 3f 00 00 80 3f
       1.0 1.0 1.0 1.0
0003f0 00 00 80 3f 00 00 80 3f 00 00 80 3f 00 00 80 3f
       1.0 1.0 1.0 1.0

net.4.bias f4 [256]
000000 00 00 00 00 00 00 00 00 00 00 00 00 00 00 00 00
       0.0 0.0 0.0 0.0
000010 00 00 00 00 00 00 00 00 00 00 00 00 00 00 00 00
       0.0 0.0 0.0 0.0
000020 00 00 00 00 00 00 00 00 00 00 00 00 00 00 00 00
       0.0 0.0 0.0 0.0
000030 00 00 00 00 00 00 00 00 00 00 00 00 00 00 00 00
       0.0 0.0 0.0 0.0
000040 00 00 00 00 00 00 00 00 00 00 00 00 00 00 00 00
       0.0 0.0 0.0 0.0
000050 00 00 00 00 00 00 00 00 00 00 00 00 00 00 00 00
       0.0 0.0 0.0 0.0
000060 00 00 00 00 00 00 00 00 00 00 00 00 00 00 00 00
       0.0 0.0 0.0 0.0
000070 00 00 00 00 00 00 00 00 00 00 00 00 00 00 00 00
       0.0 0.0 0.0 0.0
000080 00 00 00 00 00 00 00 00 00 00 00 00 00 00 00 00
       0.0 0.0 0.0 0.0
000090 00 00 00 00 00 00 00 00 00 00 00 00 00 00 00 00
       0.0 0.0 0.0 0.0
0000a0 00 00 00 00 00 00 00 00 00 00 00 00 00 00 00 00
       0.0 0.0 0.0 0.0
0000b0 00 00 00 00 00 00 00 00 00 00 00 00 00 00 00 00
       0.0 0.0 0.0 0.0
0000c0 00 00 00 00 00 00 00 00 00 00 00 00 00 00 00 00
       0.0 0.0 0.0 0.0
0000d0 00 00 00 00 00 00 00 00 00 00 00 00 00 00 00 00
       0.0 0.0 0.0 0.0
0000e0 00 00 00 00 00 00 00 00 00 00 00 00 00 00 00 00
       0.0 0.0 0.0 0.0
0000f0 00 00 00 00 00 00 00 00 00 00 00 00 00 00 00 00
       0.0 0.0 0.0 0.0
000100 00 00 00 00 00 00 00 00 00 00 00 00 00 00 00 00
       0.0 0.0 0.0 0.0
000110 00 00 00 00 00 00 00 00 00 00 00 00 00 00 00 00
       0.0 0.0 0.0 0.0
000120 00 00 00 00 00 00 00 00 00 00 00 00 00 00 00 00
       0.0 0.0 0.0 0.0
000130 00 00 00 00 00 00 00 00 00 00 00 00 00 00 00 00
       0.0 0.0 0.0 0.0
000140 00 00 00 00 00 00 00 00 00 00 00 00 00 00 00 00
       0.0 0.0 0.0 0.0
000150 00 00 00 00 00 00 00 00 00 00 00 00 00 00 00 00
       0.0 0.0 0.0 0.0
000160 00 00 00 00 00 00 00 00 00 00 00 00 00 00 00 00
       0.0 0.0 0.0 0.0
000170 00 00 00 00 00 00 00 00 00 00 00 00 00 00 00 00
       0.0 0.0 0.0 0.0
000180 00 00 00 00 00 00 00 00 00 00 00 00 00 00 00 00
       0.0 0.0 0.0 0.0
000190 00 00 00 00 00 00 00 00 00 00 00 00 00 00 00 00
       0.0 0.0 0.0 0.0
0001a0 00 00 00 00 00 00 00 00 00 00 00 00 00 00 00 00
       0.0 0.0 0.0 0.0
0001b0 00 00 00 00 00 00 00 00 00 00 00 00 00 00 00 00
       0.0 0.0 0.0 0.0
0001c0 00 00 00 00 00 00 00 00 00 00 00 00 00 00 00 00
       0.0 0.0 0.0 0.0
0001d0 00 00 00 00 00 00 00 00 00 00 00 00 00 00 00 00
       0.0 0.0 0.0 0.0
0001e0 00 00 00 00 00 00 00 00 00 00 00 00 00 00 00 00
       0.0 0.0 0.0 0.0
0001f0 00 00 00 00 00 00 00 00 00 00 00 00 00 00 00 00
       0.0 0.0 0.0 0.0
000200 00 00 00 00 00 00 00 00 00 00 00 00 00 00 00 00
       0.0 0.0 0.0 0.0
000210 00 00 00 00 00 00 00 00 00 00 00 00 00 00 00 00
       0.0 0.0 0.0 0.0
000220 00 00 00 00 00 00 00 00 00 00 00 00 00 00 00 00
       0.0 0.0 0.0 0.0
000230 00 00 00 00 00 00 00 00 00 00 00 00 00 00 00 00
       0.0 0.0 0.0 0.0
000240 00 00 00 00 00 00 00 00 00 00 00 00 00 00 00 00
       0.0 0.0 0.0 0.0
000250 00 00 00 00 00 00 00 00 00 00 00 00 00 00 00 00
       0.0 0.0 0.0 0.0
000260 00 00 00 00 00 00 00 00 00 00 00 00 00 00 00 00
       0.0 0.0 0.0 0.0
000270 00 00 00 00 00 00 00 00 00 00 00 00 00 00 00 00
       0.0 0.0 0.0 0.0
000280 00 00 00 00 00 00 00 00 00 00 00 00 00 00 00 00
       0.0 0.0 0.0 0.0
000290 00 00 00 00 00 00 00 00 00 00 00 00 00 00 00 00
       0.0 0.0 0.0 0.0
0002a0 00 00 00 00 00 00 00 00 00 00 00 00 00 00 00 00
       0.0 0.0 0.0 0.0
0002b0 00 00 00 00 00 00 00 00 00 00 00 00 00 00 00 00
       0.0 0.0 0.0 0.0
0002c0 00 00 00 00 00 00 00 00 00 00 00 00 00 00 00 00
       0.0 0.0 0.0 0.0
0002d0 00 00 00 00 00 00 00 00 00 00 00 00 00 00 00 00
       0.0 0.0 0.0 0.0
0002e0 00 00 00 00 00 00 00 00 00 00 00 00 00 00 00 00
       0.0 0.0 0.0 0.0
0002f0 00 00 00 00 00 00 00 00 00 00 00 00 00 00 00 00
       0.0 0.0 0.0 0.0
000300 00 00 00 00 00 00 00 00 00 00 00 00 00 00 00 00
       0.0 0.0 0.0 0.0
000310 00 00 00 00 00 00 00 00 00 00 00 00 00 00 00 00
       0.0 0.0 0.0 0.0
000320 00 00 00 00 00 00 00 00 00 00 00 00 00 00 00 00
       0.0 0.0 0.0 0.0
000330 00 00 00 00 00 00 00 00 00 00 00 00 00 00 00 00
       0.0 0.0 0.0 0.0
000340 00 00 00 00 00 00 00 00 00 00 00 00 00 00 00 00
       0.0 0.0 0.0 0.0
000350 00 00 00 00 00 00 00 00 00 00 00 00 00 00 00 00
       0.0 0.0 0.0 0.0
000360 00 00 00 00 00 00 00 00 00 00 00 00 00 00 00 00
       0.0 0.0 0.0 0.0
000370 00 00 00 00 00 00 00 00 00 00 00 00 00 00 00 00
       0.0 0.0 0.0 0.0
000380 00 00 00 00 00 00 00 00 00 00 00 00 00 00 00 00
       0.0 0.0 0.0 0.0
000390 00 00 00 00 00 00 00 00 00 00 00 00 00 00 00 00
       0.0 0.0 0.0 0.0
0003a0 00 00 00 00 00 00 00 00 00 00 00 00 00 00 00 00
       0.0 0.0 0.0 0.0
0003b0 00 00 00 00 00 00 00 00 00 00 00 00 00 00 00 00
       0.0 0.0 0.0 0.0
0003c0 00 00 00 00 00 00 00 00 00 00 00 00 00 00 00 00
       0.0 0.0 0.0 0.0
0003d0 00 00 00 00 00 00 00 00 00 00 00 00 00 00 00 00
       0.0 0.0 0.0 0.0
0003e0 00 00 00 00 00 00 00 00 00 00 00 00 00 00 00 00
       0.0 0.0 0.0 0.0
0003f0 00 00 00 00 00 00 00 00 00 00 00 00 00 00 00 00
       0.0 0.0 0.0 0.0
