models/maddpg/final_agent_7_Arbitrageur.pt (torch, 611963 bytes, 20 tensors)

net.0.weight f4 [256, 30]
000000 2e 2b 31 be bf 19 0e be 49 ce 02 be c0 31 a1 bc
       -0.17301628 -0.13877009 -0.12774004 -0.019677043
000010 6d a5 c3 bd 0e f5 12 be 68 5d 4d bd 90 b0 10 3e
       -0.09553037 -0.14351293 -0.050137907 0.14129853
000020 14 61 57 3d 2a 8a fa bd 3f 79 36 be 9f b9 be bd
       0.052582815 -0.12233384 -0.17819689 -0.09312748
000030 2c 78 30 3e 44 0b d0 3d 40 fa e8 3d 48 55 f8 3d
       0.17233342 0.10158399 0.113758564 0.12125641
000040 88 ea da 3d 44 d6 0f 3e f0 e8 a9 bc 91 33 b8 bd
       0.106892645 0.1404658 -0.020740956 -0.089942105
000050 44 2f 38 3e 23 03 89 bd 1c 6f bf bd 20 cf 11 3c
       0.1798678 -0.066900514 -0.09347364 0.00889948
000060 bc cb b5 3d 81 21 32 be b9 2a 29 be 9f 95 11 be
       0.0887675 -0.17395593 -0.16520204 -0.14217232
000070 74 f1 b5 3d 00 ef fe 3b be cb 23 3e 49 b2 31 be
       0.08883944 0.007779956 0.1599569 -0.17353167
000080 0a ca 27 be 98 12 88 3c 52 a1 22 3e c1 78 b9 bd
       -0.16385666 0.016610429 0.15881851 -0.09056235
000090 4e 54 05 be 58 6c 9d 3c 80 81 5b 3c c0 a1 ce 3b
       -0.13020441 0.019216701 0.013397574 0.006305903
0000a0 4f 64 23 be c8 4c 71 3d 84 1b 8f 3d 9c 08 6d 3d
       -0.15956233 0.058911115 0.0698767 0.05786954
0000b0 98 1c f0 3d 3c 21 98 3d c8 42 07 3e ec 64 70 3d
       0.11724204 0.07428214 0.13209069 0.058689997
0000c0 c0 5f 71 3b 64 f9 6e 3d 24 10 11 3e 88 80 95 3d
       0.0036830753 0.058343306 0.14166313 0.07299906
0000d0 63 f7 1d be 22 74 84 3d 14 c2 2d 3e 4c 9c 23 be
       -0.15426402 0.06467463 0.16968566 -0.15977591
0000e0 20 ce 0c 3d d0 9c 34 3e c0 f0 e9 bb ac c4 b9 3d
       0.034376264 0.17637944 -0.0071392953 0.09070715
0000f0 80 ab b5 bd a0 e6 c2 3b 6c bb 26 3e bb 1c 2a be
       -0.08870602 0.005947903 0.16282433 -0.16612522
000100 47 ba c0 bd 30 1d 57 3c 10 b0 47 3d 0e 7b 9b bd
       -0.094105296 0.013129517 0.04875189 -0.0759183
000110 00 88 d8 bc d2 23 26 3e 8c d0 bc 3d 9c 70 78 bd
       -0.026432037 0.16224602 0.09219465 -0.060654268
000120 5c be 8c 3d 7b c6 1d be e8 0c 1e 3d b0 bc e9 3d
       0.06872246 -0.15407746 0.038586527 0.114129424
000130 c0 21 7b 3b fc 33 c8 bd aa 6d 2e be c7 78 1e be
       0.0038319677 -0.0977554 -0.17034021 -0.1547576
000140 3c 7d 0b bd dc 10 a8 3d e8 84 5d bd 74 c6 76 bd
       -0.03405498 0.08206341 -0.054081827 -0.060247853
000150 c6 e1 0a 3e 6c cc 02 3d 48 e4 cf 3d 4c 22 cf bd
       0.13562688 0.031933233 0.10150963 -0.101139635
000160 2e e6 19 3e 48 6b b6 bc b0 38 7a 3c cc 38 74 bd
       0.15029213 -0.022267953 0.015272304 -0.05962448
000170 0c 51 40 bd 40 73 2c 3b a0 ff ac 3b 68 08 d2 3d
       -0.046952292 0.0026313812 0.0052794963 0.102555096
000180 f0 fe ca 3d c0 02 2a 3e 7c 7e 02 3e e2 01 19 3e
       0.09911907 0.16602612 0.12743562 0.14942124
000190 5c ae 1c 3e e8 bc e6 3d fc 31 b0 3d f4 66 40 bd
       0.15300888 0.112665 0.08603284 -0.046973184
0001a0 e8 b0 f5 bc 28 45 0d bd 48 d3 ea bc 2c e4 09 bd
       -0.029991582 -0.03448978 -0.0286652 -0.033664867
0001b0 3f 28 97 bd 24 71 f2 3d 3c 8a f9 3d cc ab 9e 3d
       -0.07380723 0.11837986 0.12184569 0.077476114
0001c0 60 89 f5 bc 54 e4 39 3e e4 8b e6 3d 20 45 82 bb
       -0.029972732 0.18153507 0.11257151 -0.0039755255
0001d0 90 2a ad 3c 22 e0 b4 bd 94 2f 1b 3e 6d 39 92 bd
       0.02113846 -0.088318124 0.15154868 -0.07139859
0001e0 64 6f 71 3d 90 c1 db 3d dc 21 22 3e 3b 23 35 be
       0.05894412 0.107302785 0.15833229 -0.1768922
0001f0 d0 e9 49 bd d3 98 39 be 28 5e 2d 3d 22 61 01 be
       -0.049295247 -0.18124704 0.042326123 -0.1263471
000200 d4 ab 7b bd f4 82 43 bd 28 ea b3 bc f5 3e 0c be
       -0.061443165 -0.04773231 -0.02196224 -0.13695891
000210 45 af 23 be a1 b0 f0 bd 0d 6e 9d bd ae 4c 81 3d
       -0.15984829 -0.11752439 -0.07687006 0.063134536
000220 d0 8e 4d bd 70 15 0a 3c 88 09 22 3d 80 b8 65 3c
       -0.050185025 0.008427963 0.03955987 0.014021039
000230 4c fe e3 3d a8 73 a1 bd 28 4f 2c 3e 0c 9e 16 3e
       0.11132488 -0.07883388 0.1682707 0.14708728
000240 52 f2 3a be 60 57 ba 3d 80 35 94 3d f4 88 38 bd
       -0.182565 0.09098697 0.07236767 -0.045052484
000250 00 92 f3 bb 84 d6 45 3d 54 64 05 3d 00 d0 bb 3c
       -0.007433176 0.04830028 0.032566383 0.02292633
000260 80 e5 d8 3d 19 5c 1d be 2c 23 28 3d d2 20 b1 bd
       0.10590649 -0.15367164 0.041049168 -0.08648838
000270 30 eb 81 3c 58 7b 86 3c 80 38 bf ba 54 13 88 3d
       0.015859216 0.016416237 -0.0014588982 0.066443115
000280 ce b7 2c 3e 68 99 25 3e f0 79 b8 bd a0 64 ef 3c
       0.16866991 0.16171801 -0.09007633 0.029222786
000290 b7 ba 27 be e7 69 9a bd 70 a5 15 3e 24 13 7f bd
       -0.1637982 -0.075397305 0.1461389 -0.062274113
0002a0 f1 33 ac bd 1b d0 f1 bd a6 aa 2d 3e aa d3 92 bd
       -0.084083445 -0.11807271 0.16959628 -0.07169278
0002b0 a9 5f 80 bd bc b8 b5 3d fa a8 10 3e 9e 89 1e be
       -0.06268246 0.08873126 0.1412696 -0.15482184
0002c0 ca ce 17 3e e0 1b 25 3e 1d ed 14 be b3 5d a7 bd
       0.14824978 0.16123915 -0.14543577 -0.081721686
0002d0 a0 3a b6 bb 68 e0 fe 3c c8 57 ea 3c 80 e4 04 be
       -0.005561188 0.031112865 0.02860631 -0.12977791
0002e0 b4 62 fc 3d dc 03 6a bd 11 91 a9 bd 70 b1 a7 3d
       0.123235136 -0.057132587 -0.08279622 0.081881404
0002f0 78 b0 22 3e 92 ea 25 3e 28 f4 cf bd 4c a4 b6 3d
       0.1588763 0.16202763 -0.10153991 0.08918056
000300 94 bd 2d 3d a8 6c d2 bc 59 55 1f be 50 bb 1d 3e
       0.042417124 -0.025686577 -0.15559901 0.15403485
000310 f0 b7 c5 3d 02 cc 02 3e c6 e4 16 be 18 dc 09 3e
       0.09654224 0.12773135 -0.14735708 0.13462865
000320 88 86 3a be a2 0b 2a 3e 08 e5 f8 bd a4 69 1f bd
       -0.18215382 0.16606 -0.12153059 -0.038919106
000330 40 cf b9 3c 28 62 f7 bd 20 13 39 bd 64 f0 bd bd
       0.022681832 -0.12079269 -0.045184255 -0.092743665
000340 88 8f 64 3d 84 2c 48 bd da d6 36 be 88 6e 61 bd
       0.055800945 -0.04887058 -0.17855397 -0.05503705
000350 d9 f9 2d be 12 c1 01 3e ae 0d 03 be ba 6d 0d 3e
       -0.1698984 0.12671307 -0.12798187 0.13811389
000360 f4 5e 3c 3d 24 cf 94 3d 00 fc 23 ba e5 f6 bd bd
       0.04598899 0.072660714 -0.00062555075 -0.09275607
000370 ee ac 2d 3e 94 37 15 be 5c 2e dc 3d 48 62 36 3e
       0.16960499 -0.14571983 0.1075103 0.17810929
000380 bc 2e 8d 3d 50 37 20 be 38 5d 8a bd 4a cb 0e be
       0.068936795 -0.156461 -0.06756061 -0.13944736
000390 c4 1c d4 3d c8 3e f3 bd 08 a9 04 bd 6c eb 0c 3d
       0.10357049 -0.11877209 -0.032387763 0.034404203
0003a0 fe 22 19 be e8 2b 76 bd dc 87 22 3e 4e c5 c2 bd
       -0.14954755 -0.060100466 0.15872139 -0.09510289
0003b0 d8 98 9a 3c 2c 46 76 3d 74 9a 55 bd a0 50 63 3c
       0.01887171 0.060125515 -0.05214925 0.013874203
0003c0 7c d3 82 3d 8b 0d 9a bd a0 ab a6 3c 70 fe 12 3e
       0.06387994 -0.07522114 0.020345509 0.14354873
0003d0 db d2 2d be 40 29 75 3d e0 73 ea 3d 8b 52 9d bd
       -0.16974966 0.059853792 0.11447883 -0.076817594
0003e0 20 20 b0 3d 76 b9 36 be f1 f7 0f be 78 df 89 3c
       0.08599877 -0.17844185 -0.14059426 0.016830191
0003f0 18 ce b4 3d 5e 85 38 be 84 16 59 bd 2c e7 f9 3d
       0.08828372 -0.18019626 -0.05299999 0.12202296

net.0.bias f4 [256]
000000 58 c2 d3 3d 7a 5f fa bd a8 1d d1 3d b5 c2 d5 bd
       0.103398025 -0.12225242 0.102107346 -0.10437528
000010 8c a4 05 bd 20 3a 83 3d c0 05 0f 3e f8 e3 bb bd
       -0.032627627 0.06407571 0.13967037 -0.09174341
000020 20 2f 04 3e 98 f8 34 3d 57 a0 88 bd c8 ca 8d 3d
       0.12908602 0.04418239 -0.066712074 0.06923443
000030 24 f3 16 3e fd ba fd bd 2c 10 25 3d 6c 63 60 3d
       0.14741188 -0.12389181 0.040298626 0.054782316
000040 80 a4 2d 3c bf f3 b3 bd 2e 37 c1 bd 66 38 04 3e
       0.010598302 -0.08786725 -0.09434353 0.1291214
000050 4c d0 1a 3d 52 1f 0a be 68 cf 06 3d f8 50 47 3d
       0.037796304 -0.1348851 0.03291264 0.048661202
000060 38 ba af 3d e0 5a 86 bc ec a6 da 3d 7e fd 17 3e
       0.0858044 -0.016400754 0.10676369 0.14842793
000070 a0 8f e4 bd 93 93 23 be 98 9f c1 3d 26 55 33 3e
       -0.11160207 -0.15974264 0.09454268 0.1751295
000080 e0 4f 16 be a0 3b 68 3d d0 3b 31 3d 93 c7 ba bd
       -0.14678907 0.056697488 0.043269932 -0.09120097
000090 8c 97 36 3e 00 fd 63 3d ac 12 d3 3d d6 72 97 bd
       0.17831248 0.0556612 0.10306296 -0.0739495
0000a0 08 2a 07 3d 31 ae 00 be 18 27 41 3d da 34 a5 bd
       0.03299907 -0.12566449 0.047156423 -0.08066721
0000b0 f0 d7 c2 3c 08 b8 1e 3e 20 f2 2f bd 64 6c 27 be
       0.023784608 0.1549989 -0.042955518 -0.16349941
0000c0 a8 b6 fb 3d b0 4b f4 3d 59 f2 a7 bd c0 4e 10 3d
       0.12290698 0.11928499 -0.08200521 0.03523135
0000d0 08 68 64 3d 00 dd 8b ba d4 ff c4 bd d3 15 2d be
       0.055763274 -0.0010670722 -0.09619108 -0.16902857
0000e0 b0 10 d2 3d 84 86 dd 3d 00 a3 ab 3b 24 f9 d0 3d
       0.10257089 0.108166724 0.005237937 0.1020377
0000f0 16 79 07 3e 30 4c c2 3c 38 04 01 3e 80 23 72 3c
       0.13229784 0.02371797 0.12599266 0.014778972
000100 36 ff 28 be 00 ab 02 3b d0 3c ac 3c 99 86 d9 bd
       -0.16503605 0.001993835 0.021025091 -0.106213756
000110 68 84 da bc c3 82 aa bd 06 23 37 3e 6c 6a a5 3d
       -0.026674464 -0.08325722 0.17884454 0.08076939
000120 48 fb c2 3d e1 2c 39 be 74 b5 b1 3d c0 e0 36 be
       0.09520584 -0.18083526 0.086771876 -0.17859173
000130 bc 23 23 3e 10 04 9f bd f8 f3 95 3c cc db d0 bd
       0.159316 -0.07764447 0.01830481 -0.10198173
000140 70 c2 e6 3c d0 62 17 bc 86 28 1a be 24 1c 8c 3d
       0.028168887 -0.009239867 -0.15054521 0.06841305
000150 4c d0 03 be c0 c5 5a 3b 30 4e 21 3e 5b 4d 9b bd
       -0.12872428 0.0033382028 0.15752482 -0.07583114
000160 0c 29 42 bd 02 ae f4 bd 31 68 cc bd f0 fd 78 bc
       -0.047402427 -0.11947252 -0.099808104 -0.015197262
000170 f7 d8 cc bd a0 6a 92 bb d9 d4 d4 bd 04 f2 ee 3d
       -0.1000232 -0.004468277 -0.1039216 0.116672546
000180 ea 20 31 3e 30 79 2b 3e ac 66 f0 3d 5c f5 a7 3d
       0.17297712 0.16745448 0.11738333 0.082010955
000190 1c 29 1b 3e be 3b eb bd a2 ab 23 be 84 84 b6 3d
       0.151524 -0.11486004 -0.15983441 0.08911994
0001a0 f0 12 42 bd 10 1a 2e be 3e f3 1e 3e 73 b7 d3 bd
       -0.04738134 -0.1700213 0.15522477 -0.103377245
0001b0 e0 a0 0e 3e c8 b0 37 bd e2 d6 05 3e 70 7f 43 3d
       0.13928556 -0.044846326 0.13070253 0.047728956
0001c0 54 5e 75 3d e8 17 24 bd 98 91 b1 3c a6 cd e6 bd
       0.05990441 -0.04006186 0.02167587 -0.11269693
0001d0 80 89 28 bc be 23 ff bd a0 31 de 3d 60 cf 2a 3e
       -0.010286689 -0.12457989 0.10849309 0.1668067
0001e0 80 af 40 3b e8 ec 2d bd 4a 4f 81 3d fe a6 c0 bd
       0.002940148 -0.04246226 0.06313951 -0.09406851
0001f0 3d 99 36 be 29 ed 88 bd 04 3f e7 3d 50 9b 9c bc
       -0.17831893 -0.0668586 0.11291316 -0.019117028
000200 40 35 27 3e c0 a6 e2 bc 0a b9 29 3e 8d 21 03 be
       0.16328907 -0.027667403 0.16574493 -0.12805767
000210 d0 a8 32 3c a7 21 f0 bd b0 53 25 bd ec 13 06 be
       0.010904506 -0.11725169 -0.040363014 -0.13093537
000220 6a d2 2f be 5c 9c 2b be 04 70 75 3d 8f 7d c3 bd
       -0.1717011 -0.16758865 0.05992128 -0.09545433
000230 ec fa b4 3d 4c 17 e9 3d 64 e5 38 be a0 a5 53 bd
       0.08836922 0.11381397 -0.18056256 -0.051671624
000240 c0 1a a9 3b 84 66 f8 3d 28 35 09 be 7c 4e d2 3d
       0.0051606596 0.12128928 -0.13399184 0.10268876
000250 90 ef bf bc e0 31 0c be 54 15 29 be d4 9e 20 3d
       -0.023429662 -0.13690901 -0.16512042 0.03921397
000260 40 be d3 3b c0 e6 48 3b c4 b8 00 3e eb c2 28 be
       0.0064618886 0.0030655116 0.12570482 -0.16480605
000270 64 11 6e 3d 20 6c 77 3d 80 63 dd ba c6 df 84 bd
       0.058122054 0.06040585 -0.0016890615 -0.06487994
000280 ba bc 0a be 66 b7 13 be f5 90 2b be 10 78 6d 3d
       -0.13548556 -0.1442543 -0.16754515 0.05797583
000290 a0 85 06 bc 90 61 19 be 9b 61 01 be e0 c0 2e be
       -0.00821057 -0.14978623 -0.1263489 -0.17065763
0002a0 d0 92 38 3d f5 62 91 bd 08 4d 05 be 58 8d 2d be
       0.045061886 -0.07098953 -0.13017666 -0.1694845
0002b0 88 42 ba 3d f8 27 8b 3d b6 35 1a be 08 c8 68 3d
       0.09094721 0.06794733 -0.15059552 0.05683139
0002c0 28 85 33 be 3c 5e 59 3d 43 7a 2b be 5c 0b ad 3d
       -0.17531264 0.053068385 -0.16745858 0.08449432
0002d0 f1 36 94 bd 3e d6 9f bd 50 e8 42 bd d6 27 04 3e
       -0.07237042 -0.07804535 -0.04758483 0.12905821
0002e0 80 f2 0c bd 58 2e fd 3c bf 30 86 bd b3 e9 c0 bd
       -0.034410954 0.030905887 -0.06552266 -0.094195746
0002f0 a2 a7 0e 3e dc af 37 be b4 ca 39 3e cb 94 88 bd
       0.13931134 -0.17938179 0.18143731 -0.06669005
000300 92 33 9c bd e6 e7 1b be 84 42 fa bd f8 c2 9b 3c
       -0.07627024 -0.15225181 -0.12219718 0.019013867
000310 60 c3 66 bc b4 7c 1e 3e 19 5c 12 be a3 06 2a be
       -0.014084667 0.15477258 -0.14292945 -0.16604094
000320 d4 e0 9e bd 64 9e 24 3e 90 22 6f bd 6d d3 1d be
       -0.07757726 0.16076046 -0.05838257 -0.15412684
000330 0b 37 34 be d3 aa 13 be 92 14 90 bd 40 df 92 3d
       -0.17599122 -0.14420633 -0.070351735 0.07171488
000340 8c 8a f2 3d 18 62 21 3d fa d4 aa bd 9e cb 2c 3e
       0.11842832 0.03940019 -0.08341403 0.16874549
000350 c9 5a 2b be 04 9c e1 3d ac 0b 0a 3e b8 9d ef 3d
       -0.1673385 0.11016086 0.13481015 0.11700004
000360 6c 95 16 be 9e 8d 31 3e 44 1e 24 be 50 da 92 3c
       -0.14705437 0.17339179 -0.1602717 0.017926365
000370 98 45 12 bd 20 b1 b6 3b 83 64 b2 bd d8 c8 94 bc
       -0.0357109 0.005575314 -0.08710577 -0.018162176
000380 f8 82 5d 3d 78 eb 1b be 70 b5 87 3c 90 50 75 3d
       0.05407998 -0.15226543 0.016566008 0.059891284
000390 70 1c c1 3c 88 69 99 bc 36 8e b6 bd 7c b3 87 bd
       0.02357313 -0.018727079 -0.08913843 -0.06626031
0003a0 4c d2 45 bd b0 82 61 3c e9 3c 09 be 4f 22 1f be
       -0.048296258 0.0137640685 -0.13402142 -0.15540431
0003b0 58 aa 9f bc 7c 29 9f 3d a0 4f 71 3d 89 1e fa bd
       -0.019490406 0.077715844 0.058913827 -0.12212855
0003c0 c8 0f 1d bd 0e a6 29 be 40 70 03 bc 92 57 12 be
       -0.03834513 -0.16567251 -0.008022368 -0.14291218
0003d0 ee 76 0e 3e 59 cc 23 be 10 cb fd 3c 78 ae 0f be
       0.13912556 -0.15995921 0.030980617 -0.14031398
0003e0 12 2b 38 3e c0 a6 58 bc e0 49 41 3c 98 80 9a bc
       0.1798518 -0.01322335 0.011797398 -0.018860146
0003f0 dc 68 d2 bd ec 7d 2c 3d f0 69 ec 3d 84 0a d0 3d
       -0.102739066 0.042112276 0.115436435 0.10158256

net.1.weight f4 [256]
000000 00 00 80 3f 00 00 80 3f 00 00 80 3f 00 00 80 3f
       1.0 1.0 1.0 1.0
000010 00 00 80 3f 00 00 80 3f 00 00 80 3f 00 00 80 3f
       1.0 1.0 1.0 1.0
000020 00 00 80 3f 00 00 80 3f 00 00 80 3f 00 00 80 3f
       1.0 1.0 1.0 1.0
000030 00 00 80 3f 00 00 80 3f 00 00 80 3f 00 00 80 3f
       1.0 1.0 1.0 1.0
000040 00 00 80 3f 00 00 80 3f 00 00 80 3f 00 00 80 3f
       1.0 1.0 1.0 1.0
000050 00 00 80 3f 00 00 80 3f 00 00 80 3f 00 00 80 3f
       1.0 1.0 1.0 1.0
000060 00 00 80 3f 00 00 80 3f 00 00 80 3f 00 00 80 3f
       1.0 1.0 1.0 1.0
000070 00 00 80 3f 00 00 80 3f 00 00 80 3f 00 00 80 3f
       1.0 1.0 1.0 1.0
000080 00 00 80 3f 00 00 80 3f 00 00 80 3f 00 00 80 3f
       1.0 1.0 1.0 1.0
000090 00 00 80 3f 00 00 80 3f 00 00 80 3f 00 00 80 3f
       1.0 1.0 1.0 1.0
0000a0 00 00 80 3f 00 00 80 3f 00 00 80 3f 00 00 80 3f
       1.0 1.0 1.0 1.0
0000b0 00 00 80 3f 00 00 80 3f 00 00 80 3f 00 00 80 3f
       1.0 1.0 1.0 1.0
0000c0 00 00 80 3f 00 00 80 3f 00 00 80 3f 00 00 80 3f
       1.0 1.0 1.0 1.0
0000d0 00 00 80 3f 00 00 80 3f 00 00 80 3f 00 00 80 3f
       1.0 1.0 1.0 1.0
0000e0 00 00 80 3f 00 00 80 3f 00 00 80 3f 00 00 80 3f
       1.0 1.0 1.0 1.0
0000f0 00 00 80 3f 00 00 80 3f 00 00 80 3f 00 00 80 3f
       1.0 1.0 1.0 1.0
000100 00 00 80 3f 00 00 80 3f 00 00 80 3f 00 00 80 3f
       1.0 1.0 1.0 1.0
000110 00 00 80 3f 00 00 80 3f 00 00 80 3f 00 00 80 3f
       1.0 1.0 1.0 1.0
000120 00 00 80 3f 00 00 80 3f 00 00 80 3f 00 00 80 3f
       1.0 1.0 1.0 1.0
000130 00 00 80 3f 00 00 80 3f 00 00 80 3f 00 00 80 3f
       1.0 1.0 1.0 1.0
000140 00 00 80 3f 00 00 80 3f 00 00 80 3f 00 00 80 3f
       1.0 1.0 1.0 1.0
000150 00 00 80 3f 00 00 80 3f 00 00 80 3f 00 00 80 3f
       1.0 1.0 1.0 1.0
000160 00 00 80 3f 00 00 80 3f 00 00 80 3f 00 00 80 3f
       1.0 1.0 1.0 1.0
000170 00 00 80 3f 00 00 80 3f 00 00 80 3f 00 00 80 3f
       1.0 1.0 1.0 1.0
000180 00 00 80 3f 00 00 80 3f 00 00 80 3f 00 00 80 3f
       1.0 1.0 1.0 1.0
000190 00 00 80 3f 00 00 80 3f 00 00 80 3f 00 00 80 3f
       1.0 1.0 1.0 1.0
0001a0 00 00 80 3f 00 00 80 3f 00 00 80 3f 00 00 80 3f
       1.0 1.0 1.0 1.0
0001b0 00 00 80 3f 00 00 80 3f 00 00 80 3f 00 00 80 3f
       1.0 1.0 1.0 1.0
0001c0 00 00 80 3f 00 00 80 3f 00 00 80 3f 00 00 80 3f
       1.0 1.0 1.0 1.0
0001d0 00 00 80 3f 00 00 80 3f 00 00 80 3f 00 00 80 3f
       1.0 1.0 1.0 1.0
0001e0 00 00 80 3f 00 00 80 3f 00 00 80 3f 00 00 80 3f
       1.0 1.0 1.0 1.0
0001f0 00 00 80 3f 00 00 80 3f 00 00 80 3f 00 00 80 3f
       1.0 1.0 1.0 1.0
000200 00 00 80 3f 00 00 80 3f 00 00 80 3f 00 00 80 3f
       1.0 1.0 1.0 1.0
000210 00 00 80 3f 00 00 80 3f 00 00 80 3f 00 00 80 3f
       1.0 1.0 1.0 1.0
000220 00 00 80 3f 00 00 80 3f 00 00 80 3f 00 00 80 3f
       1.0 1.0 1.0 1.0
000230 00 00 80 3f 00 00 80 3f 00 00 80 3f 00 00 80 3f
       1.0 1.0 1.0 1.0
000240 00 00 80 3f 00 00 80 3f 00 00 80 3f 00 00 80 3f
       1.0 1.0 1.0 1.0
000250 00 00 80 3f 00 00 80 3f 00 00 80 3f 00 00 80 3f
       1.0 1.0 1.0 1.0
000260 00 00 80 3f 00 00 80 3f 00 00 80 3f 00 00 80 3f
       1.0 1.0 1.0 1.0
000270 00 00 80 3f 00 00 80 3f 00 00 80 3f 00 00 80 3f
       1.0 1.0 1.0 1.0
000280 00 00 80 3f 00 00 80 3f 00 00 80 3f 00 00 80 3f
       1.0 1.0 1.0 1.0
000290 00 00 80 3f 00 00 80 3f 00 00 80 3f 00 00 80 3f
       1.0 1.0 1.0 1.0
0002a0 00 00 80 3f 00 00 80 3f 00 00 80 3f 00 00 80 3f
       1.0 1.0 1.0 1.0
0002b0 00 00 80 3f 00 00 80 3f 00 00 80 3f 00 00 80 3f
       1.0 1.0 1.0 1.0
0002c0 00 00 80 3f 00 00 80 3f 00 00 80 3f 00 00 80 3f
       1.0 1.0 1.0 1.0
0002d0 00 00 80 3f 00 00 80 3f 00 00 80 3f 00 00 80 3f
       1.0 1.0 1.0 1.0
0002e0 00 00 80 3f 00 00 80 3f 00 00 80 3f 00 00 80 3f
       1.0 1.0 1.0 1.0
0002f0 00 00 80 3f 00 00 80 3f 00 00 80 3f 00 00 80 3f
       1.0 1.0 1.0 1.0
000300 00 00 80 3f 00 00 80 3f 00 00 80 3f 00 00 80 3f
       1.0 1.0 1.0 1.0
000310 00 00 80 3f 00 00 80 3f 00 00 80 3f 00 00 80 3f
       1.0 1.0 1.0 1.0
000320 00 00 80 3f 00 00 80 3f 00 00 80 3f 00 00 80 3f
       1.0 1.0 1.0 1.0
000330 00 00 80 3f 00 00 80 3f 00 00 80 3f 00 00 80 3f
       1.0 1.0 1.0 1.0
000340 00 00 80 3f 00 00 80 3f 00 00 80 3f 00 00 80 3f
       1.0 1.0 1.0 1.0
000350 00 00 80 3f 00 00 80 3f 00 00 80 3f 00 00 80 3f
       1.0 1.0 1.0 1.0
000360 00 00 80 3f 00 00 80 3f 00 00 80 3f 00 00 80 3f
       1.0 1.0 1.0 1.0
000370 00 00 80 3f 00 00 80 3f 00 00 80 3f 00 00 80 3f
       1.0 1.0 1.0 1.0
000380 00 00 80 3f 00 00 80 3f 00 00 80 3f 00 00 80 3f
       1.0 1.0 1.0 1.0
000390 00 00 80 3f 00 00 80 3f 00 00 80 3f 00 00 80 3f
       1.0 1.0 1.0 1.0
0003a0 00 00 80 3f 00 00 80 3f 00 00 80 3f 00 00 80 3f
       1.0 1.0 1.0 1.0
0003b0 00 00 80 3f 00 00 80 3f 00 00 80 3f 00 00 80 3f
       1.0 1.0 1.0 1.0
0003c0 00 00 80 3f 00 00 80 3f 00 00 80 3f 00 00 80 3f
       1.0 1.0 1.0 1.0
0003d0 00 00 80 3f 00 00 80 3f 00 00 80 3f 00 00 80 3f
       1.0 1.0 1.0 1.0
0003e0 00 00 80 3f 00 00 80 3f 00 00 80 3f 00 00 80 3f
       1.0 1.0 1.0 1.0
0003f0 00 00 80 3f 00 00 80 3f 00 00 80 3f 00 00 80 3f
       1.0 1.0 1.0 1.0

net.1.bias f4 [256]
000000 00 00 00 00 00 00 00 00 00 00 00 00 00 00 00 00
       0.0 0.0 0.0 0.0
000010 00 00 00 00 00 00 00 00 00 00 00 00 00 00 00 00
       0.0 0.0 0.0 0.0
000020 00 00 00 00 00 00 00 00 00 00 00 00 00 00 00 00
       0.0 0.0 0.0 0.0
000030 00 00 00 00 00 00 00 00 00 00 00 00 00 00 00 00
       0.0 0.0 0.0 0.0
000040 00 00 00 00 00 00 00 00 00 00 00 00 00 00 00 00
       0.0 0.0 0.0 0.0
000050 00 00 00 00 00 00 00 00 00 00 00 00 00 00 00 00
       0.0 0.0 0.0 0.0
000060 00 00 00 00 00 00 00 00 00 00 00 00 00 00 00 00
       0.0 0.0 0.0 0.0
000070 00 00 00 00 00 00 00 00 00 00 00 00 00 00 00 00
       0.0 0.0 0.0 0.0
000080 00 00 00 00 00 00 00 00 00 00 00 00 00 00 00 00
       0.0 0.0 0.0 0.0
000090 00 00 00 00 00 00 00 00 00 00 00 00 00 00 00 00
       0.0 0.0 0.0 0.0
0000a0 00 00 00 00 00 00 00 00 00 00 00 00 00 00 00 00
       0.0 0.0 0.0 0.0
0000b0 00 00 00 00 00 00 00 00 00 00 00 00 00 00 00 00
       0.0 0.0 0.0 0.0
0000c0 00 00 00 00 00 00 00 00 00 00 00 00 00 00 00 00
       0.0 0.0 0.0 0.0
0000d0 00 00 00 00 00 00 00 00 00 00 00 00 00 00 00 00
       0.0 0.0 0.0 0.0
0000e0 00 00 00 00 00 00 00 00 00 00 00 00 00 00 00 00
       0.0 0.0 0.0 0.0
0000f0 00 00 00 00 00 00 00 00 00 00 00 00 00 00 00 00
       0.0 0.0 0.0 0.0
000100 00 00 00 00 00 00 00 00 00 00 00 00 00 00 00 00
       0.0 0.0 0.0 0.0
000110 00 00 00 00 00 00 00 00 00 00 00 00 00 00 00 00
       0.0 0.0 0.0 0.0
000120 00 00 00 00 00 00 00 00 00 00 00 00 00 00 00 00
       0.0 0.0 0.0 0.0
000130 00 00 00 00 00 00 00 00 00 00 00 00 00 00 00 00
       0.0 0.0 0.0 0.0
000140 00 00 00 00 00 00 00 00 00 00 00 00 00 00 00 00
       0.0 0.0 0.0 0.0
000150 00 00 00 00 00 00 00 00 00 00 00 00 00 00 00 00
       0.0 0.0 0.0 0.0
000160 00 00 00 00 00 00 00 00 00 00 00 00 00 00 00 00
       0.0 0.0 0.0 0.0
000170 00 00 00 00 00 00 00 00 00 00 00 00 00 00 00 00
       0.0 0.0 0.0 0.0
000180 00 00 00 00 00 00 00 00 00 00 00 00 00 00 00 00
       0.0 0.0 0.0 0.0
000190 00 00 00 00 00 00 00 00 00 00 00 00 00 00 00 00
       0.0 0.0 0.0 0.0
0001a0 00 00 00 00 00 00 00 00 00 00 00 00 00 00 00 00
       0.0 0.0 0.0 0.0
0001b0 00 00 00 00 00 00 00 00 00 00 00 00 00 00 00 00
       0.0 0.0 0.0 0.0
0001c0 00 00 00 00 00 00 00 00 00 00 00 00 00 00 00 00
       0.0 0.0 0.0 0.0
0001d0 00 00 00 00 00 00 00 00 00 00 00 00 00 00 00 00
       0.0 0.0 0.0 0.0
0001e0 00 00 00 00 00 00 00 00 00 00 00 00 00 00 00 00
       0.0 0.0 0.0 0.0
0001f0 00 00 00 00 00 00 00 00 00 00 00 00 00 00 00 00
       0.0 0.0 0.0 0.0
000200 00 00 00 00 00 00 00 00 00 00 00 00 00 00 00 00
       0.0 0.0 0.0 0.0
000210 00 00 00 00 00 00 00 00 00 00 00 00 00 00 00 00
       0.0 0.0 0.0 0.0
000220 00 00 00 00 00 00 00 00 00 00 00 00 00 00 00 00
       0.0 0.0 0.0 0.0
000230 00 00 00 00 00 00 00 00 00 00 00 00 00 00 00 00
       0.0 0.0 0.0 0.0
000240 00 00 00 00 00 00 00 00 00 00 00 00 00 00 00 00
       0.0 0.0 0.0 0.0
000250 00 00 00 00 00 00 00 00 00 00 00 00 00 00 00 00
       0.0 0.0 0.0 0.0
000260 00 00 00 00 00 00 00 00 00 00 00 00 00 00 00 00
       0.0 0.0 0.0 0.0
000270 00 00 00 00 00 00 00 00 00 00 00 00 00 00 00 00
       0.0 0.0 0.0 0.0
000280 00 00 00 00 00 00 00 00 00 00 00 00 00 00 00 00
       0.0 0.0 0.0 0.0
000290 00 00 00 00 00 00 00 00 00 00 00 00 00 00 00 00
       0.0 0.0 0.0 0.0
0002a0 00 00 00 00 00 00 00 00 00 00 00 00 00 00 00 00
       0.0 0.0 0.0 0.0
0002b0 00 00 00 00 00 00 00 00 00 00 00 00 00 00 00 00
       0.0 0.0 0.0 0.0
0002c0 00 00 00 00 00 00 00 00 00 00 00 00 00 00 00 00
       0.0 0.0 0.0 0.0
0002d0 00 00 00 00 00 00 00 00 00 00 00 00 00 00 00 00
       0.0 0.0 0.0 0.0
0002e0 00 00 00 00 00 00 00 00 00 00 00 00 00 00 00 00
       0.0 0.0 0.0 0.0
0002f0 00 00 00 00 00 00 00 00 00 00 00 00 00 00 00 00
       0.0 0.0 0.0 0.0
000300 00 00 00 00 00 00 00 00 00 00 00 00 00 00 00 00
       0.0 0.0 0.0 0.0
000310 00 00 00 00 00 00 00 00 00 00 00 00 00 00 00 00
       0.0 0.0 0.0 0.0
000320 00 00 00 00 00 00 00 00 00 00 00 00 00 00 00 00
       0.0 0.0 0.0 0.0
000330 00 00 00 00 00 00 00 00 00 00 00 00 00 00 00 00
       0.0 0.0 0.0 0.0
000340 00 00 00 00 00 00 00 00 00 00 00 00 00 00 00 00
       0.0 0.0 0.0 0.0
000350 00 00 00 00 00 00 00 00 00 00 00 00 00 00 00 00
       0.0 0.0 0.0 0.0
000360 00 00 00 00 00 00 00 00 00 00 00 00 00 00 00 00
       0.0 0.0 0.0 0.0
000370 00 00 00 00 00 00 00 00 00 00 00 00 00 00 00 00
       0.0 0.0 0.0 0.0
000380 00 00 00 00 00 00 00 00 00 00 00 00 00 00 00 00
       0.0 0.0 0.0 0.0
000390 00 00 00 00 00 00 00 00 00 00 00 00 00 00 00 00
       0.0 0.0 0.0 0.0
0003a0 00 00 00 00 00 00 00 00 00 00 00 00 00 00 00 00
       0.0 0.0 0.0 0.0
0003b0 00 00 00 00 00 00 00 00 00 00 00 00 00 00 00 00
       0.0 0.0 0.0 0.0
0003c0 00 00 00 00 00 00 00 00 00 00 00 00 00 00 00 00
       0.0 0.0 0.0 0.0
0003d0 00 00 00 00 00 00 00 00 00 00 00 00 00 00 00 00
       0.0 0.0 0.0 0.0
0003e0 00 00 00 00 00 00 00 00 00 00 00 00 00 00 00 00
       0.0 0.0 0.0 0.0
0003f0 00 00 00 00 00 00 00 00 00 00 00 00 00 00 00 00
       0.0 0.0 0.0 0.0

net.3.weight f4 [256, 256]
000000 90 01 40 bd a8 fa b1 bc c0 0d 1d bb 76 83 78 bd
       -0.04687649 -0.021725968 -0.0023964494 -0.060672246
000010 a4 28 ed bc 0c 88 c1 3c e0 22 df bc bc 44 e8 3c
       -0.028950043 0.023624443 -0.02723831 0.028353088
000020 10 3d 10 bd e8 48 b6 bc 18 9d 57 bd 60 9c 4b 3d
       -0.035214484 -0.022251561 -0.05264005 0.049709678
000030 ec 2c 47 3d 40 80 cc 3a 94 9d f1 bc 10 a8 70 bc
       0.048626825 0.0015602186 -0.029494084 -0.014688507
000040 44 47 e3 3c b8 ee 55 3c ba a7 3e bd 68 2b 6a 3d
       0.027743943 0.013057403 -0.046546675 0.0571703
000050 44 6d ac bc 30 a4 20 bd f0 09 87 bb 7c 66 5a bd
       -0.021048196 -0.03921908 -0.0041210577 -0.053320393
000060 c6 10 16 bd cc c5 9a 3c 8c 4a 59 3d 64 55 b6 3c
       -0.03663709 0.018893145 0.05304961 0.022257514
000070 62 da 1e 3d 58 43 6a bc 7c cb 40 bd d8 7a 22 3d
       0.038782485 -0.014298283 -0.047069058 0.039667934
000080 b2 20 60 bd c8 ea 44 3c 44 fc 67 3d 4c c8 ba 3c
       -0.05471868 0.012018867 0.056637064 0.022800587
000090 86 a1 59 bd 84 a9 71 3d 00 db 96 bc 60 33 10 3d
       -0.053132556 0.058999553 -0.018414974 0.035205245
0000a0 70 7e 35 bd c8 57 7d 3c a8 6c 5e 3d f0 76 d2 bb
       -0.044310033 0.015462823 0.05430284 -0.00642287
0000b0 2e aa 19 bd 00 8f 82 b9 2c 11 b3 bc 20 c5 ef bb
       -0.03751581 -0.00024902076 -0.021858774 -0.0073172003
0000c0 90 fd f8 3b 10 6e f1 3b 48 2e 72 3d f6 24 52 3d
       0.0075985864 0.007367857 0.05912617 0.05130478
0000d0 a8 cb 3b 3c ac 77 97 bc 9a b0 48 3d 8a 4c 6b bd
       0.01146213 -0.018489681 0.048996545 -0.05744604
0000e0 50 7f 8b 3c 12 f4 31 3d bc 27 93 3c 80 dc 0d ba
       0.01702848 0.043445654 0.017963283 -0.000541158
0000f0 4c 17 eb 3c a4 85 45 3d 7c e4 d2 bc a8 fc fc bc
       0.028697632 0.048223153 -0.025743715 -0.030882195
000100 d2 bc 5f bd a4 1a 9f 3c cc bd b1 3c e0 a1 39 bd
       -0.054623432 0.019421883 0.021696948 -0.04532039
000110 28 33 6c bc f4 53 f9 bc 80 a1 a0 bc 44 e3 41 bd
       -0.0144164935 -0.03043554 -0.01960826 -0.047335878
000120 0a c0 67 bd 80 37 51 ba b8 f4 a5 bc 10 c2 eb bb
       -0.056579627 -0.00079809874 -0.020258293 -0.007194765
000130 70 5f 98 3c d4 e1 74 bd 9c 75 45 3d 70 cf 26 bc
       0.018600196 -0.05978568 0.048207864 -0.010181293
000140 c8 ab fb 3c 58 0f 19 3c 5a 07 36 3d 28 56 45 bd
       0.03072156 0.009342037 0.044440605 -0.048177868
000150 60 55 c6 bc 54 31 12 bd 10 39 b4 bc 18 6c 15 bc
       -0.024210632 -0.035691574 -0.021999866 -0.00912001
000160 78 6f 48 bd 00 38 12 b8 20 d5 3a bb 70 b7 25 bc
       -0.04893443 -3.4861267e-05 -0.002850838 -0.010114536
000170 5c 15 e7 bc a0 c9 32 bc 74 45 32 bd 50 82 13 bd
       -0.028208427 -0.010912329 -0.043523267 -0.036012948
000180 98 66 45 bc 94 1b 43 3d 7c ec c6 bc 0c 68 b8 bc
       -0.012048386 0.047633722 -0.024282686 -0.02251055
000190 60 af bd bc 06 4e 6e bd 64 0f 49 3d 0c ca d9 3c
       -0.023154914 -0.058179878 0.049086943 0.026585601
0001a0 36 f5 0f bd 20 2b 59 bb 6c 51 51 bd 4c e6 e8 3c
       -0.03514596 -0.0033137277 -0.05110304 0.028430127
0001b0 64 57 58 bd 30 41 4e 3c b0 5a e7 3b 1c ae 1b 3d
       -0.052817717 0.012588784 0.0070603713 0.03800784
0001c0 18 eb 02 3c 50 0d 62 bc c0 30 a7 ba a0 e7 1c 3b
       0.007990621 -0.013797119 -0.0012755617 0.002394177
0001d0 30 05 3a 3d e0 b5 b8 3b a4 98 c1 bc 00 62 f6 3b
       0.045415103 0.0056369156 -0.023632355 0.0075190067
0001e0 b0 97 6e bc 86 53 2c bd 22 4d 05 3d c0 2b a5 3c
       -0.014562532 -0.04207184 0.032544263 0.020162463
0001f0 bc c1 25 bd 60 04 00 3c 90 61 6a bc c0 d8 af bc
       -0.040467963 0.007813543 -0.014305487 -0.02146566
000200 00 c6 56 bb 48 04 ef 3c a8 c2 4e bd ac 7a 37 3d
       -0.0032771826 0.029176846 -0.050478607 0.044794723
000210 24 7f 19 3d 60 53 16 bc e0 5b 1b 3d 90 04 84 bb
       0.037474766 -0.009175152 0.037929416 -0.004028864
000220 4e 04 0a 3d ba 25 7f 3d 80 0c 52 3d 20 80 09 bd
       0.03369551 0.06229184 0.051281452 -0.033569455
000230 14 b4 5f bd ec 59 b3 3c 10 55 3c bd ee 6c 4d bd
       -0.054615095 0.021893464 -0.04597956 -0.05015271
000240 36 b9 6f 3d e0 75 0a 3b 42 46 37 3d 68 a9 54 bd
       0.05852624 0.0021127388 0.044744737 -0.05191937
000250 ba b3 72 bd 2c e5 d6 3c da f7 5e bd ba 3d 49 3d
       -0.05925343 0.026232325 -0.05443559 0.049131133
000260 6a 27 41 3d 68 f6 fb bc 80 6a 30 bd ac e6 60 bd
       0.04715673 -0.030757144 -0.043070316 -0.054907486
000270 64 e4 4a 3d b4 84 21 3d ae 0f 4d 3d d8 c3 a0 3c
       0.049534217 0.039433196 0.05006378 0.019624636
000280 c8 8d f9 3c 78 1c c7 3c 98 b0 0c bc 92 6f 72 bd
       0.030463114 0.024305567 -0.008587025 -0.059188433
000290 74 25 68 bd 40 66 ea 3a fe 61 36 3d 40 0d f0 3c
       -0.056676343 0.0017883256 0.044527046 0.029303193
0002a0 ec 7a f8 3c 14 95 40 bd 3a 09 29 3d b8 89 3e 3d
       0.030332051 -0.047017172 0.041268565 0.046518058
0002b0 26 e2 3d bd 80 b2 62 3d a0 31 2b bb 1e f8 23 3d
       -0.04635825 0.055346012 -0.0026122108 0.040031545
0002c0 40 e5 40 3b 50 34 57 bd 78 a5 b8 3c b0 28 45 bc
       0.0029433519 -0.052540123 0.02253984 -0.012033626
0002d0 c4 66 48 bd c6 3f 48 bd b8 4b 60 bd c4 dd 26 bd
       -0.04892613 -0.048888944 -0.05475971 -0.040738836
0002e0 2a 1a 76 bd 7c de 41 3d f8 c8 44 3c 46 b3 2f bd
       -0.060083546 0.04733132 0.012010805 -0.042895578
0002f0 4a d4 65 bd 98 f5 12 bc da a6 62 3d 1c 36 07 bd
       -0.056110658 -0.008969687 0.055334903 -0.033010587
000300 00 df a9 3c 20 aa ec bb d2 ff 34 3d 8a 05 53 bd
       0.020736217 -0.007222429 0.04418928 -0.051518954
000310 00 c5 4f bb 78 ab 7d bc aa a4 29 3d 36 36 3a bd
       -0.0031703115 -0.015482776 0.0414168 -0.045461856
000320 8e 48 24 bd 6a 21 3e 3d a4 15 d9 bc e0 ca 24 bd
       -0.040108256 0.046418585 -0.026499577 -0.04023254
000330 f0 29 8c 3c 24 6b a0 bc dc 80 2f 3d e4 d7 35 3d
       0.017109841 -0.019582339 0.0428475 0.044395342
000340 9c cd d8 bc ce 25 74 3d 48 bc 3e bc d8 f5 a3 bc
       -0.02646523 0.059606366 -0.011641569 -0.020014688
000350 34 6f bb bc 24 50 45 3d ca 36 1e bd 68 58 ba bc
       -0.022880174 0.04817213 -0.03862647 -0.022747234
000360 2c fe 06 bd 60 e2 3b bc e8 96 12 3d 70 37 d5 3c
       -0.03295724 -0.011467546 0.035788447 0.026027411
000370 a0 45 4a 3b c8 46 84 3c ae c6 10 3d 34 8e 1f 3d
       0.0030864254 0.016147032 0.035345726 0.038953975
000380 be 92 58 3d d8 0e c4 bc 44 21 a9 3c 40 3c d3 bc
       0.05287432 -0.02393286 0.020645745 -0.025785565
000390 e8 10 75 bc e0 2e 83 bb a8 10 f9 bc 70 9d 82 3c
       -0.014957644 -0.0040033907 -0.03040345 0.015944213
0003a0 a4 a8 e1 3c 58 e9 44 3d f8 62 57 bd 10 bc 0b 3d
       0.027546234 0.048074096 -0.05258462 0.034114897
0003b0 20 69 10 bb f8 8f 39 3c 08 1b 68 3c 0c 59 5e bd
       -0.0022035316 0.011325829 0.014166601 -0.05428414
0003c0 b8 81 28 3c 64 e5 c6 bc 88 ee 27 3d 4c e5 1d 3d
       0.010284834 -0.024279304 0.040998966 0.038548753
0003d0 e0 3c b7 3c 38 16 a8 3c 1c ed e0 3c c2 0a 21 bd
       0.022367895 0.020518407 0.027456813 -0.0393169
0003e0 20 37 91 3b 64 a1 48 3d 8c ee 0b bd c2 6e 34 bd
       0.0044316202 0.04898204 -0.034163043 -0.04405094
0003f0 10 83 2a 3c 16 3b 11 3d d6 df 1e bd a0 a6 6d bd
       0.010407224 0.03545674 -0.038787685 -0.058020234

net.3.bias f4 [256]
000000 30 cb 13 bd 80 38 26 bb 80 cf 3a 3c 68 14 a4 3c
       -0.036082447 -0.0025363266 0.011402011 0.020029262
000010 62 ad 15 3d 68 80 0d 3c 3c b4 ac 3c 50 ae 9a 3b
       0.036542304 0.0086365715 0.021082036 0.0047204867
000020 50 67 92 bc c0 2a 93 bc d0 ac 45 bc 70 d5 82 3b
       -0.017871529 -0.01796472 -0.0120651275 0.003992729
000030 e0 b9 1a 3b 1e 6b 43 3d ce f5 3f bd 48 e4 56 bc
       0.0023609325 0.047709577 -0.046865277 -0.01311595
000040 e6 6e 00 3d f0 32 09 3c 96 8a 7e 3d dc de 66 3d
       0.03135576 0.008373961 0.062143885 0.05636488
000050 00 ed 7b ba 44 47 a7 bc a0 0e 81 bb 3c bb d4 3c
       -0.0009610206 -0.020419724 -0.003938511 0.025968187
000060 dc 12 c1 bc 3c e6 ea 3c d0 bb c4 bc 80 c5 53 3d
       -0.023568563 0.028674237 -0.024015337 0.051702023
000070 e0 34 ed bc 70 5f 91 3b 10 ce f6 3c 4e ce 03 3d
       -0.028955877 0.004436426 0.030127555 0.03217917
000080 c6 df 64 bd d8 c1 09 3d a4 a8 f7 3c 18 b8 4b 3c
       -0.05587747 0.03363213 0.030231781 0.012434028
000090 96 e4 2b 3d 00 ac ba ba f0 d8 e5 3b d0 18 a8 3c
       0.041966043 -0.0014241934 0.0070143864 0.020519644
0000a0 e0 3f 73 bd 22 2d 7e bd 40 7e 04 3b 54 50 83 3c
       -0.059387088 -0.06205476 0.0020216852 0.016029514
0000b0 00 8b 3c ba d8 03 64 bd 58 9d 4b bc e0 61 04 bc
       -0.00071923435 -0.05566773 -0.01242765 -0.008079976
0000c0 70 b7 a1 3c f8 a4 1b 3c fc 92 04 bd b0 b1 64 3d
       0.01974079 0.009499781 -0.032366738 0.05583352
0000d0 78 65 9b bc aa aa 59 3d 10 a9 a3 bb 44 db 5e bd
       -0.018969283 0.053141274 -0.004994519 -0.054408327
0000e0 06 27 57 bd 7c 83 59 bd ec be 19 bd 60 4a 49 bc
       -0.05252745 -0.05310391 -0.037535593 -0.012285799
0000f0 ea 62 0e 3d 40 ac c7 bc 70 da 09 bd c8 f8 d0 bc
       0.0347623 -0.024374127 -0.033655584 -0.025509253
000100 8c e1 42 bd 20 04 ec bc 08 0a 39 3d 8c b1 a4 3c
       -0.04757838 -0.02881056 0.045175582 0.020104192
000110 dc 91 16 bd 10 11 46 3c 40 a0 22 bd 50 a4 23 bc
       -0.036760196 0.012089029 -0.039703608 -0.009987906
000120 04 83 77 bd d8 d7 c5 3c 7c cb ed 3c d8 9c a9 3c
       -0.06042768 0.024150774 0.029027693 0.020704672
000130 8a 3b 71 bd e0 5c ec bc 92 c7 50 bd ea e3 6f 3d
       -0.05889467 -0.02885288 -0.050971575 0.058566965
000140 08 b1 5f bd a4 56 01 bd 56 63 78 bd dc d5 f5 3c
       -0.05461219 -0.031576768 -0.06064161 0.030009203
000150 22 20 43 3d 84 96 e9 3c 58 72 5b 3c 1e 9e 14 3d
       0.047638066 0.028514154 0.013393961 0.036283605
000160 a8 58 36 bd 0e 24 7f 3d 9c 34 7a 3d 1e 6f 60 3d
       -0.044518143 0.062290244 0.06108533 0.05479347
000170 3a b5 4a bd fc a9 b2 3c 9c 72 9c 3c 94 0d 5f 3d
       -0.049489237 0.02180957 0.019097619 0.05445631
000180 2a b1 4e bd ac b5 2f 3d 66 b8 29 bd 5c 40 a7 3c
       -0.050461926 0.042897865 -0.04143562 0.020416431
000190 d0 b7 dd 3b fe 70 35 bd d4 98 a1 3c e0 ec fb 3c
       0.006766297 -0.04429721 0.019726194 0.0307526
0001a0 88 45 a1 3c 6e 9a 46 bd 3a ff 2b 3d 60 26 50 3b
       0.019686475 -0.04848712 0.04199145 0.0031761155
0001b0 ec af 56 bd b8 74 52 3c f4 9c 79 3d 80 71 4a 3c
       -0.052413866 0.012845211 0.060940698 0.012356162
0001c0 e2 f7 2e 3d d8 09 f7 bc 9c 9f b3 bc 10 25 9c 3c
       0.04271687 -0.030156061 -0.021926694 0.019060642
0001d0 d4 65 00 3d 5c 53 01 3d 0e 6e 11 bd 00 11 34 3b
       0.03134711 0.03157364 -0.035505347 0.0027475953
0001e0 7a 15 12 3d 52 91 3a bd 2e 6c 72 bd 40 c1 f0 3b
       0.035665013 -0.045548744 -0.0591852 0.007347256
0001f0 24 16 55 3d 10 f5 59 bc 50 d8 35 bc a8 85 4d 3d
       0.052023068 -0.013303056 -0.011098936 0.050176293
000200 a0 32 d2 3c 7a 6e 03 3d c4 8e 2b bd 90 ef e6 3c
       0.025658906 0.03208778 -0.0418842 0.028190404
000210 14 8e 86 bc 80 92 86 bb b0 cb 3c bc cc 8a 43 bd
       -0.01642517 -0.0041068196 -0.011523172 -0.04773979
000220 84 a8 ab bc 78 b7 5d 3c 16 25 3c bd 66 3c 4d bd
       -0.020954378 0.013532512 -0.045933805 -0.05010643
000230 50 ff 11 3d 3c 16 63 bd 4e 17 50 bd 54 ea 0d bd
       0.035643876 -0.055441126 -0.050803475 -0.0346473
000240 d8 16 6d bc 96 ab 6a 3d d0 ff 74 3c 1e 9d 6e bd
       -0.014470778 0.057292543 0.014953569 -0.058255307
000250 10 b4 a6 3b 70 92 7d 3c 2a 49 0b 3d 42 9c 35 3d
       0.005087383 0.015476808 0.03400532 0.044338472
000260 b8 43 07 bd 9a 7f 6a 3d d2 9a 42 bd 30 45 7e 3d
       -0.033023566 0.057250597 -0.04751093 0.0620777
000270 90 c4 d2 bc 2e 7c 2e bd 2a e4 15 3d 42 10 29 3d
       -0.025728494 -0.042598896 0.036594547 0.04127527
000280 74 bf 3a bd 58 76 03 bd ca 38 35 bd 34 37 43 3d
       -0.04559274 -0.032095283 -0.04424361 0.047660068
000290 fa b5 27 bd c2 fe 06 3d 24 e0 13 3d 38 85 23 3c
       -0.04094503 0.0329578 0.03610243 0.009980492
0002a0 cc 9f dc bc e2 e2 7b bd 92 0c 71 bd 72 66 42 3d
       -0.026931666 -0.06149567 -0.05884988 0.04746098
0002b0 c0 c5 23 3c 80 ab 0d ba 10 b5 80 bb fc 9b f5 bc
       0.009995878 -0.00054042786 -0.0039278343 -0.029981606
0002c0 a0 c4 de 3b a0 72 0a bc bc cb 79 bd b0 0c fb 3c
       0.006798342 -0.00845018 -0.060985312 0.030645698
0002d0 60 4f 07 3b 24 f0 fe 3c 62 84 04 bd 46 eb 2a 3d
       0.0020646676 0.031120367 -0.032352813 0.04172828
0002e0 d0 9f c2 3b 4c 6d 4a 3d 78 66 c9 3c d0 c8 54 3c
       0.0059394613 0.04942064 0.024584994 0.012987331
0002f0 4e 93 5d bd 4c 9e 85 bc 7c 50 55 bd 16 b8 55 bd
       -0.05409556 -0.016310833 -0.05207871 -0.05217751
000300 a8 7f 39 bc 60 e7 33 3d 50 57 dc 3c f8 68 08 bd
       -0.0113219395 0.04392183 0.026897103 -0.03330323
000310 d0 0a 97 3c c0 28 ba bc 54 83 52 3d 00 8b c0 ba
       0.018437773 -0.02272451 0.051394776 -0.0014689863
000320 0c 31 2d bd f8 c4 8d bc b0 68 19 3c e8 eb 14 bc
       -0.042283103 -0.017305836 0.009363338 -0.009089448
000330 d0 c5 12 3c a0 c7 dc 3b 66 60 6f 3d 80 69 53 3a
       0.008958295 0.0067376643 0.058441542 0.0008064732
000340 d8 da 02 3d 78 37 57 3c 00 cd b4 3c 40 8c 0c bb
       0.031946987 0.013135783 0.022070408 -0.00214459
000350 48 12 c9 3c 8e fe 1d 3d 50 2b ff 3b a0 a8 3b 3d
       0.02454485 0.03857284 0.0077871457 0.04581511
000360 28 a6 35 bc a4 65 ce 3c 18 68 59 bd c4 cf 6d bd
       -0.011086978 0.02519495 -0.053077787 -0.05805947
000370 d0 4f f2 3c fc 83 d8 3c 50 18 f2 bb a8 fc 9a 3c
       0.029579073 0.026430123 -0.007388152 0.018919304
000380 f4 f8 d0 bc 80 d2 72 3c 30 6f e6 3c 38 15 5b 3c
       -0.025509335 0.014820695 0.02812919 0.013371758
000390 d8 96 5b 3d 80 8a 1c bd 30 50 a5 3c a4 c0 69 3d
       0.053610653 -0.03821802 0.020179838 0.057068482
0003a0 28 53 cd bc 5e c9 40 3d 38 10 78 bc 90 f8 61 bc
       -0.025064066 0.04706704 -0.015140586 -0.013792172
0003b0 20 d1 77 bc 72 fb 09 3d be 5c 62 bd 10 9e c5 bc
       -0.015125543 0.033687063 -0.055264227 -0.024123222
0003c0 50 8b a9 bb 90 97 43 bc c0 e2 61 bb f4 8d bc bc
       -0.005174078 -0.011937991 -0.003446743 -0.023016907
0003d0 b4 3c 95 bc 78 24 4a bd 00 30 e2 39 64 9a 5a bd
       -0.018217422 -0.049351186 0.00043141842 -0.053369895
0003e0 a8 d4 0d 3d 18 84 7c bd 76 18 05 bd 2a 0e 54 3d
       0.034626633 -0.061649412 -0.03249403 0.05177132
0003f0 76 7e 00 3d 90 66 02 3d 78 ab 1e 3d b6 82 3d 3d
       0.031370603 0.031836092 0.038737744 0.046267234

net.4.weight f4 [256]
000000 00 00 80 3f 00 00 80 3f 00 00 80 3f 00 00 80 3f
       1.0 1.0 1.0 1.0
000010 00 00 80 3f 00 00 80 3f 00 00 80 3f 00 00 80 3f
       1.0 1.0 1.0 1.0
000020 00 00 80 3f 00 00 80 3f 00 00 80 3f 00 00 80 3f
       1.0 1.0 1.0 1.0
000030 00 00 80 3f 00 00 80 3f 00 00 80 3f 00 00 80 3f
       1.0 1.0 1.0 1.0
000040 00 00 80 3f 00 00 80 3f 00 00 80 3f 00 00 80 3f
       1.0 1.0 1.0 1.0
000050 00 00 80 3f 00 00 80 3f 00 00 80 3f 00 00 80 3f
       1.0 1.0 1.0 1.0
000060 00 00 80 3f 00 00 80 3f 00 00 80 3f 00 00 80 3f
       1.0 1.0 1.0 1.0
000070 00 00 80 3f 00 00 80 3f 00 00 80 3f 00 00 80 3f
       1.0 1.0 1.0 1.0
000080 00 00 80 3f 00 00 80 3f 00 00 80 3f 00 00 80 3f
       1.0 1.0 1.0 1.0
000090 00 00 80 3f 00 00 80 3f 00 00 80 3f 00 00 80 3f
       1.0 1.0 1.0 1.0
0000a0 00 00 80 3f 00 00 80 3f 00 00 80 3f 00 00 80 3f
       1.0 1.0 1.0 1.0
0000b0 00 00 80 3f 00 00 80 3f 00 00 80 3f 00 00 80 3f
       1.0 1.0 1.0 1.0
0000c0 00 00 80 3f 00 00 80 3f 00 00 80 3f 00 00 80 3f
       1.0 1.0 1.0 1.0
0000d0 00 00 80 3f 00 00 80 3f 00 00 80 3f 00 00 80 3f
       1.0 1.0 1.0 1.0
0000e0 00 00 80 3f 00 00 80 3f 00 00 80 3f 00 00 80 3f
       1.0 1.0 1.0 1.0
0000f0 00 00 80 3f 00 00 80 3f 00 00 80 3f 00 00 80 3f
       1.0 1.0 1.0 1.0
000100 00 00 80 3f 00 00 80 3f 00 00 80 3f 00 00 80 3f
       1.0 1.0 1.0 1.0
000110 00 00 80 3f 00 00 80 3f 00 00 80 3f 00 00 80 3f
       1.0 1.0 1.0 1.0
000120 00 00 80 3f 00 00 80 3f 00 00 80 3f 00 00 80 3f
       1.0 1.0 1.0 1.0
000130 00 00 80 3f 00 00 80 3f 00 00 80 3f 00 00 80 3f
       1.0 1.0 1.0 1.0
000140 00 00 80 3f 00 00 80 3f 00 00 80 3f 00 00 80 3f
       1.0 1.0 1.0 1.0
000150 00 00 80 3f 00 00 80 3f 00 00 80 3f 00 00 80 3f
       1.0 1.0 1.0 1.0
000160 00 00 80 3f 00 00 80 3f 00 00 80 3f 00 00 80 3f
       1.0 1.0 1.0 1.0
000170 00 00 80 3f 00 00 80 3f 00 00 80 3f 00 00 80 3f
       1.0 1.0 1.0 1.0
000180 00 00 80 3f 00 00 80 3f 00 00 80 3f 00 00 80 3f
       1.0 1.0 1.0 1.0
000190 00 00 80 3f 00 00 80 3f 00 00 80 3f 00 00 80 3f
       1.0 1.0 1.0 1.0
0001a0 00 00 80 3f 00 00 80 3f 00 00 80 3f 00 00 80 3f
       1.0 1.0 1.0 1.0
0001b0 00 00 80 3f 00 00 80 3f 00 00 80 3f 00 00 80 3f
       1.0 1.0 1.0 1.0
0001c0 00 00 80 3f 00 00 80 3f 00 00 80 3f 00 00 80 3f
       1.0 1.0 1.0 1.0
0001d0 00 00 80 3f 00 00 80 3f 00 00 80 3f 00 00 80 3f
       1.0 1.0 1.0 1.0
0001e0 00 00 80 3f 00 00 80 3f 00 00 80 3f 00 00 80 3f
       1.0 1.0 1.0 1.0
0001f0 00 00 80 3f 00 00 80 3f 00 00 80 3f 00 00 80 3f
       1.0 1.0 1.0 1.0
000200 00 00 80 3f 00 00 80 3f 00 00 80 3f 00 00 80 3f
       1.0 1.0 1.0 1.0
000210 00 00 80 3f 00 00 80 3f 00 00 80 3f 00 00 80 3f
       1.0 1.0 1.0 1.0
000220 00 00 80 3f 00 00 80 3f 00 00 80 3f 00 00 80 3f
       1.0 1.0 1.0 1.0
000230 00 00 80 3f 00 00 80 3f 00 00 80 3f 00 00 80 3f
       1.0 1.0 1.0 1.0
000240 00 00 80 3f 00 00 80 3f 00 00 80 3f 00 00 80 3f
       1.0 1.0 1.0 1.0
000250 00 00 80 3f 00 00 80 3f 00 00 80 3f 00 00 80 3f
       1.0 1.0 1.0 1.0
000260 00 00 80 3f 00 00 80 3f 00 00 80 3f 00 00 80 3f
       1.0 1.0 1.0 1.0
000270 00 00 80 3f 00 00 80 3f 00 00 80 3f 00 00 80 3f
       1.0 1.0 1.0 1.0
000280 00 00 80 3f 00 00 80 3f 00 00 80 3f 00 00 80 3f
       1.0 1.0 1.0 1.0
000290 00 00 80 3f 00 00 80 3f 00 00 80 3f 00 00 80 3f
       1.0 1.0 1.0 1.0
0002a0 00 00 80 3f 00 00 80 3f 00 00 80 3f 00 00 80 3f
       1.0 1.0 1.0 1.0
0002b0 00 00 80 3f 00 00 80 3f 00 00 80 3f 00 00 80 3f
       1.0 1.0 1.0 1.0
0002c0 00 00 80 3f 00 00 80 3f 00 00 80 3f 00 00 80 3f
       1.0 1.0 1.0 1.0
0002d0 00 00 80 3f 00 00 80 3f 00 00 80 3f 00 00 80 3f
       1.0 1.0 1.0 1.0
0002e0 00 00 80 3f 00 00 80 3f 00 00 80 3f 00 00 80 3f
       1.0 1.0 1.0 1.0
0002f0 00 00 80 3f 00 00 80 3f 00 00 80 3f 00 00 80 3f
       1.0 1.0 1.0 1.0
000300 00 00 80 3f 00 00 80 3f 00 00 80 3f 00 00 80 3f
       1.0 1.0 1.0 1.0
000310 00 00 80 3f 00 00 80 3f 00 00 80 3f 00 00 80 3f
       1.0 1.0 1.0 1.0
000320 00 00 80 3f 00 00 80 3f 00 00 80 3f 00 00 80 3f
       1.0 1.0 1.0 1.0
000330 00 00 80 3f 00 00 80 3f 00 00 80 3f 00 00 80 3f
       1.0 1.0 1.0 1.0
000340 00 00 80 3f 00 00 80 3f 00 00 80 3f 00 00 80 3f
       1.0 1.0 1.0 1.0
000350 00 00 80 3f 00 00 80 3f 00 00 80 3f 00 00 80 3f
       1.0 1.0 1.0 1.0
000360 00 00 80 3f 00 00 80 3f 00 00 80 3f 00 00 80 3f
       1.0 1.0 1.0 1.0
000370 00 00 80 3f 00 00 80 3f 00 00 80 3f 00 00 80 3f
       1.0 1.0 1.0 1.0
000380 00 00 80 3f 00 00 80 3f 00 00 80 3f 00 00 80 3f
       1.0 1.0 1.0 1.0
000390 00 00 80 3f 00 00 80 3f 00 00 80 3f 00 00 80 3f
       1.0 1.0 1.0 1.0
0003a0 00 00 80 3f 00 00 80 3f 00 00 80 3f 00 00 80 3f
       1.0 1.0 1.0 1.0
0003b0 00 00 80 3f 00 00 80 3f 00 00 80 3f 00 00 80 3f
       1.0 1.0 1.0 1.0
0003c0 00 00 80 3f 00 00 80 3f 00 00 80 3f 00 00 80 3f
       1.0 1.0 1.0 1.0
0003d0 00 00 80 3f 00 00 80 3f 00 00 80 3f 00 00 80 3f
       1.0 1.0 1.0 1.0
0003e0 00 00 80 3f 00 00 80 3f 00 00 80 3f 00 00 80 3f
       1.0 1.0 1.0 1.0
0003f0 00 00 80 3f 00 00 80 3f 00 00 80 3f 00 00 80 3f
       1.0 1.0 1.0 1.0

net.4.bias f4 [256]
000000 00 00 00 00 00 00 00 00 00 00 00 00 00 00 00 00
       0.0 0.0 0.0 0.0
000010 00 00 00 00 00 00 00 00 00 00 00 00 00 00 00 00
       0.0 0.0 0.0 0.0
000020 00 00 00 00 00 00 00 00 00 00 00 00 00 00 00 00
       0.0 0.0 0.0 0.0
000030 00 00 00 00 00 00 00 00 00 00 00 00 00 00 00 00
       0.0 0.0 0.0 0.0
000040 00 00 00 00 00 00 00 00 00 00 00 00 00 00 00 00
       0.0 0.0 0.0 0.0
000050 00 00 00 00 00 00 00 00 00 00 00 00 00 00 00 00
       0.0 0.0 0.0 0.0
000060 00 00 00 00 00 00 00 00 00 00 00 00 00 00 00 00
       0.0 0.0 0.0 0.0
000070 00 00 00 00 00 00 00 00 00 00 00 00 00 00 00 00
       0.0 0.0 0.0 0.0
000080 00 00 00 00 00 00 00 00 00 00 00 00 00 00 00 00
       0.0 0.0 0.0 0.0
000090 00 00 00 00 00 00 00 00 00 00 00 00 00 00 00 00
       0.0 0.0 0.0 0.0
0000a0 00 00 00 00 00 00 00 00 00 00 00 00 00 00 00 00
       0.0 0.0 0.0 0.0
0000b0 00 00 00 00 00 00 00 00 00 00 00 00 00 00 00 00
       0.0 0.0 0.0 0.0
0000c0 00 00 00 00 00 00 00 00 00 00 00 00 00 00 00 00
       0.0 0.0 0.0 0.0
0000d0 00 00 00 00 00 00 00 00 00 00 00 00 00 00 00 00
       0.0 0.0 0.0 0.0
0000e0 00 00 00 00 00 00 00 00 00 00 00 00 00 00 00 00
       0.0 0.0 0.0 0.0
0000f0 00 00 00 00 00 00 00 00 00 00 00 00 00 00 00 00
       0.0 0.0 0.0 0.0
000100 00 00 00 00 00 00 00 00 00 00 00 00 00 00 00 00
       0.0 0.0 0.0 0.0
000110 00 00 00 00 00 00 00 00 00 00 00 00 00 00 00 00
       0.0 0.0 0.0 0.0
000120 00 00 00 00 00 00 00 00 00 00 00 00 00 00 00 00
       0.0 0.0 0.0 0.0
000130 00 00 00 00 00 00 00 00 00 00 00 00 00 00 00 00
       0.0 0.0 0.0 0.0
000140 00 00 00 00 00 00 00 00 00 00 00 00 00 00 00 00
       0.0 0.0 0.0 0.0
000150 00 00 00 00 00 00 00 00 00 00 00 00 00 00 00 00
       0.0 0.0 0.0 0.0
000160 00 00 00 00 00 00 00 00 00 00 00 00 00 00 00 00
       0.0 0.0 0.0 0.0
000170 00 00 00 00 00 00 00 00 00 00 00 00 00 00 00 00
       0.0 0.0 0.0 0.0
000180 00 00 00 00 00 00 00 00 00 00 00 00 00 00 00 00
       0.0 0.0 0.0 0.0
000190 00 00 00 00 00 00 00 00 00 00 00 00 00 00 00 00
       0.0 0.0 0.0 0.0
0001a0 00 00 00 00 00 00 00 00 00 00 00 00 00 00 00 00
       0.0 0.0 0.0 0.0
0001b0 00 00 00 00 00 00 00 00 00 00 00 00 00 00 00 00
       0.0 0.0 0.0 0.0
0001c0 00 00 00 00 00 00 00 00 00 00 00 00 00 00 00 00
       0.0 0.0 0.0 0.0
0001d0 00 00 00 00 00 00 00 00 00 00 00 00 00 00 00 00
       0.0 0.0 0.0 0.0
0001e0 00 00 00 00 00 00 00 00 00 00 00 00 00 00 00 00
       0.0 0.0 0.0 0.0
0001f0 00 00 00 00 00 00 00 00 00 00 00 00 00 00 00 00
       0.0 0.0 0.0 0.0
000200 00 00 00 00 00 00 00 00 00 00 00 00 00 00 00 00
       0.0 0.0 0.0 0.0
000210 00 00 00 00 00 00 00 00 00 00 00 00 00 00 00 00
       0.0 0.0 0.0 0.0
000220 00 00 00 00 00 00 00 00 00 00 00 00 00 00 00 00
       0.0 0.0 0.0 0.0
000230 00 00 00 00 00 00 00 00 00 00 00 00 00 00 00 00
       0.0 0.0 0.0 0.0
000240 00 00 00 00 00 00 00 00 00 00 00 00 00 00 00 00
       0.0 0.0 0.0 0.0
000250 00 00 00 00 00 00 00 00 00 00 00 00 00 00 00 00
       0.0 0.0 0.0 0.0
000260 00 00 00 00 00 00 00 00 00 00 00 00 00 00 00 00
       0.0 0.0 0.0 0.0
000270 00 00 00 00 00 00 00 00 00 00 00 00 00 00 00 00
       0.0 0.0 0.0 0.0
000280 00 00 00 00 00 00 00 00 00 00 00 00 00 00 00 00
       0.0 0.0 0.0 0.0
000290 00 00 00 00 00 00 00 00 00 00 00 00 00 00 00 00
       0.0 0.0 0.0 0.0
0002a0 00 00 00 00 00 00 00 00 00 00 00 00 00 00 00 00
       0.0 0.0 0.0 0.0
0002b0 00 00 00 00 00 00 00 00 00 00 00 00 00 00 00 00
       0.0 0.0 0.0 0.0
0002c0 00 00 00 00 00 00 00 00 00 00 00 00 00 00 00 00
       0.0 0.0 0.0 0.0
0002d0 00 00 00 00 00 00 00 00 00 00 00 00 00 00 00 00
       0.0 0.0 0.0 0.0
0002e0 00 00 00 00 00 00 00 00 00 00 00 00 00 00 00 00
       0.0 0.0 0.0 0.0
0002f0 00 00 00 00 00 00 00 00 00 00 00 00 00 00 00 00
       0.0 0.0 0.0 0.0
000300 00 00 00 00 00 00 00 00 00 00 00 00 00 00 00 00
       0.0 0.0 0.0 0.0
000310 00 00 00 00 00 00 00 00 00 00 00 00 00 00 00 00
       0.0 0.0 0.0 0.0
000320 00 00 00 00 00 00 00 00 00 00 00 00 00 00 00 00
       0.0 0.0 0.0 0.0
000330 00 00 00 00 00 00 00 00 00 00 00 00 00 00 00 00
       0.0 0.0 0.0 0.0
000340 00 00 00 00 00 00 00 00 00 00 00 00 00 00 00 00
       0.0 0.0 0.0 0.0
000350 00 00 00 00 00 00 00 00 00 00 00 00 00 00 00 00
       0.0 0.0 0.0 0.0
000360 00 00 00 00 00 00 00 00 00 00 00 00 00 00 00 00
       0.0 0.0 0.0 0.0
000370 00 00 00 00 00 00 00 00 00 00 00 00 00 00 00 00
       0.0 0.0 0.0 0.0
000380 00 00 00 00 00 00 00 00 00 00 00 00 00 00 00 00
       0.0 0.0 0.0 0.0
000390 00 00 00 00 00 00 00 00 00 00 00 00 00 00 00 00
       0.0 0.0 0.0 0.0
0003a0 00 00 00 00 00 00 00 00 00 00 00 00 00 00 00 00
       0.0 0.0 0.0 0.0
0003b0 00 00 00 00 00 00 00 00 00 00 00 00 00 00 00 00
       0.0 0.0 0.0 0.0
0003c0 00 00 00 00 00 00 00 00 00 00 00 00 00 00 00 00
       0.0 0.0 0.0 0.0
0003d0 00 00 00 00 00 00 00 00 00 00 00 00 00 00 00 00
       0.0 0.0 0.0 0.0
0003e0 00 00 00 00 00 00 00 00 00 00 00 00 00 00 00 00
       0.0 0.0 0.0 0.0
0003f0 00 00 00 00 00 00 00 00 00 00 00 00 00 00 00 00
       0.0 0.0 0.0 0.0
