models/maddpg/final_agent_6_SentimentReader.pt (torch, 612067 bytes, 20 tensors)

net.0.weight f4 [256, 30]
00000000: 1e45 24be 804c 4ebc c0a2 0c3e 0c20 0fbe
00000010: 5476 bc3d d806 e13c b6d0 99bd 909c 00bd
00000020: 9cbd 46bd 4051 88bb d6a9 023e d71d bbbd
00000030: b060 05bd d8ee 9ebc ecfc 48bd aa22 7ebd
00000040: ca69 2f3e 82de a4bd aa57 18be 9045 c3bd
00000050: 2e72 1d3e ec32 8b3d a0a4 073d 2b68 a5bd
00000060: f43a 033e c0c3 d83d 73b8 25be 980a 84bd
00000070: 2995 afbd ad7b 29be a470 0f3d 0c5b db3d
00000080: 20b2 44bd 1c8a 0c3e 2c72 fa3d 40c0 d63d
00000090: 3862 9b3d 084e 80bd f4e7 0abe a586 2bbe
000000a0: 80db 85bc 80f4 a5bc 24f8 5dbd 4b0d ccbd
000000b0: ceb9 103e c09e 23be d9be 21be 4000 9a3d
000000c0: d46f 4ebd 32b5 2bbe 069b 30be b5f7 0dbe
000000d0: 709a 46bc 700a dabc 4570 20be 508c b53d
000000e0: 483a 373e 266c 263e 7c3e 05be 60a2 1d3e
000000f0: b8ef ef3c b630 9ebd 54f2 bdbd f0ff 26bc
00000100: 20f4 e33d 90d8 0ebd 949b c13d 2041 c73c
00000110: 185f fd3d 2446 433d f6e0 21be 24ff 1f3e
00000120: c2cf 24be c0b4 49bc ba72 023e 506b 213e
00000130: c8f5 0d3e d0df 2a3e 607b 613c d69b 97bd
00000140: 8892 25be 788c c83d deea 97bd f461 01bd
00000150: ce9f 893d 48fb 613d f857 b33d a2cc 253e
00000160: f9bc 11be 4435 9e3d 6cab fdbd eec9 003e
00000170: f7a9 34be 7810 83bc a0bf ba3d b22e 233e
00000180: 94b1 6a3d e8c4 9c3d 5c32 bfbd 1ceb 013e
00000190: b09e d63d 7c0a 45bd 3299 063e 6cdd 033e
000001a0: 105f 23bd 7464 9e3d e4d7 2ebe 5f7e eebd
000001b0: b6dc 053e 3ce4 58bd 08e1 253e 8425 6b3d
000001c0: 8a33 25be 488e b23d 81a3 e4bd e803 af3d
000001d0: 7c87 df3d 3eb8 31be 3897 303e e857 323e
000001e0: a48e d5bd bf54 cfbd 10a6 81bc 2062 0a3d
000001f0: d7f0 a6bd 9c1d 483d 3cd7 19bd a11a 11be
00000200: e2ea 22be 404f 023e 9a6a f8bd 6602 87bd
00000210: 98f6 99bd c63d ebbd 5e88 85bd 00a7 753b
00000220: c404 47bd bcf0 7a3d 4c2c 1c3e c225 24be
00000230: c0d9 bebc 5016 283e a251 89bd 20bc d03d
00000240: 1841 b23d 44e8 323e c062 48bc 98dd 253e
00000250: e87a fdbd 78b4 063d 98ac debc aea6 e9bd
00000260: 0c57 3a3d 689b 053d f2d6 043e e801 ae3c
00000270: 74d7 0f3e b874 ad3d 7c0a 9d3d 3615 243e
00000280: c647 26be 3ae6 adbd 90f8 283e 66d9 2f3e
00000290: 360e 2ebe a478 b23d c814 993c 8294 093e
000002a0: a8d2 9fbd 8e0b 1e3e 3800 d33c 00fa 133e
000002b0: b2bc 3a3e 283b 9bbc 4cd6 63bd 4095 953b
000002c0: f6b9 1b3e f864 a53d f8e8 25be 49ae b2bd
000002d0: 3492 8c3d 80c2 58bc 2eea a7bd e094 6c3d
000002e0: 9e6b 8dbd 5e81 95bd 78a2 fa3d 26b2 313e
000002f0: a48e 95bd b0d1 dabc 64bb 323d 38da ccbd
00000300: e0e9 8c3d c034 a7bc c060 a1bd e09a 1f3d
00000310: 2f7d 30be 30f6 1f3e 5036 9c3d 74ed 1bbd
00000320: 6c8e 31be 47c2 babd dec5 303e 0144 29be
00000330: 3802 c23d 0006 2b3e 5c41 19be d017 55bc
00000340: 3e2c 333e a416 3b3d 7c29 4dbd 8869 943d
00000350: c0b9 c0bb f274 88bd 8c0a ac3d 5acc 193e
00000360: 1ace 293e fcdd c43d b03b 9b3d 5ab6 1dbe
00000370: d04f ff3d 19ad 2bbe ccc8 553d 0041 303a
00000380: e28e 08be 16b0 0a3e 04e6 273e 70b5 563d
00000390: 0073 bb3a 384d 40bd 4c51 013e 8036 373e
000003a0: f8c3 c3bc f854 6c3d 4256 123e f80d e43d
000003b0: 9ac1 2a3e e837 f63d 79d8 1ebe 56a3 333e
000003c0: 90a9 1dbc 2dc7 2cbe 682e bb3c f615 7dbd
000003d0: 18ba b13c 4c13 ad3d 30b6 e8bc bc67 093e
000003e0: 48a8 d03c 58ac dc3c a480 b43d c653 ebbd
000003f0: c07d d43b e85f 473d 40ba 90bc 10e8 253c
-0.16041991 -0.012591481 0.13733959 -0.13977069 0.09202257 0.027469084 -0.075105116 -0.03139931
-0.04852067 -0.0041600764 0.127601 -0.09136551 -0.03256291 -0.019400999 -0.04906933 -0.062044777
0.17130199 -0.080502525 -0.14877191 -0.09534752 0.15375587 0.06796822 0.033115983 -0.08076509
0.12815458 0.10584211 -0.16183643 -0.06447333 -0.08573372 -0.16551085 0.03501953 0.10710725
-0.048021436 0.1372456 0.12228808 0.104858875 0.07587093 -0.06264883 -0.13565046 -0.16750582
-0.016340017 -0.020258188 -0.054191723 -0.09963473 0.14133379 -0.15978527 -0.15795459 0.07519579
-0.050399616 -0.1676834 -0.17246637 -0.13864024 -0.012121782 -0.026616305 -0.15667827 0.08864653
0.17893326 0.16252193 -0.13012117 0.15393972 0.029289111 -0.077241346 -0.09274736 -0.010192856
0.111305475 -0.0348745 0.09453502 0.024323046 0.12371653 0.047674313 -0.15808472 0.15624672
-0.16094878 -0.012311161 0.12739077 0.15763593 0.1386329 0.1668694 0.013762325 -0.0740277
-0.16169178 0.09792417 -0.07417844 -0.031587556 0.067199335 0.05517128 0.08757013 0.16191342
-0.14232244 0.07725003 -0.12386212 0.1257703 -0.17642961 -0.015999064 0.09118581 0.15935782
0.057298258 0.076547444 -0.09335777 0.12687343 0.10479486 -0.0481057 0.13144377 0.12877434
-0.03988558 0.07734004 -0.17074543 -0.11645197 0.13072476 -0.052952036 0.16199124 0.057408825
-0.16132942 0.08718544 -0.111639984 0.08545667 0.109145135 -0.17355439 0.17245185 0.17416346
-0.10427597 -0.10123586 -0.015826255 0.033784986 -0.08151405 0.048856363 -0.03755878 -0.14170314
-0.15909913 0.12725544 -0.12129708 -0.06592254 -0.07517737 -0.11486392 -0.065201506 0.0037483573
-0.04858853 0.06126474 0.15251273 -0.16030028 -0.02329719 0.16414762 -0.06705023 0.10192132
0.08703822 0.17471415 -0.012230575 0.16197813 -0.12376958 0.032886952 -0.027181908 -0.11408745
0.04549317 0.03261891 0.1297262 0.021241143 0.14047033 0.08469528 0.07668015 0.16023716
-0.16238317 -0.08491178 0.16501069 0.17172775 -0.16997609 0.087144166 0.018686667 0.13435557
-0.07803851 0.15434095 0.02575694 0.14450836 0.18236044 -0.018949106 -0.05562429 0.004564911
0.15207657 0.08075899 -0.16202152 -0.087246485 0.068638235 -0.013229966 -0.08198963 0.057759166
-0.06905292 -0.073000655 0.1223802 0.17353114 -0.07302597 -0.026711315 0.04363574 -0.100025594
0.068805456 -0.020410895 -0.07879782 0.03896606 -0.17235254 0.15621257 0.07627547 -0.03806825
-0.17339486 -0.09119087 0.1726298 -0.16529848 0.094730794 0.16701508 -0.14966339 -0.013006166
0.17497346 0.04567589 -0.05008839 0.07246691 -0.005881518 -0.066629305 0.08400449 0.1501936
0.16582528 0.09612653 0.07579744 -0.15401593 0.12466395 -0.1676525 0.052193448 0.0006723553
-0.13335755 0.13543734 0.16396338 0.052419126 0.001430124 -0.04694864 0.12628669 0.17891884
-0.023897156 0.05769822 0.14290717 0.11135477 0.16675416 0.12022382 -0.15512265 0.17542776
-0.009622946 -0.16872855 0.022849277 -0.06178852 0.021695182 0.08450946 -0.028407186 0.13418478
0.025470868 0.026937649 0.08813599 -0.11490588 0.006484717 0.048675448 -0.017666936 0.010126129

net.0.bias f4 [256]
00000000: 5011 03be 0051 1f3c 43fc f4bd a7ce 03be
00000010: 9c0a bb3d 4ad1 09be f0c9 333c 4835 66bd
00000020: c0e8 d9bc 2896 9c3d c485 103e 2cc2 33bd
00000030: c073 b7bd 1d68 1fbe 5827 f3bc 5ca5 25bd
00000040: 5ec0 6dbd 1da3 08be e013 603c 9a84 173e
00000050: 20bc d6bb 5093 d9bc 0808 ef3c 3803 6abd
00000060: d8ea 13be f058 28be 483e 133d 9cfb 54bd
00000070: ec2b 183d c04e 013e 9355 2bbe 00ff 533b
00000080: b6ec 343e b8ee c53c de05 143e 0efe 20be
00000090: 74be 0f3e 2c09 c13d d217 e0bd 2ad7 253e
000000a0: 1375 00be 58a8 953d 48d3 23be 4000 663b
000000b0: 5e6c 75bd 50ba 883c fcfa 03be e0a3 bdbc
000000c0: 70a4 13bc 7ce6 ed3d 50f4 873c 12e5 d6bd
000000d0: c0c1 103e 02d7 fcbd 54a7 493d 1cbf 853d
000000e0: b0be 4fbc 3093 d43c ffda c8bd 1824 2e3e
000000f0: c683 233e 7799 debd 685c 1d3e 407f 6ebb
00000100: 73a4 28be e298 94bd d49e 12be 8011 2d3d
00000110: c45c 353e 346a d13d 4862 b3bd e25d 0fbe
00000120: 9cfa 013e c01c 0d3d 6808 203e 34ec 363e
00000130: 001c b93d f95e c5bd dc8a 473d 9441 0d3e
00000140: 8a8d 283e cccb aa3d 304f f03d b244 d7bd
00000150: d4a1 9d3d 8006 2b3c 843f f23d 8c5c 4e3d
00000160: d039 1b3c 6080 eb3c cc01 02be 772d 1cbe
00000170: 68d7 173e c6df 81bd 1086 aebc c0dc 773d
00000180: ecb4 25be 6fe4 17be efe5 cabd e9c6 1fbe
00000190: 1661 08be a2da 193e 9efa 01be 9084 bb3c
000001a0: 18e9 053d 386b 333d 9220 183e d8a6 113e
000001b0: dee6 17be c4a3 38be 1c79 583d f8fd 5f3d
000001c0: 88f0 26be 7023 bdbc 009a 03ba 9205 803d
000001d0: 381a 113e c6da 10be 077d 8dbd 6cb8 7ebd
000001e0: 50a4 46bc 40ab 86bc 5002 e8bc 83f2 a5bd
000001f0: 90d9 9ebc 100d 4abd fae2 173e 57ee 11be
00000200: 04ca ea3d 3a12 77bd 6c14 2ebe 18c1 b93c
00000210: b0ce 013c c548 98bd 74bb 30bd b83b 633d
00000220: 1535 90bd 5870 b3bc 34e3 033e 6ceb 023e
00000230: 2c80 0ebd 8093 943a 48c4 bbbc 11c5 a9bd
00000240: 7566 f3bd 04bb cc3d a873 e93c 62f2 12be
00000250: 74d1 ff3d 0c34 02bd 3806 3dbd 008c c43a
00000260: 70a5 fb3c 9889 2fbe 7d59 92bd 109d 9f3c
00000270: 2893 353d 3c70 7e3d d76e 18be 0475 9a3d
00000280: af59 12be 4e29 1d3e 7f54 20be bfff 26be
00000290: 1327 c3bd e413 25bd f206 d9bd 00ca a7bb
000002a0: 486e c7bd d8f2 a93d bac6 0a3e 805e c2bc
000002b0: 92ac 863d a010 6fbd 48a5 c23d cd8a e5bd
000002c0: 4c59 933d aa42 c3bd 1860 ef3d 942f 55bd
000002d0: c246 9ebd e6b7 d4bd 3ce4 0ebe 9500 83bd
000002e0: 4518 82bd 4894 953c 6c7b c83d 1491 98bd
000002f0: bb2c e1bd ec42 533d f2fa 123e c008 babc
00000300: b46d 4ebd 1446 a13d 2c70 0cbe 508d ac3d
00000310: bc08 b9bd d4aa 383d 3a9b 1cbe eb06 21be
00000320: 60aa 14be da7c 243e 8847 9d3d c1bc b2bd
00000330: a65e 2e3e ec05 863d 8003 f5bb a47d 483d
00000340: 10a0 95bd 53ce 87bd c0c3 b0bc 8c8e 83bd
00000350: 4085 e63b 7bf8 d6bd b038 2a3e 60e8 443c
00000360: 0a84 b9bd 9890 8bbd 766e 12be 30ad 313c
00000370: 2848 01bd 2673 0b3e 9075 ad3d 383a f13c
00000380: 43ce c8bd c469 283e 5014 6abd 2071 4bbc
00000390: f012 09bd d071 60bd e6e5 1f3e c309 24be
000003a0: 0418 253e b083 c2bc 9c59 1bbd 2473 f73d
000003b0: 08ab f63c 820a 02be 44d4 393e d07d cbbd
000003c0: 10ac 313c f068 fd3d c08e 0bbc 8011 933c
000003d0: dc92 f93d 20c8 0fbc 3076 47bd dc3d 243e
000003e0: 38ec 07bd c086 ad3d 5a3c 30be c49c 013d
000003f0: c061 f5bc 4cef 1c3d bcbf f33d a7a9 22be
-0.12799573 0.009723902 -0.119621776 -0.128718 0.09132883 -0.13458744 0.010973439 -0.056203157
-0.026600242 0.076458275 0.14113528 -0.04388635 -0.089576244 -0.1556706 -0.029681846 -0.040440902
-0.058044784 -0.13343473 0.013676614 0.14796677 -0.006553188 -0.026559502 0.029178634 -0.057131976
-0.14445055 -0.16440177 0.035948068 -0.051997766 0.037151262 0.12627697 -0.16731863 0.0032348037
0.17668423 0.024161682 0.14455363 -0.15721914 0.14037496 0.094255775 -0.10942043 0.1619536
-0.1254466 0.073075 -0.15998566 0.0035095364 -0.0599178 0.016690403 -0.12888712 -0.02314943
-0.009011373 0.11616227 0.01659599 -0.104929104 0.1413641 -0.12345697 0.049231842 0.06530592
-0.012679741 0.02594909 -0.09807395 0.17005956 0.15968236 -0.10869115 0.15367281 -0.0036391765
-0.16468982 -0.072557226 -0.143184 0.042253017 0.17711169 0.10225335 -0.0875898 -0.14000657
0.12693256 0.034451246 0.15628207 0.17863542 0.09038544 -0.09637255 0.04871641 0.13794547
0.16460243 0.083396524 0.11733854 -0.105111495 0.07696882 0.010438561 0.11828521 0.05038123
0.009474233 0.028747737 -0.12695998 -0.15251718 0.14828265 -0.063415095 -0.02130416 0.060513258
-0.16182297 -0.14833234 -0.099071376 -0.15603222 -0.13318285 0.15024808 -0.12693259 0.02289036
0.032693 0.043803424 0.14856175 0.14223802 -0.14834163 -0.18031222 0.052849874 0.054685563
-0.16302693 -0.023088187 -0.0005020201 0.062510625 0.14170158 -0.14145955 -0.06908613 -0.062187597
-0.012124136 -0.01643908 -0.028321415 -0.08102896 -0.019390851 -0.049328864 0.14832678 -0.14251076
0.11464313 -0.060320117 -0.16999978 0.022675082 0.007922813 -0.07435755 -0.04314752 0.055476874
-0.070413746 -0.021904156 0.1287964 0.12785119 -0.034790203 0.0011335462 -0.022920743 -0.082895406
-0.118847765 0.09996608 0.028497532 -0.14350274 0.12491122 -0.031787917 -0.04614851 0.0014995337
0.030718535 -0.17142332 -0.07145975 0.019484073 0.044329792 0.062118754 -0.14886032 0.0754185
-0.14292024 0.15347788 -0.15657233 -0.16308497 -0.09528937 -0.040302172 -0.10597028 -0.005120516
-0.09737831 0.08298272 0.1355237 -0.023726702 0.06575884 -0.058365464 0.09504181 -0.11208115
0.071947664 -0.095341995 0.1168825 -0.052047327 -0.0772834 -0.10386638 -0.13954252 -0.063965954
-0.06352285 0.018259183 0.09789166 -0.074495465 -0.1099486 0.051577494 0.1435354 -0.02270925
-0.05039759 0.078746945 -0.13714665 0.08425391 -0.09034869 0.04508479 -0.15293589 -0.15725295
-0.14518118 0.16063252 0.07679659 -0.08727408 0.17028293 0.06544098 -0.007477224 0.048947945
-0.0730592 -0.0663115 -0.021577716 -0.06423673 0.0070349276 -0.10496613 0.16623187 0.012018293
-0.090583876 -0.068146884 -0.1429995 0.010844514 -0.031562954 0.13618144 0.08469689 0.029446706
-0.09804966 0.16446596 -0.057148278 -0.012417108 -0.033465326 -0.05479604 0.15615043 -0.16019349
0.16122442 -0.023744434 -0.037927255 0.12082508 0.03011085 -0.12699321 0.18147379 -0.09936106
0.010844246 0.12373531 -0.008517921 0.01795268 0.12186214 -0.008775741 -0.048696697 0.16039222
-0.03318426 0.08472967 -0.17210522 0.031643644 -0.029953837 0.03831415 0.11901805 -0.1588503

net.1.weight f4 [256]
00000000: 0000 803f 0000 803f 0000 803f 0000 803f
00000010: 0000 803f 0000 803f 0000 803f 0000 803f
00000020: 0000 803f 0000 803f 0000 803f 0000 803f
00000030: 0000 803f 0000 803f 0000 803f 0000 803f
00000040: 0000 803f 0000 803f 0000 803f 0000 803f
00000050: 0000 803f 0000 803f 0000 803f 0000 803f
00000060: 0000 803f 0000 803f 0000 803f 0000 803f
00000070: 0000 803f 0000 803f 0000 803f 0000 803f
00000080: 0000 803f 0000 803f 0000 803f 0000 803f
00000090: 0000 803f 0000 803f 0000 803f 0000 803f
000000a0: 0000 803f 0000 803f 0000 803f 0000 803f
000000b0: 0000 803f 0000 803f 0000 803f 0000 803f
000000c0: 0000 803f 0000 803f 0000 803f 0000 803f
000000d0: 0000 803f 0000 803f 0000 803f 0000 803f
000000e0: 0000 803f 0000 803f 0000 803f 0000 803f
000000f0: 0000 803f 0000 803f 0000 803f 0000 803f
00000100: 0000 803f 0000 803f 0000 803f 0000 803f
00000110: 0000 803f 0000 803f 0000 803f 0000 803f
00000120: 0000 803f 0000 803f 0000 803f 0000 803f
00000130: 0000 803f 0000 803f 0000 803f 0000 803f
00000140: 0000 803f 0000 803f 0000 803f 0000 803f
00000150: 0000 803f 0000 803f 0000 803f 0000 803f
00000160: 0000 803f 0000 803f 0000 803f 0000 803f
00000170: 0000 803f 0000 803f 0000 803f 0000 803f
00000180: 0000 803f 0000 803f 0000 803f 0000 803f
00000190: 0000 803f 0000 803f 0000 803f 0000 803f
000001a0: 0000 803f 0000 803f 0000 803f 0000 803f
000001b0: 0000 803f 0000 803f 0000 803f 0000 803f
000001c0: 0000 803f 0000 803f 0000 803f 0000 803f
000001d0: 0000 803f 0000 803f 0000 803f 0000 803f
000001e0: 0000 803f 0000 803f 0000 803f 0000 803f
000001f0: 0000 803f 0000 803f 0000 803f 0000 803f
00000200: 0000 803f 0000 803f 0000 803f 0000 803f
00000210: 0000 803f 0000 803f 0000 803f 0000 803f
00000220: 0000 803f 0000 803f 0000 803f 0000 803f
00000230: 0000 803f 0000 803f 0000 803f 0000 803f
00000240: 0000 803f 0000 803f 0000 803f 0000 803f
00000250: 0000 803f 0000 803f 0000 803f 0000 803f
00000260: 0000 803f 0000 803f 0000 803f 0000 803f
00000270: 0000 803f 0000 803f 0000 803f 0000 803f
00000280: 0000 803f 0000 803f 0000 803f 0000 803f
00000290: 0000 803f 0000 803f 0000 803f 0000 803f
000002a0: 0000 803f 0000 803f 0000 803f 0000 803f
000002b0: 0000 803f 0000 803f 0000 803f 0000 803f
000002c0: 0000 803f 0000 803f 0000 803f 0000 803f
000002d0: 0000 803f 0000 803f 0000 803f 0000 803f
000002e0: 0000 803f 0000 803f 0000 803f 0000 803f
000002f0: 0000 803f 0000 803f 0000 803f 0000 803f
00000300: 0000 803f 0000 803f 0000 803f 0000 803f
00000310: 0000 803f 0000 803f 0000 803f 0000 803f
00000320: 0000 803f 0000 803f 0000 803f 0000 803f
00000330: 0000 803f 0000 803f 0000 803f 0000 803f
00000340: 0000 803f 0000 803f 0000 803f 0000 803f
00000350: 0000 803f 0000 803f 0000 803f 0000 803f
00000360: 0000 803f 0000 803f 0000 803f 0000 803f
00000370: 0000 803f 0000 803f 0000 803f 0000 803f
00000380: 0000 803f 0000 803f 0000 803f 0000 803f
00000390: 0000 803f 0000 803f 0000 803f 0000 803f
000003a0: 0000 803f 0000 803f 0000 803f 0000 803f
000003b0: 0000 803f 0000 803f 0000 803f 0000 803f
000003c0: 0000 803f 0000 803f 0000 803f 0000 803f
000003d0: 0000 803f 0000 803f 0000 803f 0000 803f
000003e0: 0000 803f 0000 803f 0000 803f 0000 803f
000003f0: 0000 803f 0000 803f 0000 803f 0000 803f
1.0 1.0 1.0 1.0 1.0 1.0 1.0 1.0
1.0 1.0 1.0 1.0 1.0 1.0 1.0 1.0
1.0 1.0 1.0 1.0 1.0 1.0 1.0 1.0
1.0 1.0 1.0 1.0 1.0 1.0 1.0 1.0
1.0 1.0 1.0 1.0 1.0 1.0 1.0 1.0
1.0 1.0 1.0 1.0 1.0 1.0 1.0 1.0
1.0 1.0 1.0 1.0 1.0 1.0 1.0 1.0
1.0 1.0 1.0 1.0 1.0 1.0 1.0 1.0
1.0 1.0 1.0 1.0 1.0 1.0 1.0 1.0
1.0 1.0 1.0 1.0 1.0 1.0 1.0 1.0
1.0 1.0 1.0 1.0 1.0 1.0 1.0 1.0
1.0 1.0 1.0 1.0 1.0 1.0 1.0 1.0
1.0 1.0 1.0 1.0 1.0 1.0 1.0 1.0
1.0 1.0 1.0 1.0 1.0 1.0 1.0 1.0
1.0 1.0 1.0 1.0 1.0 1.0 1.0 1.0
1.0 1.0 1.0 1.0 1.0 1.0 1.0 1.0
1.0 1.0 1.0 1.0 1.0 1.0 1.0 1.0
1.0 1.0 1.0 1.0 1.0 1.0 1.0 1.0
1.0 1.0 1.0 1.0 1.0 1.0 1.0 1.0
1.0 1.0 1.0 1.0 1.0 1.0 1.0 1.0
1.0 1.0 1.0 1.0 1.0 1.0 1.0 1.0
1.0 1.0 1.0 1.0 1.0 1.0 1.0 1.0
1.0 1.0 1.0 1.0 1.0 1.0 1.0 1.0
1.0 1.0 1.0 1.0 1.0 1.0 1.0 1.0
1.0 1.0 1.0 1.0 1.0 1.0 1.0 1.0
1.0 1.0 1.0 1.0 1.0 1.0 1.0 1.0
1.0 1.0 1.0 1.0 1.0 1.0 1.0 1.0
1.0 1.0 1.0 1.0 1.0 1.0 1.0 1.0
1.0 1.0 1.0 1.0 1.0 1.0 1.0 1.0
1.0 1.0 1.0 1.0 1.0 1.0 1.0 1.0
1.0 1.0 1.0 1.0 1.0 1.0 1.0 1.0
1.0 1.0 1.0 1.0 1.0 1.0 1.0 1.0

net.1.bias f4 [256]
00000000: 0000 0000 0000 0000 0000 0000 0000 0000
00000010: 0000 0000 0000 0000 0000 0000 0000 0000
00000020: 0000 0000 0000 0000 0000 0000 0000 0000
00000030: 0000 0000 0000 0000 0000 0000 0000 0000
00000040: 0000 0000 0000 0000 0000 0000 0000 0000
00000050: 0000 0000 0000 0000 0000 0000 0000 0000
00000060: 0000 0000 0000 0000 0000 0000 0000 0000
00000070: 0000 0000 0000 0000 0000 0000 0000 0000
00000080: 0000 0000 0000 0000 0000 0000 0000 0000
00000090: 0000 0000 0000 0000 0000 0000 0000 0000
000000a0: 0000 0000 0000 0000 0000 0000 0000 0000
000000b0: 0000 0000 0000 0000 0000 0000 0000 0000
000000c0: 0000 0000 0000 0000 0000 0000 0000 0000
000000d0: 0000 0000 0000 0000 0000 0000 0000 0000
000000e0: 0000 0000 0000 0000 0000 0000 0000 0000
000000f0: 0000 0000 0000 0000 0000 0000 0000 0000
00000100: 0000 0000 0000 0000 0000 0000 0000 0000
00000110: 0000 0000 0000 0000 0000 0000 0000 0000
00000120: 0000 0000 0000 0000 0000 0000 0000 0000
00000130: 0000 0000 0000 0000 0000 0000 0000 0000
00000140: 0000 0000 0000 0000 0000 0000 0000 0000
00000150: 0000 0000 0000 0000 0000 0000 0000 0000
00000160: 0000 0000 0000 0000 0000 0000 0000 0000
00000170: 0000 0000 0000 0000 0000 0000 0000 0000
00000180: 0000 0000 0000 0000 0000 0000 0000 0000
00000190: 0000 0000 0000 0000 0000 0000 0000 0000
000001a0: 0000 0000 0000 0000 0000 0000 0000 0000
000001b0: 0000 0000 0000 0000 0000 0000 0000 0000
000001c0: 0000 0000 0000 0000 0000 0000 0000 0000
000001d0: 0000 0000 0000 0000 0000 0000 0000 0000
000001e0: 0000 0000 0000 0000 0000 0000 0000 0000
000001f0: 0000 0000 0000 0000 0000 0000 0000 0000
00000200: 0000 0000 0000 0000 0000 0000 0000 0000
00000210: 0000 0000 0000 0000 0000 0000 0000 0000
00000220: 0000 0000 0000 0000 0000 0000 0000 0000
00000230: 0000 0000 0000 0000 0000 0000 0000 0000
00000240: 0000 0000 0000 0000 0000 0000 0000 0000
00000250: 0000 0000 0000 0000 0000 0000 0000 0000
00000260: 0000 0000 0000 0000 0000 0000 0000 0000
00000270: 0000 0000 0000 0000 0000 0000 0000 0000
00000280: 0000 0000 0000 0000 0000 0000 0000 0000
00000290: 0000 0000 0000 0000 0000 0000 0000 0000
000002a0: 0000 0000 0000 0000 0000 0000 0000 0000
000002b0: 0000 0000 0000 0000 0000 0000 0000 0000
000002c0: 0000 0000 0000 0000 0000 0000 0000 0000
000002d0: 0000 0000 0000 0000 0000 0000 0000 0000
000002e0: 0000 0000 0000 0000 0000 0000 0000 0000
000002f0: 0000 0000 0000 0000 0000 0000 0000 0000
00000300: 0000 0000 0000 0000 0000 0000 0000 0000
00000310: 0000 0000 0000 0000 0000 0000 0000 0000
00000320: 0000 0000 0000 0000 0000 0000 0000 0000
00000330: 0000 0000 0000 0000 0000 0000 0000 0000
00000340: 0000 0000 0000 0000 0000 0000 0000 0000
00000350: 0000 0000 0000 0000 0000 0000 0000 0000
00000360: 0000 0000 0000 0000 0000 0000 0000 0000
00000370: 0000 0000 0000 0000 0000 0000 0000 0000
00000380: 0000 0000 0000 0000 0000 0000 0000 0000
00000390: 0000 0000 0000 0000 0000 0000 0000 0000
000003a0: 0000 0000 0000 0000 0000 0000 0000 0000
000003b0: 0000 0000 0000 0000 0000 0000 0000 0000
000003c0: 0000 0000 0000 0000 0000 0000 0000 0000
000003d0: 0000 0000 0000 0000 0000 0000 0000 0000
000003e0: 0000 0000 0000 0000 0000 0000 0000 0000
000003f0: 0000 0000 0000 0000 0000 0000 0000 0000
0.0 0.0 0.0 0.0 0.0 0.0 0.0 0.0
0.0 0.0 0.0 0.0 0.0 0.0 0.0 0.0
0.0 0.0 0.0 0.0 0.0 0.0 0.0 0.0
0.0 0.0 0.0 0.0 0.0 0.0 0.0 0.0
0.0 0.0 0.0 0.0 0.0 0.0 0.0 0.0
0.0 0.0 0.0 0.0 0.0 0.0 0.0 0.0
0.0 0.0 0.0 0.0 0.0 0.0 0.0 0.0
0.0 0.0 0.0 0.0 0.0 0.0 0.0 0.0
0.0 0.0 0.0 0.0 0.0 0.0 0.0 0.0
0.0 0.0 0.0 0.0 0.0 0.0 0.0 0.0
0.0 0.0 0.0 0.0 0.0 0.0 0.0 0.0
0.0 0.0 0.0 0.0 0.0 0.0 0.0 0.0
0.0 0.0 0.0 0.0 0.0 0.0 0.0 0.0
0.0 0.0 0.0 0.0 0.0 0.0 0.0 0.0
0.0 0.0 0.0 0.0 0.0 0.0 0.0 0.0
0.0 0.0 0.0 0.0 0.0 0.0 0.0 0.0
0.0 0.0 0.0 0.0 0.0 0.0 0.0 0.0
0.0 0.0 0.0 0.0 0.0 0.0 0.0 0.0
0.0 0.0 0.0 0.0 0.0 0.0 0.0 0.0
0.0 0.0 0.0 0.0 0.0 0.0 0.0 0.0
0.0 0.0 0.0 0.0 0.0 0.0 0.0 0.0
0.0 0.0 0.0 0.0 0.0 0.0 0.0 0.0
0.0 0.0 0.0 0.0 0.0 0.0 0.0 0.0
0.0 0.0 0.0 0.0 0.0 0.0 0.0 0.0
0.0 0.0 0.0 0.0 0.0 0.0 0.0 0.0
0.0 0.0 0.0 0.0 0.0 0.0 0.0 0.0
0.0 0.0 0.0 0.0 0.0 0.0 0.0 0.0
0.0 0.0 0.0 0.0 0.0 0.0 0.0 0.0
0.0 0.0 0.0 0.0 0.0 0.0 0.0 0.0
0.0 0.0 0.0 0.0 0.0 0.0 0.0 0.0
0.0 0.0 0.0 0.0 0.0 0.0 0.0 0.0
0.0 0.0 0.0 0.0 0.0 0.0 0.0 0.0

net.3.weight f4 [256, 256]
00000000: 288f cebc 5266 35bd 64db f13c e05e ab3b
00000010: b0df 3dbd 7a6f 733d 700c 8bbc d855 60bc
00000020: 4c58 043d 864a 41bd fc86 50bd cee3 033d
00000030: a0a5 6ebc 30fe d0bc 6e77 77bd 4a40 7b3d
00000040: 24c4 2fbd 50c9 c6bc 8c72 84bc 309e f4bc
00000050: e090 87bb dc52 c9bc fa2a 41bd a882 043c
00000060: 2892 91bc e84d 57bd 8208 393d e069 84bc
00000070: c0cb a93c d0e7 b63c 68ba 77bd 4039 273b
00000080: b435 de3c f8b4 093c 1620 79bd 84dc 9b3c
00000090: 00ae 46bc c091 ed3a a054 10bd 04be c7bc
000000a0: 7277 78bd 7c12 b93c 368b 26bd 2845 f23c
000000b0: d0d8 87bc b0e3 77bc 8059 aabc 307e 3fbc
000000c0: 4c36 03bd 9860 24bc cefa 463d 2c02 86bc
000000d0: e0c1 773b cefe 1e3d 8085 4c3c 58f8 213c
000000e0: 4c69 6cbd b8f3 af3c 08c9 3b3c d83f 47bc
000000f0: e82c 6d3d eaec 6a3d 9ca7 b43c 0291 6fbd
00000100: 40f3 d8ba f0b8 82bc 18fb 1b3c 78ba 40bc
00000110: 587f 473d 94bc ce3c 38c8 50bc 5034 a53b
00000120: 42ec 15bd c492 943c d4f6 ff3c 529b 6a3d
00000130: 74e4 bc3c 8e9b 5a3d 8040 3cba d008 513d
00000140: 8093 ccbb 5c5f bf3c 0eb2 133d 5802 4fbc
00000150: e01d 36bb f469 403d 70a4 863b 723b 0dbd
00000160: 9c48 47bd 986e 7bbd ec97 2e3d a4a0 15bd
00000170: 94e2 74bd 6c87 95bc 0099 8cbb c825 b7bc
00000180: 84d6 0ebd 6050 2c3c 189a 4cbd 0464 9cbc
00000190: f891 11bd c86e 063c e2db 22bd 3e4a 7e3d
000001a0: 5a9c 2d3d 74b4 42bd 5aad 4fbd 9e05 683d
000001b0: ca4b 7d3d d2ee 63bd 06a7 12bd 2086 443c
000001c0: 5a29 513d 46c4 6bbd ae11 20bd d030 e6bc
000001d0: aaab 57bd de05 7d3d c0ba 2fbc 30a4 3dbc
000001e0: 9092 57bd 90b5 5ebd b837 253d 145b 0b3d
000001f0: d879 ed3c 88f4 dcbc 96a8 043d bcb4 613d
00000200: 98ae 35bc 36b1 283d 8e3e 06bd 2cdd 743d
00000210: 18dd 2f3d f876 533c 6e25 703d f882 74bd
00000220: fc4f 8bbc 0ca5 863c 54c6 693d d096 97bb
00000230: 6800 853c 6ccf 7abd baf1 7fbd 0eab 7c3d
00000240: a827 453c 94be 1f3d 10d9 f5bb d49b 22bd
00000250: b816 453c 60de 9b3c b273 16bd c073 c43c
00000260: 74d9 4f3d 987d 38bc cc5c efbc 3049 2a3c
00000270: b06c 213c 4e0d 5d3d 0234 793d 8a7d 2b3d
00000280: 8020 133d a43e b33c 6ac2 623d 4473 f5bc
00000290: 9c9e 9e3c cc39 be3c 984d c1bc b014 78bd
000002a0: 30c6 513d 52c5 39bd a682 6f3d a047 42bc
000002b0: 9a00 743d 1c72 03bd 7082 aabc 6844 133d
000002c0: c081 293b 9c3c 48bd dcd0 abbc dea7 3f3d
000002d0: c83b 3cbd 5e61 4f3d b00e 76bd 540b 393d
000002e0: c007 5b3b d4c7 3a3d 6840 7cbc 7477 65bd
000002f0: b08a 293c c047 8b3c 6803 41bd f89f 54bc
00000300: a2ac 423d 1a6d 1bbd 08a2 6e3c 20fa 60bd
00000310: 187a 22bc 5e37 38bd 283d 3a3c 602c 34bc
00000320: 6c90 2ebd a864 15bd 4018 66bd 06fa 0e3d
00000330: 06ee 6a3d 149a 4d3d d0e0 04bd 3035 bf3b
00000340: f207 2fbd 0e5d 4fbd d800 97bc c67d 6abd
00000350: 0c1d 013d 7871 21bd c425 42bd 18e6 c1bc
00000360: 5227 2d3d 00f6 37bc 3abb 3e3d f48a d03c
00000370: c4d1 833c 9c68 493d 80ca 0c3b 70b7 f93b
00000380: 1409 0e3d fe4d 6ebd 9473 aebc 30ba 93bb
00000390: d0eb 66bc e49e a33c ba22 103d 503b 38bc
000003a0: 9c82 b53c 44ad 913c cca9 453d 3006 2dbc
000003b0: 7c2c ba3c 9a72 79bd 2822 023c 8c79 443d
000003c0: 0873 4fbd 760a 0cbd a824 5ebd 94b6 563d
000003d0: a8e3 35bd f0a5 b23b 5884 4cbc 8eaf 2dbd
000003e0: 44f3 243d bea1 15bd 5c97 b7bc d44f 9cbc
000003f0: 3880 b73c d02a 5dbc 4261 66bd d0e1 4a3d
-0.025214747 -0.044287033 0.029523559 0.005229816 -0.046355903 0.059432484 -0.016973704 -0.013692342
0.03231077 -0.04719021 -0.05090998 0.032199673 -0.014565855 -0.025511831 -0.06041663 0.061340608
-0.042911664 -0.024265915 -0.016167901 -0.029860586 -0.0041371435 -0.024575643 -0.047160126 0.0080877915
-0.017769888 -0.05256453 0.04517413 -0.016163766 0.020727038 0.022327334 -0.060480505 0.0025516301
0.027125217 0.008404963 -0.060821615 0.019026048 -0.012126446 0.0018125102 -0.035236955 -0.024382599
-0.060660787 0.022591822 -0.040660106 0.029573992 -0.016582876 -0.0151299685 -0.02079463 -0.0116878
-0.032034203 -0.010032795 0.04857903 -0.016358458 0.0037804767 0.03881722 0.012483001 0.00988587
-0.057717606 0.021478519 0.011461504 -0.012161218 0.057904154 0.057354845 0.022052579 -0.0584879
-0.0016551986 -0.015957326 0.009520315 -0.011763208 0.04870543 0.025236405 -0.012743048 0.0050416365
-0.036602266 0.01813639 0.031245627 0.05727703 0.023058154 0.053371005 -0.0007181242 0.051033795
-0.0062431693 0.0233609 0.036058478 -0.012634836 -0.0027788803 0.046976045 0.004108958 -0.03448052
-0.04865323 -0.061384767 0.042625353 -0.036530152 -0.059786394 -0.01825305 -0.0042907 -0.022356883
-0.034872547 0.01051721 -0.049951643 -0.01909066 -0.035539597 0.008205123 -0.039760478 0.06208252
0.042385437 -0.047535375 -0.05070243 0.056645982 0.061839856 -0.05564768 -0.035803817 0.0119948685
0.051064827 -0.057560228 -0.03907936 -0.028099447 -0.052653946 0.061773174 -0.010725677 -0.01157479
-0.052630007 -0.05437237 0.04033634 0.034022406 0.028988764 -0.02697207 0.03238734 0.055104002
-0.01108899 0.041184627 -0.0327745 0.05978124 0.04293546 0.012906782 0.058629446 -0.059695214
-0.017005913 0.016436122 0.057073906 -0.0046261325 0.016235545 -0.06123297 -0.062486388 0.061686568
0.012033381 0.03900011 -0.0075026825 -0.03969939 0.012029342 0.019026935 -0.03673143 0.023980975
0.05074449 -0.011260413 -0.029219054 0.010393426 0.009852573 0.053967766 0.060840614 0.04186777
0.035919666 0.021880455 0.05536119 -0.02996219 0.01936274 0.02322092 -0.02359657 -0.060566604
0.051214397 -0.045354195 0.058474205 -0.011857897 0.059570886 -0.032091245 -0.02081415 0.03595391
0.002586469 -0.048885927 -0.020973615 0.04679095 -0.04595545 0.050629966 -0.0600726 0.04517682
0.0033421367 0.045600727 -0.015396215 -0.056022123 0.010348007 0.017001987 -0.04712239 -0.012977593
0.047527917 -0.037945844 0.014564998 -0.054926038 -0.009916805 -0.044974677 0.01136712 -0.010996908
-0.0426182 -0.036472946 -0.05617547 0.03490641 0.057355903 0.05019577 -0.03244096 0.005835198
-0.042732187 -0.050625853 -0.01843302 -0.057248853 0.031521842 -0.039414853 -0.047399297 -0.023669288
0.042273827 -0.011228085 0.046565272 0.025456883 0.016091235 0.04917203 0.0021483004 0.0076207444
0.034676626 -0.058179848 -0.021295346 -0.0045082793 -0.014094308 0.019973226 0.035189368 -0.01124461
0.022157006 0.017782815 0.048257634 -0.010560557 0.02272629 -0.06090031 0.007942714 0.04796748
-0.05064681 -0.034189664 -0.054234177 0.052420214 -0.044406563 0.00545191 -0.012482725 -0.04240375
0.04027106 -0.036531202 -0.022411041 -0.019081034 0.022400007 -0.013498977 -0.056245096 0.049531758

net.3.bias f4 [256]
00000000: 9eb3 223d 98f8 4dbc c6e0 373d b0b0 51bd
00000010: d8bc 17bd f4f5 7f3d c8da 0d3c 90d3 bebc
00000020: 10fa babc ac80 c03c d856 963c 1c49 c43c
00000030: 80a8 b43b 087e 7d3d 120c 0b3d 80cc dd3c
00000040: d67c 54bd a8b4 523d 98cc 18bd 8aab 2d3d
00000050: aecd 6dbd 12d9 643d 38e4 b7bc a0e3 b3bc
00000060: 5467 363d ca79 073d 98d6 6cbc b0c8 47bd
00000070: 4c05 45bd d6a9 313d e0d2 babc d01b 503c
00000080: c857 7c3c fc00 e33c 9e18 0c3d 6cf1 073d
00000090: 3e37 253d 942c 56bd 8c2a e83c e0e4 c7bb
000000a0: ccb0 a8bc c855 77bd 0043 123a 3031 39bd
000000b0: f840 44bd d814 d1bc e898 be3c e0f3 3b3c
000000c0: dc4b 91bc c278 30bd ba75 57bd 3c0b adbc
000000d0: 94ec 993c 563e 483d 208f d23c 0600 263d
000000e0: e8fe b1bc c0d7 1fbb 0023 983c 20c8 80bb
000000f0: e83f 543d e0f7 f03b 420a 613d f8d8 73bc
00000100: c25a 27bd 90ab 2cbc 9af3 473d 50a6 adbc
00000110: 5c96 6bbd 2ed8 6ebd 4679 4ebd d29c 32bd
00000120: 2890 d2bc 0098 0aba 5c5c 3e3d f8bf 34bd
00000130: 688c f33c 503a 40bd 8097 b33c a0b7 953c
00000140: 7256 47bd 6ab0 39bd d439 b83c 9a13 5c3d
00000150: 66ab 44bd a048 83bc 480c 243d 4079 863c
00000160: 5ab8 753d b0e0 5cbd ce0f 2d3d 8041 87bb
00000170: 003f db3c a016 f5bc d8a6 943c fc25 46bd
00000180: 627b 03bd d8b3 06bc 14d3 b4bc 3ab1 57bd
00000190: b07d 7e3c 4019 6cbd d82b 5f3c 628f 743d
000001a0: ae4b 7ebd 8a15 6cbd f03d 533c f01b 39bc
000001b0: 6881 55bc b487 7f3d 108f 693d 28d7 cf3c
000001c0: 2200 293d 5883 183d f47c 71bd 1c76 bd3c
000001d0: 6449 b9bc c0fe f33b c224 113d 0c1f a93c
000001e0: 08b7 323c 4efa 413d e47a 763d d856 e7bc
000001f0: 041e c23c 42d5 22bd a0ca 213d ecea 483d
00000200: b49b ce3c 8e16 773d 6ca0 62bd 8030 a63c
00000210: e4ae d13c 1404 56bd 7817 063d 6ce6 9a3c
00000220: 1877 b33c 22da 1abd 4a1d 6cbd 2c5b 7e3d
00000230: bcbd 0b3d 9461 f9bc 003e 22ba 145f 9fbc
00000240: d0f9 903c 40f0 d0bc f87e 863c 0088 4739
00000250: 0e53 0a3d 1096 5f3d 30b8 e63c 6c27 6a3d
00000260: 0c53 e2bc 4ad1 2d3d 8c0d 29bd 081e 70bd
00000270: 289b de3c c070 a4bb b034 053c 8891 05bd
00000280: 56e6 183d ac42 f2bc 3aab 763d 001b 9c3c
00000290: 0028 773a 2848 d3bc 4a55 633d 7211 27bd
000002a0: 5e64 393d ea48 6abd 82c8 493d 8624 01bd
000002b0: 4013 53bc 189d 473c 802a 0abb 4a54 4e3d
000002c0: e0fb d4bc d059 be3b 2449 153d 5087 953c
000002d0: ee73 45bd 4899 173c 72f1 4dbd 52ea 203d
000002e0: 1c24 b9bc dc81 81bc d8b0 6dbd c082 c5bb
000002f0: c07d faba 1067 363c 149d 9cbc b8ef 01bd
00000300: 44ec 4dbd 80c7 b73a d62a 0c3d e299 47bd
00000310: 90d6 bfbc 44d2 733d d211 563d 7ef3 36bd
00000320: 8c9b 443d 38e5 4e3d 00f2 a139 a0c5 1bbc
00000330: b818 c33c 30da e63c 1ca6 d93c f0e6 09bd
00000340: 2087 983b eca2 05bd 54d4 11bd f084 293c
00000350: d0c0 24bd 0ec5 1e3d bc0c 0e3d f2c1 7cbd
00000360: 881e d5bc 2093 163c d054 9a3b ae65 03bd
00000370: aac0 0abd eac1 73bd 3414 5d3d c06e 0c3d
00000380: d464 033d 003b aabb 0072 ec39 be86 453d
00000390: 188a dd3c 7cf0 ddbc 5c9b 073d 6cf8 71bd
000003a0: a89f c43c 2a05 2abd 3ecb 30bd 787e 3f3c
000003b0: b0ae 493d d05b 6d3c c87c d8bc aa42 64bd
000003c0: 20fc 3bbb ec36 043d ca8d 233d 9c00 0f3d
000003d0: 1cd9 eabc aca2 cbbc 00a8 8c3a d0a3 3abd
000003e0: 3cf2 3e3d e048 ae3b 2000 6dbc 9a16 213d
000003f0: d879 5e3c fc1c d2bc c64d 403d ba9a 5ebd
0.039722078 -0.012571476 0.044892095 -0.051193893 -0.03704533 0.06249042 0.008658119 -0.02329424
-0.022824317 0.023498856 0.018351957 0.023960643 0.005513251 0.06188777 0.033947058 0.027075052
-0.051876865 0.05144182 -0.03730449 0.04239992 -0.05805748 0.055871077 -0.02244769 -0.021959126
0.044532135 0.03307513 -0.01445546 -0.048775375 -0.048100755 0.04337486 -0.022805631 0.0127019435
0.015401788 0.02771043 0.034203164 0.033189222 0.040335886 -0.052288607 0.0283406 -0.006100282
-0.020592116 -0.06038454 0.0005579442 -0.045212924 -0.04791352 -0.025522634 0.02326627 0.011471719
-0.017736368 -0.043083914 -0.052602507 -0.021123521 0.018789567 0.048887573 0.025703013 0.040527366
-0.021727994 -0.0024390072 0.018571377 -0.0039301068 0.05181876 0.0073537678 0.054941423 -0.014883272
-0.040858038 -0.010538951 0.0488163 -0.021197468 -0.05751644 -0.058311634 -0.050408624 -0.043606587
-0.025703505 -0.0005286932 0.0464748 -0.04412839 0.029730037 -0.04693061 0.021922827 0.018276036
-0.048666425 -0.045334257 0.022488512 0.05372963 -0.04801502 -0.016025841 0.040050775 0.016415238
0.059990264 -0.053925216 0.0422514 -0.0041276813 0.02676344 -0.029918015 0.018145964 -0.04837607
-0.03210009 -0.008221589 -0.022073306 -0.05265925 0.015532896 -0.057641268 0.013621293 0.059707053
-0.062083893 -0.05763773 0.012893185 -0.011298165 -0.013031341 0.062385276 0.0570212 0.02537115
0.041259892 0.037234634 -0.058957055 0.023127608 -0.022618003 0.00744614 0.035435446 0.020644687
0.010907896 0.04735785 0.06017579 -0.028239653 0.023695953 -0.03975416 0.03949988 0.049052164
0.02522073 0.060324244 -0.05532877 0.020286798 0.02559609 -0.052249983 0.032737225 0.018908702
0.021907374 -0.037805684 -0.05764512 0.062098667 0.03411649 -0.030442037 -0.0006189048 -0.019454516
0.017697245 -0.025505185 0.016417965 0.00019028783 0.033770613 0.05458647 0.028164 0.057166502
-0.02762749 0.04243592 -0.041272685 -0.05862239 0.027173594 -0.0050183237 0.008130237 -0.032609493
0.03732904 -0.029572807 0.060221888 0.019055843 0.0009428263 -0.025791243 0.05550126 -0.04078812
0.045261733 -0.057198443 0.049263485 -0.031528972 -0.0128830075 0.01218345 -0.002108246 0.050373353
-0.02599901 0.0058090463 0.036446705 0.018252999 -0.048206262 0.009252854 -0.05027909 0.039285965
-0.022600226 -0.015808992 -0.05802998 -0.0060275495 -0.0019110963 0.01113297 -0.01911787 -0.031722754
-0.05027415 0.0014021248 0.03422054 -0.04873074 -0.023417741 0.059526697 0.05226309 -0.044665806
0.047999904 0.05051157 0.00030888617 -0.009507567 0.023815498 0.028180212 0.026568465 -0.033667505
0.00465478 -0.032626078 -0.035602883 0.010346636 -0.040222943 0.038762145 0.034680113 -0.0617084
-0.026015535 0.009190351 0.0047098175 -0.03207939 -0.033875145 -0.059511103 0.053974345 0.034285307
0.03207858 -0.0051950216 0.00045098364 0.048224203 0.027043387 -0.027092211 0.033107147 -0.059074804
0.024001911 -0.04150883 -0.043162577 0.011687867 0.04923886 0.014487222 -0.026426688 -0.05572764
-0.0028684214 0.03227894 0.039930142 0.03491269 -0.028667979 -0.024857841 0.001073122 -0.04556638
0.04661773 0.005318746 -0.014465362 0.039328195 0.0135788545 -0.025648586 0.04694917 -0.054346777

net.4.weight f4 [256]
00000000: 0000 803f 0000 803f 0000 803f 0000 803f
00000010: 0000 803f 0000 803f 0000 803f 0000 803f
00000020: 0000 803f 0000 803f 0000 803f 0000 803f
00000030: 0000 803f 0000 803f 0000 803f 0000 803f
00000040: 0000 803f 0000 803f 0000 803f 0000 803f
00000050: 0000 803f 0000 803f 0000 803f 0000 803f
00000060: 0000 803f 0000 803f 0000 803f 0000 803f
00000070: 0000 803f 0000 803f 0000 803f 0000 803f
00000080: 0000 803f 0000 803f 0000 803f 0000 803f
00000090: 0000 803f 0000 803f 0000 803f 0000 803f
000000a0: 0000 803f 0000 803f 0000 803f 0000 803f
000000b0: 0000 803f 0000 803f 0000 803f 0000 803f
000000c0: 0000 803f 0000 803f 0000 803f 0000 803f
000000d0: 0000 803f 0000 803f 0000 803f 0000 803f
000000e0: 0000 803f 0000 803f 0000 803f 0000 803f
000000f0: 0000 803f 0000 803f 0000 803f 0000 803f
00000100: 0000 803f 0000 803f 0000 803f 0000 803f
00000110: 0000 803f 0000 803f 0000 803f 0000 803f
00000120: 0000 803f 0000 803f 0000 803f 0000 803f
00000130: 0000 803f 0000 803f 0000 803f 0000 803f
00000140: 0000 803f 0000 803f 0000 803f 0000 803f
00000150: 0000 803f 0000 803f 0000 803f 0000 803f
00000160: 0000 803f 0000 803f 0000 803f 0000 803f
00000170: 0000 803f 0000 803f 0000 803f 0000 803f
00000180: 0000 803f 0000 803f 0000 803f 0000 803f
00000190: 0000 803f 0000 803f 0000 803f 0000 803f
000001a0: 0000 803f 0000 803f 0000 803f 0000 803f
000001b0: 0000 803f 0000 803f 0000 803f 0000 803f
000001c0: 0000 803f 0000 803f 0000 803f 0000 803f
000001d0: 0000 803f 0000 803f 0000 803f 0000 803f
000001e0: 0000 803f 0000 803f 0000 803f 0000 803f
000001f0: 0000 803f 0000 803f 0000 803f 0000 803f
00000200: 0000 803f 0000 803f 0000 803f 0000 803f
00000210: 0000 803f 0000 803f 0000 803f 0000 803f
00000220: 0000 803f 0000 803f 0000 803f 0000 803f
00000230: 0000 803f 0000 803f 0000 803f 0000 803f
00000240: 0000 803f 0000 803f 0000 803f 0000 803f
00000250: 0000 803f 0000 803f 0000 803f 0000 803f
00000260: 0000 803f 0000 803f 0000 803f 0000 803f
00000270: 0000 803f 0000 803f 0000 803f 0000 803f
00000280: 0000 803f 0000 803f 0000 803f 0000 803f
00000290: 0000 803f 0000 803f 0000 803f 0000 803f
000002a0: 0000 803f 0000 803f 0000 803f 0000 803f
000002b0: 0000 803f 0000 803f 0000 803f 0000 803f
000002c0: 0000 803f 0000 803f 0000 803f 0000 803f
000002d0: 0000 803f 0000 803f 0000 803f 0000 803f
000002e0: 0000 803f 0000 803f 0000 803f 0000 803f
000002f0: 0000 803f 0000 803f 0000 803f 0000 803f
00000300: 0000 803f 0000 803f 0000 803f 0000 803f
00000310: 0000 803f 0000 803f 0000 803f 0000 803f
00000320: 0000 803f 0000 803f 0000 803f 0000 803f
00000330: 0000 803f 0000 803f 0000 803f 0000 803f
00000340: 0000 803f 0000 803f 0000 803f 0000 803f
00000350: 0000 803f 0000 803f 0000 803f 0000 803f
00000360: 0000 803f 0000 803f 0000 803f 0000 803f
00000370: 0000 803f 0000 803f 0000 803f 0000 803f
00000380: 0000 803f 0000 803f 0000 803f 0000 803f
00000390: 0000 803f 0000 803f 0000 803f 0000 803f
000003a0: 0000 803f 0000 803f 0000 803f 0000 803f
000003b0: 0000 803f 0000 803f 0000 803f 0000 803f
000003c0: 0000 803f 0000 803f 0000 803f 0000 803f
000003d0: 0000 803f 0000 803f 0000 803f 0000 803f
000003e0: 0000 803f 0000 803f 0000 803f 0000 803f
000003f0: 0000 803f 0000 803f 0000 803f 0000 803f
1.0 1.0 1.0 1.0 1.0 1.0 1.0 1.0
1.0 1.0 1.0 1.0 1.0 1.0 1.0 1.0
1.0 1.0 1.0 1.0 1.0 1.0 1.0 1.0
1.0 1.0 1.0 1.0 1.0 1.0 1.0 1.0
1.0 1.0 1.0 1.0 1.0 1.0 1.0 1.0
1.0 1.0 1.0 1.0 1.0 1.0 1.0 1.0
1.0 1.0 1.0 1.0 1.0 1.0 1.0 1.0
1.0 1.0 1.0 1.0 1.0 1.0 1.0 1.0
1.0 1.0 1.0 1.0 1.0 1.0 1.0 1.0
1.0 1.0 1.0 1.0 1.0 1.0 1.0 1.0
1.0 1.0 1.0 1.0 1.0 1.0 1.0 1.0
1.0 1.0 1.0 1.0 1.0 1.0 1.0 1.0
1.0 1.0 1.0 1.0 1.0 1.0 1.0 1.0
1.0 1.0 1.0 1.0 1.0 1.0 1.0 1.0
1.0 1.0 1.0 1.0 1.0 1.0 1.0 1.0
1.0 1.0 1.0 1.0 1.0 1.0 1.0 1.0
1.0 1.0 1.0 1.0 1.0 1.0 1.0 1.0
1.0 1.0 1.0 1.0 1.0 1.0 1.0 1.0
1.0 1.0 1.0 1.0 1.0 1.0 1.0 1.0
1.0 1.0 1.0 1.0 1.0 1.0 1.0 1.0
1.0 1.0 1.0 1.0 1.0 1.0 1.0 1.0
1.0 1.0 1.0 1.0 1.0 1.0 1.0 1.0
1.0 1.0 1.0 1.0 1.0 1.0 1.0 1.0
1.0 1.0 1.0 1.0 1.0 1.0 1.0 1.0
1.0 1.0 1.0 1.0 1.0 1.0 1.0 1.0
1.0 1.0 1.0 1.0 1.0 1.0 1.0 1.0
1.0 1.0 1.0 1.0 1.0 1.0 1.0 1.0
1.0 1.0 1.0 1.0 1.0 1.0 1.0 1.0
1.0 1.0 1.0 1.0 1.0 1.0 1.0 1.0
1.0 1.0 1.0 1.0 1.0 1.0 1.0 1.0
1.0 1.0 1.0 1.0 1.0 1.0 1.0 1.0
1.0 1.0 1.0 1.0 1.0 1.0 1.0 1.0

net.4.bias f4 [256]
00000000: 0000 0000 0000 0000 0000 0000 0000 0000
00000010: 0000 0000 0000 0000 0000 0000 0000 0000
00000020: 0000 0000 0000 0000 0000 0000 0000 0000
00000030: 0000 0000 0000 0000 0000 0000 0000 0000
00000040: 0000 0000 0000 0000 0000 0000 0000 0000
00000050: 0000 0000 0000 0000 0000 0000 0000 0000
00000060: 0000 0000 0000 0000 0000 0000 0000 0000
00000070: 0000 0000 0000 0000 0000 0000 0000 0000
00000080: 0000 0000 0000 0000 0000 0000 0000 0000
00000090: 0000 0000 0000 0000 0000 0000 0000 0000
000000a0: 0000 0000 0000 0000 0000 0000 0000 0000
000000b0: 0000 0000 0000 0000 0000 0000 0000 0000
000000c0: 0000 0000 0000 0000 0000 0000 0000 0000
000000d0: 0000 0000 0000 0000 0000 0000 0000 0000
000000e0: 0000 0000 0000 0000 0000 0000 0000 0000
000000f0: 0000 0000 0000 0000 0000 0000 0000 0000
00000100: 0000 0000 0000 0000 0000 0000 0000 0000
00000110: 0000 0000 0000 0000 0000 0000 0000 0000
00000120: 0000 0000 0000 0000 0000 0000 0000 0000
00000130: 0000 0000 0000 0000 0000 0000 0000 0000
00000140: 0000 0000 0000 0000 0000 0000 0000 0000
00000150: 0000 0000 0000 0000 0000 0000 0000 0000
00000160: 0000 0000 0000 0000 0000 0000 0000 0000
00000170: 0000 0000 0000 0000 0000 0000 0000 0000
00000180: 0000 0000 0000 0000 0000 0000 0000 0000
00000190: 0000 0000 0000 0000 0000 0000 0000 0000
000001a0: 0000 0000 0000 0000 0000 0000 0000 0000
000001b0: 0000 0000 0000 0000 0000 0000 0000 0000
000001c0: 0000 0000 0000 0000 0000 0000 0000 0000
000001d0: 0000 0000 0000 0000 0000 0000 0000 0000
000001e0: 0000 0000 0000 0000 0000 0000 0000 0000
000001f0: 0000 0000 0000 0000 0000 0000 0000 0000
00000200: 0000 0000 0000 0000 0000 0000 0000 0000
00000210: 0000 0000 0000 0000 0000 0000 0000 0000
00000220: 0000 0000 0000 0000 0000 0000 0000 0000
00000230: 0000 0000 0000 0000 0000 0000 0000 0000
00000240: 0000 0000 0000 0000 0000 0000 0000 0000
00000250: 0000 0000 0000 0000 0000 0000 0000 0000
00000260: 0000 0000 0000 0000 0000 0000 0000 0000
00000270: 0000 0000 0000 0000 0000 0000 0000 0000
00000280: 0000 0000 0000 0000 0000 0000 0000 0000
00000290: 0000 0000 0000 0000 0000 0000 0000 0000
000002a0: 0000 0000 0000 0000 0000 0000 0000 0000
000002b0: 0000 0000 0000 0000 0000 0000 0000 0000
000002c0: 0000 0000 0000 0000 0000 0000 0000 0000
000002d0: 0000 0000 0000 0000 0000 0000 0000 0000
000002e0: 0000 0000 0000 0000 0000 0000 0000 0000
000002f0: 0000 0000 0000 0000 0000 0000 0000 0000
00000300: 0000 0000 0000 0000 0000 0000 0000 0000
00000310: 0000 0000 0000 0000 0000 0000 0000 0000
00000320: 0000 0000 0000 0000 0000 0000 0000 0000
00000330: 0000 0000 0000 0000 0000 0000 0000 0000
00000340: 0000 0000 0000 0000 0000 0000 0000 0000
00000350: 0000 0000 0000 0000 0000 0000 0000 0000
00000360: 0000 0000 0000 0000 0000 0000 0000 0000
00000370: 0000 0000 0000 0000 0000 0000 0000 0000
00000380: 0000 0000 0000 0000 0000 0000 0000 0000
00000390: 0000 0000 0000 0000 0000 0000 0000 0000
000003a0: 0000 0000 0000 0000 0000 0000 0000 0000
000003b0: 0000 0000 0000 0000 0000 0000 0000 0000
000003c0: 0000 0000 0000 0000 0000 0000 0000 0000
000003d0: 0000 0000 0000 0000 0000 0000 0000 0000
000003e0: 0000 0000 0000 0000 0000 0000 0000 0000
000003f0: 0000 0000 0000 0000 0000 0000 0000 0000
0.0 0.0 0.0 0.0 0.0 0.0 0.0 0.0
0.0 0.0 0.0 0.0 0.0 0.0 0.0 0.0
0.0 0.0 0.0 0.0 0.0 0.0 0.0 0.0
0.0 0.0 0.0 0.0 0.0 0.0 0.0 0.0
0.0 0.0 0.0 0.0 0.0 0.0 0.0 0.0
0.0 0.0 0.0 0.0 0.0 0.0 0.0 0.0
0.0 0.0 0.0 0.0 0.0 0.0 0.0 0.0
0.0 0.0 0.0 0.0 0.0 0.0 0.0 0.0
0.0 0.0 0.0 0.0 0.0 0.0 0.0 0.0
0.0 0.0 0.0 0.0 0.0 0.0 0.0 0.0
0.0 0.0 0.0 0.0 0.0 0.0 0.0 0.0
0.0 0.0 0.0 0.0 0.0 0.0 0.0 0.0
0.0 0.0 0.0 0.0 0.0 0.0 0.0 0.0
0.0 0.0 0.0 0.0 0.0 0.0 0.0 0.0
0.0 0.0 0.0 0.0 0.0 0.0 0.0 0.0
0.0 0.0 0.0 0.0 0.0 0.0 0.0 0.0
0.0 0.0 0.0 0.0 0.0 0.0 0.0 0.0
0.0 0.0 0.0 0.0 0.0 0.0 0.0 0.0
0.0 0.0 0.0 0.0 0.0 0.0 0.0 0.0
0.0 0.0 0.0 0.0 0.0 0.0 0.0 0.0
0.0 0.0 0.0 0.0 0.0 0.0 0.0 0.0
0.0 0.0 0.0 0.0 0.0 0.0 0.0 0.0
0.0 0.0 0.0 0.0 0.0 0.0 0.0 0.0
0.0 0.0 0.0 0.0 0.0 0.0 0.0 0.0
0.0 0.0 0.0 0.0 0.0 0.0 0.0 0.0
0.0 0.0 0.0 0.0 0.0 0.0 0.0 0.0
0.0 0.0 0.0 0.0 0.0 0.0 0.0 0.0
0.0 0.0 0.0 0.0 0.0 0.0 0.0 0.0
0.0 0.0 0.0 0.0 0.0 0.0 0.0 0.0
0.0 0.0 0.0 0.0 0.0 0.0 0.0 0.0
0.0 0.0 0.0 0.0 0.0 0.0 0.0 0.0
0.0 0.0 0.0 0.0 0.0 0.0 0.0 0.0

net.6.weight f4 [3, 256]
00000000: 7eb4 313d 2894 3f3c f635 153d 7c55 a23c
00000010: c0de 963b 78fa 133c ec17 29bd 14b7 6c3d
00000020: 523c 683d 1242 003d 64df 91bc 5495 39bd
00000030: de2d 36bd 4036 123b aab9 02bd b4d5 213d
00000040: 9065 1ebc 6c47 a5bc 88f7 263d 3c37 ea3c
00000050: 1829 f7bc d036 89bb 40a2 94bc 80d4 c3ba
00000060: f0a3 ebbc 0caa e6bc 9aa0 273d 403d 62bd
00000070: e418 c33c 3811 18bc ba62 78bd fcd2 ab3c
00000080: b04d 69bc 8ae9 54bd f815 ae3c 10df be3c
00000090: c003 19bc 9648 413d 5830 4f3c c011 723c
000000a0: 705e 6dbc 780a dbbc 1490 5dbd b078 c0bb
000000b0: 90ba 45bd a02d 65bb 8053 633c 0e47 123d
000000c0: d4d8 373d c4d9 283d b0bd 7abc d0e0 debb
000000d0: ca9d 36bd aa3a 04bd 2299 70bd 567d 56bd
000000e0: 1e76 743d 029d 49bd 20d7 d03c 68b8 073d
000000f0: d0f9 323d 4c8b 8cbc 8880 65bc d65e 193d
00000100: 78e8 cabc f04c a0bb 5811 31bc acb5 6f3d
00000110: 66e0 623d b0d6 88bb 5087 abbb 70b7 a8bb
00000120: 3027 013d fcf4 143d f824 03bd 24d3 03bd
00000130: c0eb 3dbc 1c16 f23c c82f 16bd bef5 45bd
00000140: 4a36 00bd a451 9bbc 623c 1c3d 5082 bb3c
00000150: 1c8d 99bc dec7 5b3d 80ae 52bc 860a 6c3d
00000160: b462 cdbc 3ee7 5b3d 4685 373d 50e5 ce3b
00000170: ac36 053d d657 0bbd c4a1 963c bc6a c8bc
00000180: 4ac3 4a3d c8ec 87bc a0d8 f53c 68fb 1fbd
00000190: 446b f83c 2a3a 12bd 809e 313a ec62 0abd
000001a0: 80c1 c93b 4863 d9bc b0cf 52bc 6eae 43bd
000001b0: 50ff dbbc 88ec a13c 6036 6cbc 785e dbbc
000001c0: e889 4ebc 6026 4dbc cc03 9dbc d2d3 58bd
000001d0: a0d3 a33b be42 4c3d cad2 54bd 5acc 41bd
000001e0: c08c 2c3d 06b0 41bd a0c5 353d 149d 6dbd
000001f0: bcdd b43c 1413 29bd 00f8 39b9 a620 413d
00000200: c09a 0bbb 807b 323b 7c66 e93c ee91 3f3d
00000210: 8abe 153d 128d 253d 202b c73b 82d5 733d
00000220: 9074 133c 40da 173d 8066 90ba 802c 813b
00000230: d841 25bd 642b 2e3d a468 d53c 6667 263d
00000240: 34d5 233d 948a 9b3c 4c30 45bd 968d 08bd
00000250: 202b 02bc 606d 2abb e825 183d f848 6fbd
00000260: ccf4 b4bc 641b 86bc 748b a3bc 1451 c8bc
00000270: 8459 99bc 8044 65bc 70a1 c83c 8003 4f3d
00000280: 18b9 1a3d 48aa 20bc 426d 5a3d 707f fdbb
00000290: 684b 41bd a282 563d 884d 15bc b6fb 743d
000002a0: 38a5 18bc 7e0c 0cbd a448 f53c 64ad 9d3c
000002b0: 609e 74bc 9857 7abc 882c b6bc e03c ec3b
000002c0: c4f7 083d 744a f1bc e04f 31bd 300e e83b
000002d0: 3c1e dabc 0e35 2a3d 40aa acbc f2f1 53bd
000002e0: 9e90 52bd 74e8 103d 40b0 f0ba 0abd 60bd
000002f0: 4aa9 5ebd f0c5 4b3d e0cc 5a3b ce28 4c3d
00000300: d2c9 77bd a8b0 bcbc 9497 8a3c 0cd6 d63c
00000310: 1228 12bd fabc 3fbd 0433 d0bc 989d 7abd
00000320: a8f5 753d 92a1 74bd ae52 713d a002 703b
00000330: 385f 4cbc 78da 2f3d 58d3 3a3c 9017 0fbc
00000340: ca23 75bd 729d 3d3d 529f 773d 5e5b 493d
00000350: c8ae 5abd f0e0 a43c 9e64 5e3d a4fa 4cbd
00000360: 305b d0bc 7cae 353d 5a56 3ebd d623 19bd
00000370: bc0f 4dbd a80c b13c 3000 1c3d 206b 593b
00000380: 183c bb3c 9256 6abd f06e 6bbc 12bd 5a3d
00000390: d0d4 343c dc00 02bd 98eb aa3c b8d7 debc
000003a0: c4c6 50bd a877 563c 9c10 363d d4d4 d13c
000003b0: 60bf 283d ecbd 7e3d 8ceb c4bc d8b3 89bc
000003c0: 5298 113d ae18 5a3d 4681 46bd 200f a53b
000003d0: 846e 023d 9681 033d 8891 60bd 8e0f 0a3d
000003e0: 30e4 e3bb 2021 923b d8c1 e73c 92a9 4ebd
000003f0: c4f1 6dbd 2a6b 56bd 8058 033b 7e46 28bd
0.04338502 0.011693038 0.036428414 0.019816153 0.0046041906 0.009031884 -0.04128258 0.057791784
0.05669815 0.03131301 -0.017806716 -0.045308426 -0.044477336 0.0022310168 -0.031915344 0.039510444
-0.009667769 -0.020175658 0.040763408 0.02859079 -0.030170962 -0.0041874424 -0.018143773 -0.0014940649
-0.028764695 -0.028157257 0.040924646 -0.055234194 0.02381558 -0.009281449 -0.060641028 0.020974629
-0.014239714 -0.051980533 0.02125071 0.023299724 -0.009339273 0.047188364 0.012645803 0.01477474
-0.014487848 -0.02673839 -0.05409248 -0.005873762 -0.048273623 -0.0034969822 0.013874888 0.035712294
0.044884518 0.041223302 -0.015304014 -0.006801702 -0.044584073 -0.03228251 -0.05873979 -0.052365623
0.059682958 -0.049222 0.025493205 0.033134848 0.04369527 -0.017156266 -0.014007695 0.03744396
-0.024769053 -0.004891984 -0.010807358 0.058522865 0.055389784 -0.0041759834 -0.0052346364 -0.0051488206
0.031531513 0.036366448 -0.032017678 -0.03218378 -0.011591852 0.029551558 -0.03666666 -0.04833006
-0.031301774 -0.018959828 0.038143523 0.022889286 -0.018744044 0.053657405 -0.012858987 0.057627223
-0.02507148 0.053687327 0.044804834 0.0063139573 0.032522842 -0.034019314 0.018387683 -0.024464957
0.04950265 -0.016592398 0.030010521 -0.03905812 0.030324586 -0.0357 0.00067756325 -0.033785746
0.0061571 -0.026536599 -0.012866899 -0.04777377 -0.02685514 0.019766107 -0.014417261 -0.026778445
-0.012606122 -0.012521356 -0.01916685 -0.052936383 0.004999593 0.049868338 -0.051958837 -0.047314025
0.042126417 -0.04728701 0.044377923 -0.05801113 0.022078387 -0.04127796 -0.00017735362 0.047150277
-0.0021301955 0.0027234256 0.028491251 0.04677003 0.036558665 0.04041774 0.006078139 0.05952979
0.008999959 0.037073374 -0.0011016876 0.0039420724 -0.040345997 0.04252185 0.026050873 0.040625952
0.03999825 0.018986978 -0.048141763 -0.033338152 -0.007944852 -0.0026005134 0.037145525 -0.058419198
-0.022089384 -0.016370483 -0.019963957 -0.024452724 -0.018719442 -0.013993382 0.024491042 0.050540447
0.037774175 -0.009806223 0.053326853 -0.007736139 -0.047191054 0.052370675 -0.009112723 0.059810363
-0.009316735 -0.0341916 0.029941864 0.019247718 -0.014930338 -0.015279673 -0.022238031 0.0072094053
0.033439413 -0.029454447 -0.043289065 0.0070817694 -0.026625745 0.041554503 -0.021077275 -0.05174441
-0.05140745 0.035377935 -0.0018363073 -0.05486778 -0.054360665 0.049749315 0.0033386275 0.049843602
-0.060495205 -0.023033455 0.016917981 0.026225112 -0.035682745 -0.04681108 -0.025414951 -0.06118545
0.06004873 -0.059724398 0.05891674 0.0036622658 -0.012473874 0.042932957 0.011402927 -0.008733645
-0.059848584 0.04629273 0.060454674 0.0491594 -0.05338934 0.02012679 0.054295175 -0.050043717
-0.025434107 0.044355854 -0.04646907 -0.03738769 -0.050063834 0.02161248 0.038086116 0.0033175424
0.022855803 -0.057211466 -0.014369711 0.053402968 0.011037067 -0.0317391 0.020864293 -0.027202472
-0.050970808 0.013090052 0.044449434 0.02561418 0.041198134 0.062192842 -0.024038099 -0.016809389
0.035545655 0.053246193 -0.04846313 0.0050372034 0.031843677 0.032106005 -0.05482629 0.03370624
-0.0069546923 0.004459515 0.028290674 -0.050454684 -0.058091894 -0.052348293 0.0020041764 -0.04108285

net.6.bias f4 [3]
00000000: ec67 b3bc 2038 53bc f818 493c
-0.02190014 -0.012891799 0.012274019
