models/maddpg/final_agent_0_TrendFollower.pt (torch, 612015 bytes, 20 tensors)

net.0.weight f4 [256, 30]
00000000: 2cec cf3d 36a8 0a3e 6431 163d 9efc 87bd
00000010: c173 2fbe f4ed 4abd 2057 cf3d 3c0d 863d
00000020: cca2 a73d d3fc cabd 145c 9f3d 70e2 5fbc
00000030: c0d3 c43b b406 d8bd a003 d33c c8fe 2d3e
00000040: 4816 353e 10a1 c5bd 3826 45bd f8d3 2ebe
00000050: a8ef 963d a8ec 00be 1033 083e a0ad d63d
00000060: 0afb 2a3e ca2c 2f3e 972c 08be c27a 27be
00000070: d80e 9abc 8cad 22be 048a 293e a81e 013e
00000080: a0cc 86bc 1689 24be 7011 ac3d 78f4 cd3d
00000090: 39b5 1fbe c1d6 28be 3062 a5bc bd88 dbbd
000000a0: 78b3 f93d d203 243e bf27 1cbe 0010 b43b
000000b0: 998d 2fbe 2ac1 05be b050 f93c c055 303b
000000c0: eecf 26be bd19 93bd a6ab 6fbd 1408 1a3e
000000d0: d053 ec3d ce18 393e e462 913d efad cfbd
000000e0: 34bf af3d 628e 05be 74c0 ca3d 3c8d 34bd
000000f0: 1070 43bd 60c5 febd de6b 08be 51af 1ebe
00000100: 75f4 1abe 9820 29be 8443 ab3d 201f 11bc
00000110: fa28 2ebe 612e dcbd d02b 453c 18b7 f63d
00000120: 3066 613d 80fb e3bb e0c6 cdbb 80a0 ffba
00000130: 800a 85bb 68e6 89bc 6b40 0bbe 2831 9b3c
00000140: d47d d63d b1b4 c2bd 3666 833d c859 7c3d
00000150: 2961 afbd 0c92 e33d 2c4b ae3d 9401 06be
00000160: 00f1 46bc d79b f4bd 280d 87bc 2c01 a13d
00000170: 210f 17be 50df 5fbd a802 2a3d acd7 043e
00000180: 5042 763d eede 2c3e 18d0 db3c f4eb a33d
00000190: c0c6 693b 4a47 b5bd 26da 263e e065 123d
000001a0: 8008 3dbb 60ec 8c3c 4032 24bc 400e bb3c
000001b0: c69a 253e 643b 5f3d 1454 113e fcc7 a5bd
000001c0: 0048 fbbc e191 80bd 8842 dd3c 1803 b83c
000001d0: 2bbe c4bd 683a c3bc bcc7 8e3d d0d0 a4bc
000001e0: b406 183e efd8 31be 06dd 053e ee62 043e
000001f0: 89fe d8bd 254c 0dbe c819 313d 8004 9f3d
00000200: 5097 b33d 1821 e23d 2889 ef3d 6c9f 42bd
00000210: b4b5 c63d 859f f5bd fb2c c5bd 78c0 c83d
00000220: ac61 af3d 5066 11bd 3875 313e 6197 95bd
00000230: 408d ba3b 00aa 56bd 773a a8bd a024 4cbd
00000240: dc0b 6c3d 6046 27be 755e 12be 1c76 203e
00000250: c3c3 01be 785e d4bc e400 bd3d b4ed 31bd
00000260: 6000 503c 74a7 3d3d a466 de3d 3478 563d
00000270: 60d7 bf3d 1033 6fbd c8c6 28bd 0c37 b43d
00000280: 1fe5 bfbd 68b9 c23d 7a61 0a3e c80a 343d
00000290: 0057 9eba 2054 dabb 08ba ab3c 509c 2dbe
000002a0: 728d 2cbe e87c 12be 100c 50bd 06fc 34be
000002b0: 7fa6 d4bd a6a4 2abe fc0f a73d 3120 33be
000002c0: 7890 cfbc c880 de3c 8e2e 153e 34c8 6fbd
000002d0: 6d0b 8ebd 5e2a 023e 7832 c6bc 4438 243d
000002e0: adc3 d8bd 983d c83d 30c1 73bc 40c1 d4bc
000002f0: 5bf5 10be e2cb 013e dcc9 6b3d 0053 09bc
00000300: b4b8 2d3d c227 243e 721c 07be 72b9 c1bd
00000310: 1228 2a3e f0ec 9f3c ee84 083e 3886 753d
00000320: c2b5 1d3e 0c37 c9bd 98bb 373e 02dd 1e3e
00000330: e6af 803d 38c3 8abc aaab 05be 531b afbd
00000340: 2092 5a3c 20fb a33b 482a 373d 6475 e0bd
00000350: 3f35 8abd 0086 1f3a 3432 c23d 08fc 9bbc
00000360: 4926 edbd 04e9 253e 24af 7d3d fe8f ddbd
00000370: 3200 18be 2c1d 00be 583e 24be 5892 ec3d
00000380: bec1 893d 4494 0bbe aeb0 1f3e a45e 103e
00000390: 0044 eb3d 32cf 023e b0d4 a13c 986a 9cbd
000003a0: e09d 053e 6075 16be d7e2 13be 00f4 44bb
000003b0: 2806 913d e452 0c3d 8f90 b6bd 8823 a73d
000003c0: 70c3 2fbe 1fa0 a3bd ec87 713d f05d 2f3e
000003d0: 46ce 323e ac6e 643d 6472 5b3d 1c81 343d
000003e0: 98b8 34bd 0098 d8ba 80cd 1c3c 982a 18bd
000003f0: 38c1 f13d 8216 373e b891 e13d 2857 babc
0.10152468 0.1354073 0.036668196 -0.0663998 -0.17134 -0.049543336 0.1012404 0.06545493
0.08185348 -0.09911504 0.077812344 -0.013664827 0.006006688 -0.105481535 0.025758564 0.16991723
0.17684281 -0.09649861 -0.04813215 -0.17073047 0.073699296 -0.12590277 0.13300729 0.10482335
0.16697326 0.1710693 -0.1329826 -0.16355422 -0.018805906 -0.15886515 0.16556555 0.1260935
-0.016454995 -0.16067919 0.084017634 0.10056394 -0.15596475 -0.16488172 -0.020188421 -0.1071944
0.12192434 0.16017082 -0.15249537 0.0054950714 -0.17143859 -0.13061967 0.030433983 0.002690658
-0.16290256 -0.071826436 -0.058513306 0.15042144 0.115394235 0.18075868 0.0709894 -0.10140597
0.08581391 -0.13042596 0.09899989 -0.044080004 -0.047714293 -0.1243999 -0.13322398 -0.15496565
-0.15132315 -0.1651634 0.08362487 -0.008857518 -0.17007819 -0.107510336 0.0120343715 0.12046641
0.055029094 -0.0069574714 -0.0062798113 -0.0019502789 -0.0040600896 -0.0168335 -0.13598792 0.018944338
0.104732186 -0.095071204 0.064159796 0.06160906 -0.08563454 0.111118406 0.08510432 -0.1308654
-0.01214242 -0.119437866 -0.016485766 0.07861552 -0.14751865 -0.054656327 0.04150644 0.12972897
0.060121834 0.16881916 0.026832625 0.08003989 0.0035671443 -0.08851488 0.16294155 0.035741687
-0.0028844178 0.017202556 -0.010021746 0.022833943 0.16172323 0.0545 0.1419223 -0.080947846
-0.03067398 -0.06277824 0.027009264 0.022462413 -0.09606584 -0.023831561 0.0697169 -0.0201191
0.14846307 -0.1736791 0.13072595 0.12928364 -0.10595424 -0.13798578 0.043237478 0.0776453
0.08769095 0.110414684 0.11696082 -0.047515318 0.09702626 -0.119933166 -0.0962772 0.098023355
0.08563551 -0.035497963 0.17329872 -0.07304264 0.005693108 -0.05240822 -0.08214276 -0.049839616
0.057628497 -0.1633544 -0.14293845 0.15670055 -0.12672333 -0.025923952 0.092286855 -0.043439582
0.012695402 0.046302274 0.10859421 0.05236073 0.093672514 -0.058398306 -0.041205198 0.08799562
-0.09369873 0.0950802 0.13513747 0.043955594 -0.0012080371 -0.0066628605 0.02096273 -0.1695416
-0.16850832 -0.1430546 -0.050792754 -0.17674264 -0.10383319 -0.16664371 0.08157346 -0.17492749
-0.025337443 0.027161017 0.1456854 -0.058540538 -0.06935773 0.12711474 -0.024193987 0.04009272
-0.10584197 0.09777373 -0.014877602 -0.025971055 -0.14156096 0.12675431 0.057565555 -0.008381605
0.042412475 0.16030791 -0.13194445 -0.09459199 0.16616848 0.01952216 0.13331959 0.059942454
0.15401366 -0.098249525 0.17942655 0.15513995 0.0628355 -0.01693879 -0.13053766 -0.085501336
0.013340503 0.0050043017 0.044718057 -0.109598905 -0.06748437 0.0006085336 0.09482232 -0.019041076
-0.11579568 0.1620217 0.061934605 -0.1081848 -0.14843825 -0.12511128 -0.16039407 0.1155135
0.067264065 -0.13630778 0.15594742 0.14098603 0.11487579 0.12774351 0.019754738 -0.07637519
0.13048506 -0.14693213 -0.14442001 -0.0030052662 0.07081252 0.03425874 -0.08914291 0.08161074
-0.17164397 -0.07989525 0.058967516 0.17125678 0.174615 0.055769607 0.05357589 0.04406844
-0.044121355 -0.0016524792 0.009570479 -0.037149996 0.11804432 0.1787968 0.11014122 -0.022746637

net.0.bias f4 [256]
00000000: 88b6 293e b8ae b13d c160 91bd 301b 75bd
00000010: dc1f 083d ca02 08be a08d d93c da6f 393e
00000020: 444c 743d 7c26 0bbd bf1c 1dbe 4059 593b
00000030: 969e 223e a516 a0bd cf0a dbbd 004e 153b
00000040: 4084 70bc 8695 023e e8e8 fe3c a6b0 313e
00000050: c2f9 90bd e0db fd3b e6c5 20be 3b00 26be
00000060: af5f 29be ec44 32bd 2c69 583d 006d da3b
00000070: 80c0 3a3b 4042 4b3b 0d3b b4bd 5c90 633d
00000080: 985d b93d 6090 ee3d 004d 58ba 0abc 0d3e
00000090: d8e4 9b3d 90b0 f43c 7109 a7bd c0a4 df3d
000000a0: fca2 a13d 5e3f fbbd 186c 8c3c 48f3 0ebe
000000b0: e2bc 083e 1d16 b7bd a79e a4bd 9ab7 273e
000000c0: 821d 90bd 40b5 c2bc e804 293e fcc0 0bbe
000000d0: ca40 883d edac 8bbd 1044 1b3e 701c c83d
000000e0: bda6 eabd 38f9 673d 4879 a33c ec17 923d
000000f0: bcd2 fd3d 1202 243e f267 92bd 0842 0dbd
00000100: 3865 2d3e 8ad6 aabd d0e4 cbbc e0a7 ff3b
00000110: c8c8 e63d 2302 aebd b7bf 28be e70e 98bd
00000120: b0ea 303e e8cb ed3d b824 213e b9ca 13be
00000130: dc5f 13be 9696 2b3e f334 9cbd ec8a d33d
00000140: ac35 b23d 70fa ea3d 8ca0 3abe 12a2 133e
00000150: a825 f93d f40a 12be a616 b0bd 30d9 32be
00000160: b3a0 06be 1443 dd3d b6fa 35be c0e5 ba3d
00000170: 8076 b63a c500 c4bd 20d2 dcbb 04ea 2c3e
00000180: 8035 bd3b d2a6 abbd 342b 913d 245c bc3d
00000190: 3b02 2bbe 8877 3abe 600a 88bc 5452 093e
000001a0: b0d8 ac3d a403 1f3e a829 bc3d 2c76 253e
000001b0: 4068 6dbd 9035 c53d 0038 2c3e 9431 063e
000001c0: 90f5 fbbd 2436 c93d 80b5 253e 0084 933d
000001d0: 221e efbd 942a 123d b87e 50bd 4657 253e
000001e0: 0bc2 16be 08d2 28be 27dc 2abe b4fd 263d
000001f0: b202 833d d042 fc3d c43a 873d e899 a2bc
00000200: c404 bf3d d89e e43d 504a 14bd e0bc 0ebe
00000210: e04b 1b3c 3c81 263d 386b 953c 8c7c 843d
00000220: 046d 36bd adbd 33be b4a6 713d 7061 d23d
00000230: 82dd 273e 6e4b 003e 78e3 e53c e446 433d
00000240: c4a2 b23d e09b 053d 801e 8c3d 384d 343d
00000250: c4cb 313e 0467 85bd 94c0 0b3e 889b c33d
00000260: d0e5 42bc 284d 353e 9662 1c3e 40cc c93b
00000270: 0cd8 e0bd b8ea 923d d8d4 61bd c869 e9bd
00000280: 88cb 34bd 8af4 10be 945e 053d 00b5 d13d
00000290: f8d1 103d d473 003d 50aa 043d 2364 eebd
000002a0: 7b80 0bbe f88f e03c 001e bbbc b4ec 223e
000002b0: d4be a13d 1115 2cbe 39d9 b5bd b0da 373e
000002c0: d083 f9bd 42d5 febd d175 d3bd 12ab 0e3e
000002d0: 3017 b83c 6afe 0ebe ac04 f63d 24fb 2c3e
000002e0: fc01 13be 74f3 45bd 1c61 6f3d 3a71 03be
000002f0: 18da 933c f069 673c 722b 2abe c0eb 5f3c
00000300: 1e54 003e 00b0 2ab9 d492 df3d a220 0abe
00000310: 0602 803d 38df d53d 20c4 5bbc eab3 1a3e
00000320: cd3e 84bd 8c47 383d e81a 0c3e 641b 39be
00000330: 8ac4 083e 140f 093d d8d0 e43d 400f 713c
00000340: 5170 efbd d06a f4bc c859 f9bc 5cdc 02bd
00000350: 00d8 a8b9 9497 1f3d 1a3e 843d c699 173e
00000360: 3fce 0dbe dc1e ad3d e557 23be 0179 aebd
00000370: 4459 3c3d 5c65 0e3e 6aee e0bd e4e4 10bd
00000380: de74 11be 607a 243d 600c 1c3e 4666 2f3e
00000390: 4817 493d 9881 1e3e d625 f6bd 7c50 763d
000003a0: e4be a53d faac 113e 687e adbc 20a5 c9bc
000003b0: fd2c d2bd 72ac 19be 8d9b acbd 002c 2b3c
000003c0: 5f64 e2bd 90aa 0abe 308a 57bd 43ec 0fbe
000003d0: ba91 21be 886c 85bc 9c91 b9bd d04b 52bc
000003e0: 4968 14be 2c06 1bbd 31a1 31be 582f c13d
000003f0: b036 b83d 2086 9e3d c8fb b9bc 2073 1bbe
0.16573536 0.08675903 -0.070985325 -0.05984038 0.03323351 -0.13282314 0.02655679 0.18109074
0.059643045 -0.03397225 -0.15342997 0.003316477 0.15880808 -0.07816819 -0.10695421 0.0022782087
-0.014679968 0.12752351 0.031116918 0.17352542 -0.070788875 0.0077471584 -0.15700492 -0.16211025
-0.16540407 -0.04352276 0.052834675 0.006665826 0.0028496087 0.003101483 -0.088003255 0.055557594
0.09051055 0.11648631 -0.000825122 0.13841262 0.07612008 0.029869348 -0.08156098 0.109200954
0.07892415 -0.12267946 0.017141387 -0.13959992 0.13353303 -0.08939765 -0.08038073 0.16378632
-0.07036878 -0.023768067 0.16505778 -0.13647836 0.066529825 -0.06820092 0.15162683 0.09771049
-0.11457584 0.056634158 0.019955292 0.07133469 0.1239371 0.16016415 -0.07148732 -0.0344868
0.16933143 -0.08341701 -0.02488938 0.0078019947 0.11268765 -0.08496501 -0.16479383 -0.074247174
0.17277026 0.11611158 0.15736663 -0.14432801 -0.14392036 0.16756663 -0.07627287 0.103292316
0.08701643 0.114735484 -0.18225306 0.14417294 0.121653855 -0.14261991 -0.0859807 -0.17465663
-0.1314724 0.1080381 -0.1777142 0.091258526 0.0013920814 -0.09570459 -0.006738916 0.16886145
0.0057742 -0.08381428 0.070883185 0.09197262 -0.1670007 -0.1820966 -0.01660651 0.13410312
0.08439767 0.15528733 0.09187633 0.1615836 -0.05796075 0.09629357 0.16818237 0.1310485
-0.12302697 0.0982478 0.16182518 0.072029114 -0.11675669 0.035685137 -0.0509021 0.16146573
-0.14722459 -0.1648637 -0.16685544 0.040769294 0.063969985 0.12317431 0.066030055 -0.019848779
0.09327081 0.111631095 -0.036203682 -0.13939238 0.009478539 0.04065059 0.018239602 0.06469068
-0.04453756 -0.17552824 0.05899687 0.10272491 0.16393092 0.12528774 0.028062567 0.04767503
0.08722451 0.032619357 0.06841755 0.044018954 0.17362887 -0.06513789 0.13647681 0.095511496
-0.011895612 0.17705214 0.15271983 0.0061583817 -0.10978708 0.07173675 -0.055134624 -0.11397129
-0.044139415 -0.14155784 0.0325609 0.10239601 0.03535649 0.031360462 0.032388985 -0.11640193
-0.1362323 0.0274124 -0.022841454 0.15910608 0.07897726 -0.16804911 -0.088793226 0.17954516
-0.12183344 -0.124430194 -0.10325206 0.13932446 0.022471994 -0.13964239 0.1201261 0.16892678
-0.14356226 -0.048327878 0.05844222 -0.12836161 0.018048331 0.014124379 -0.16618136 0.013667047
0.12532088 -0.00016278028 0.10916677 -0.13489011 0.06250386 0.10442966 -0.013413459 0.15107694
-0.06457291 0.044990107 0.13682139 -0.18076855 0.13356224 0.033461645 0.11172646 0.014713109
-0.116913445 -0.029836088 -0.030438319 -0.031948432 -0.0003220439 0.038962916 0.064571574 0.14804754
-0.13848208 0.084531516 -0.15951498 -0.085191734 0.045983568 0.13905853 -0.10982974 -0.035374537
-0.14204738 0.04015577 0.15239096 0.17128858 0.04909447 0.15479124 -0.120189354 0.06013535
0.0809305 0.14226142 -0.02117844 -0.02461487 -0.10262487 -0.15007189 -0.084281065 0.010447502
-0.110543005 -0.13541627 -0.05262202 -0.1405497 -0.15778247 -0.016287103 -0.09060976 -0.012835458
-0.14492907 -0.037847683 -0.17346646 0.09432858 0.08994806 0.07740426 -0.022703066 -0.15180635

net.1.weight f4 [256]
00000000: 0000 803f 0000 803f 0000 803f 0000 803f
00000010: 0000 803f 0000 803f 0000 803f 0000 803f
00000020: 0000 803f 0000 803f 0000 803f 0000 803f
00000030: 0000 803f 0000 803f 0000 803f 0000 803f
00000040: 0000 803f 0000 803f 0000 803f 0000 803f
00000050: 0000 803f 0000 803f 0000 803f 0000 803f
00000060: 0000 803f 0000 803f 0000 803f 0000 803f
00000070: 0000 803f 0000 803f 0000 803f 0000 803f
00000080: 0000 803f 0000 803f 0000 803f 0000 803f
00000090: 0000 803f 0000 803f 0000 803f 0000 803f
000000a0: 0000 803f 0000 803f 0000 803f 0000 803f
000000b0: 0000 803f 0000 803f 0000 803f 0000 803f
000000c0: 0000 803f 0000 803f 0000 803f 0000 803f
000000d0: 0000 803f 0000 803f 0000 803f 0000 803f
000000e0: 0000 803f 0000 803f 0000 803f 0000 803f
000000f0: 0000 803f 0000 803f 0000 803f 0000 803f
00000100: 0000 803f 0000 803f 0000 803f 0000 803f
00000110: 0000 803f 0000 803f 0000 803f 0000 803f
00000120: 0000 803f 0000 803f 0000 803f 0000 803f
00000130: 0000 803f 0000 803f 0000 803f 0000 803f
00000140: 0000 803f 0000 803f 0000 803f 0000 803f
00000150: 0000 803f 0000 803f 0000 803f 0000 803f
00000160: 0000 803f 0000 803f 0000 803f 0000 803f
00000170: 0000 803f 0000 803f 0000 803f 0000 803f
00000180: 0000 803f 0000 803f 0000 803f 0000 803f
00000190: 0000 803f 0000 803f 0000 803f 0000 803f
000001a0: 0000 803f 0000 803f 0000 803f 0000 803f
000001b0: 0000 803f 0000 803f 0000 803f 0000 803f
000001c0: 0000 803f 0000 803f 0000 803f 0000 803f
000001d0: 0000 803f 0000 803f 0000 803f 0000 803f
000001e0: 0000 803f 0000 803f 0000 803f 0000 803f
000001f0: 0000 803f 0000 803f 0000 803f 0000 803f
00000200: 0000 803f 0000 803f 0000 803f 0000 803f
00000210: 0000 803f 0000 803f 0000 803f 0000 803f
00000220: 0000 803f 0000 803f 0000 803f 0000 803f
00000230: 0000 803f 0000 803f 0000 803f 0000 803f
00000240: 0000 803f 0000 803f 0000 803f 0000 803f
00000250: 0000 803f 0000 803f 0000 803f 0000 803f
00000260: 0000 803f 0000 803f 0000 803f 0000 803f
00000270: 0000 803f 0000 803f 0000 803f 0000 803f
00000280: 0000 803f 0000 803f 0000 803f 0000 803f
00000290: 0000 803f 0000 803f 0000 803f 0000 803f
000002a0: 0000 803f 0000 803f 0000 803f 0000 803f
000002b0: 0000 803f 0000 803f 0000 803f 0000 803f
000002c0: 0000 803f 0000 803f 0000 803f 0000 803f
000002d0: 0000 803f 0000 803f 0000 803f 0000 803f
000002e0: 0000 803f 0000 803f 0000 803f 0000 803f
000002f0: 0000 803f 0000 803f 0000 803f 0000 803f
00000300: 0000 803f 0000 803f 0000 803f 0000 803f
00000310: 0000 803f 0000 803f 0000 803f 0000 803f
00000320: 0000 803f 0000 803f 0000 803f 0000 803f
00000330: 0000 803f 0000 803f 0000 803f 0000 803f
00000340: 0000 803f 0000 803f 0000 803f 0000 803f
00000350: 0000 803f 0000 803f 0000 803f 0000 803f
00000360: 0000 803f 0000 803f 0000 803f 0000 803f
00000370: 0000 803f 0000 803f 0000 803f 0000 803f
00000380: 0000 803f 0000 803f 0000 803f 0000 803f
00000390: 0000 803f 0000 803f 0000 803f 0000 803f
000003a0: 0000 803f 0000 803f 0000 803f 0000 803f
000003b0: 0000 803f 0000 803f 0000 803f 0000 803f
000003c0: 0000 803f 0000 803f 0000 803f 0000 803f
000003d0: 0000 803f 0000 803f 0000 803f 0000 803f
000003e0: 0000 803f 0000 803f 0000 803f 0000 803f
000003f0: 0000 803f 0000 803f 0000 803f 0000 803f
1.0 1.0 1.0 1.0 1.0 1.0 1.0 1.0
1.0 1.0 1.0 1.0 1.0 1.0 1.0 1.0
1.0 1.0 1.0 1.0 1.0 1.0 1.0 1.0
1.0 1.0 1.0 1.0 1.0 1.0 1.0 1.0
1.0 1.0 1.0 1.0 1.0 1.0 1.0 1.0
1.0 1.0 1.0 1.0 1.0 1.0 1.0 1.0
1.0 1.0 1.0 1.0 1.0 1.0 1.0 1.0
1.0 1.0 1.0 1.0 1.0 1.0 1.0 1.0
1.0 1.0 1.0 1.0 1.0 1.0 1.0 1.0
1.0 1.0 1.0 1.0 1.0 1.0 1.0 1.0
1.0 1.0 1.0 1.0 1.0 1.0 1.0 1.0
1.0 1.0 1.0 1.0 1.0 1.0 1.0 1.0
1.0 1.0 1.0 1.0 1.0 1.0 1.0 1.0
1.0 1.0 1.0 1.0 1.0 1.0 1.0 1.0
1.0 1.0 1.0 1.0 1.0 1.0 1.0 1.0
1.0 1.0 1.0 1.0 1.0 1.0 1.0 1.0
1.0 1.0 1.0 1.0 1.0 1.0 1.0 1.0
1.0 1.0 1.0 1.0 1.0 1.0 1.0 1.0
1.0 1.0 1.0 1.0 1.0 1.0 1.0 1.0
1.0 1.0 1.0 1.0 1.0 1.0 1.0 1.0
1.0 1.0 1.0 1.0 1.0 1.0 1.0 1.0
1.0 1.0 1.0 1.0 1.0 1.0 1.0 1.0
1.0 1.0 1.0 1.0 1.0 1.0 1.0 1.0
1.0 1.0 1.0 1.0 1.0 1.0 1.0 1.0
1.0 1.0 1.0 1.0 1.0 1.0 1.0 1.0
1.0 1.0 1.0 1.0 1.0 1.0 1.0 1.0
1.0 1.0 1.0 1.0 1.0 1.0 1.0 1.0
1.0 1.0 1.0 1.0 1.0 1.0 1.0 1.0
1.0 1.0 1.0 1.0 1.0 1.0 1.0 1.0
1.0 1.0 1.0 1.0 1.0 1.0 1.0 1.0
1.0 1.0 1.0 1.0 1.0 1.0 1.0 1.0
1.0 1.0 1.0 1.0 1.0 1.0 1.0 1.0

net.1.bias f4 [256]
00000000: 0000 0000 0000 0000 0000 0000 0000 0000
00000010: 0000 0000 0000 0000 0000 0000 0000 0000
00000020: 0000 0000 0000 0000 0000 0000 0000 0000
00000030: 0000 0000 0000 0000 0000 0000 0000 0000
00000040: 0000 0000 0000 0000 0000 0000 0000 0000
00000050: 0000 0000 0000 0000 0000 0000 0000 0000
00000060: 0000 0000 0000 0000 0000 0000 0000 0000
00000070: 0000 0000 0000 0000 0000 0000 0000 0000
00000080: 0000 0000 0000 0000 0000 0000 0000 0000
00000090: 0000 0000 0000 0000 0000 0000 0000 0000
000000a0: 0000 0000 0000 0000 0000 0000 0000 0000
000000b0: 0000 0000 0000 0000 0000 0000 0000 0000
000000c0: 0000 0000 0000 0000 0000 0000 0000 0000
000000d0: 0000 0000 0000 0000 0000 0000 0000 0000
000000e0: 0000 0000 0000 0000 0000 0000 0000 0000
000000f0: 0000 0000 0000 0000 0000 0000 0000 0000
00000100: 0000 0000 0000 0000 0000 0000 0000 0000
00000110: 0000 0000 0000 0000 0000 0000 0000 0000
00000120: 0000 0000 0000 0000 0000 0000 0000 0000
00000130: 0000 0000 0000 0000 0000 0000 0000 0000
00000140: 0000 0000 0000 0000 0000 0000 0000 0000
00000150: 0000 0000 0000 0000 0000 0000 0000 0000
00000160: 0000 0000 0000 0000 0000 0000 0000 0000
00000170: 0000 0000 0000 0000 0000 0000 0000 0000
00000180: 0000 0000 0000 0000 0000 0000 0000 0000
00000190: 0000 0000 0000 0000 0000 0000 0000 0000
000001a0: 0000 0000 0000 0000 0000 0000 0000 0000
000001b0: 0000 0000 0000 0000 0000 0000 0000 0000
000001c0: 0000 0000 0000 0000 0000 0000 0000 0000
000001d0: 0000 0000 0000 0000 0000 0000 0000 0000
000001e0: 0000 0000 0000 0000 0000 0000 0000 0000
000001f0: 0000 0000 0000 0000 0000 0000 0000 0000
00000200: 0000 0000 0000 0000 0000 0000 0000 0000
00000210: 0000 0000 0000 0000 0000 0000 0000 0000
00000220: 0000 0000 0000 0000 0000 0000 0000 0000
00000230: 0000 0000 0000 0000 0000 0000 0000 0000
00000240: 0000 0000 0000 0000 0000 0000 0000 0000
00000250: 0000 0000 0000 0000 0000 0000 0000 0000
00000260: 0000 0000 0000 0000 0000 0000 0000 0000
00000270: 0000 0000 0000 0000 0000 0000 0000 0000
00000280: 0000 0000 0000 0000 0000 0000 0000 0000
00000290: 0000 0000 0000 0000 0000 0000 0000 0000
000002a0: 0000 0000 0000 0000 0000 0000 0000 0000
000002b0: 0000 0000 0000 0000 0000 0000 0000 0000
000002c0: 0000 0000 0000 0000 0000 0000 0000 0000
000002d0: 0000 0000 0000 0000 0000 0000 0000 0000
000002e0: 0000 0000 0000 0000 0000 0000 0000 0000
000002f0: 0000 0000 0000 0000 0000 0000 0000 0000
00000300: 0000 0000 0000 0000 0000 0000 0000 0000
00000310: 0000 0000 0000 0000 0000 0000 0000 0000
00000320: 0000 0000 0000 0000 0000 0000 0000 0000
00000330: 0000 0000 0000 0000 0000 0000 0000 0000
00000340: 0000 0000 0000 0000 0000 0000 0000 0000
00000350: 0000 0000 0000 0000 0000 0000 0000 0000
00000360: 0000 0000 0000 0000 0000 0000 0000 0000
00000370: 0000 0000 0000 0000 0000 0000 0000 0000
00000380: 0000 0000 0000 0000 0000 0000 0000 0000
00000390: 0000 0000 0000 0000 0000 0000 0000 0000
000003a0: 0000 0000 0000 0000 0000 0000 0000 0000
000003b0: 0000 0000 0000 0000 0000 0000 0000 0000
000003c0: 0000 0000 0000 0000 0000 0000 0000 0000
000003d0: 0000 0000 0000 0000 0000 0000 0000 0000
000003e0: 0000 0000 0000 0000 0000 0000 0000 0000
000003f0: 0000 0000 0000 0000 0000 0000 0000 0000
0.0 0.0 0.0 0.0 0.0 0.0 0.0 0.0
0.0 0.0 0.0 0.0 0.0 0.0 0.0 0.0
0.0 0.0 0.0 0.0 0.0 0.0 0.0 0.0
0.0 0.0 0.0 0.0 0.0 0.0 0.0 0.0
0.0 0.0 0.0 0.0 0.0 0.0 0.0 0.0
0.0 0.0 0.0 0.0 0.0 0.0 0.0 0.0
0.0 0.0 0.0 0.0 0.0 0.0 0.0 0.0
0.0 0.0 0.0 0.0 0.0 0.0 0.0 0.0
0.0 0.0 0.0 0.0 0.0 0.0 0.0 0.0
0.0 0.0 0.0 0.0 0.0 0.0 0.0 0.0
0.0 0.0 0.0 0.0 0.0 0.0 0.0 0.0
0.0 0.0 0.0 0.0 0.0 0.0 0.0 0.0
0.0 0.0 0.0 0.0 0.0 0.0 0.0 0.0
0.0 0.0 0.0 0.0 0.0 0.0 0.0 0.0
0.0 0.0 0.0 0.0 0.0 0.0 0.0 0.0
0.0 0.0 0.0 0.0 0.0 0.0 0.0 0.0
0.0 0.0 0.0 0.0 0.0 0.0 0.0 0.0
0.0 0.0 0.0 0.0 0.0 0.0 0.0 0.0
0.0 0.0 0.0 0.0 0.0 0.0 0.0 0.0
0.0 0.0 0.0 0.0 0.0 0.0 0.0 0.0
0.0 0.0 0.0 0.0 0.0 0.0 0.0 0.0
0.0 0.0 0.0 0.0 0.0 0.0 0.0 0.0
0.0 0.0 0.0 0.0 0.0 0.0 0.0 0.0
0.0 0.0 0.0 0.0 0.0 0.0 0.0 0.0
0.0 0.0 0.0 0.0 0.0 0.0 0.0 0.0
0.0 0.0 0.0 0.0 0.0 0.0 0.0 0.0
0.0 0.0 0.0 0.0 0.0 0.0 0.0 0.0
0.0 0.0 0.0 0.0 0.0 0.0 0.0 0.0
0.0 0.0 0.0 0.0 0.0 0.0 0.0 0.0
0.0 0.0 0.0 0.0 0.0 0.0 0.0 0.0
0.0 0.0 0.0 0.0 0.0 0.0 0.0 0.0
0.0 0.0 0.0 0.0 0.0 0.0 0.0 0.0

net.3.weight f4 [256, 256]
00000000: 5260 09bd c22f 1cbd f8fb 4dbd 84aa 0dbd
00000010: ec36 a6bc 20a9 5cbd 64eb 613d 1672 783d
00000020: 4499 dfbc 80cd f53a 88bc 253d 8014 7c3a
00000030: 54b8 89bc 8078 cdbb d06e 833c 824a 333d
00000040: 8af3 1d3d 28c3 66bc 1084 d43b 00b4 43bc
00000050: f00b 203c f4a4 bb3c 802e de3c 0649 7d3d
00000060: c0cb 88bb c451 5b3d b02d d63c 50e9 b7bb
00000070: a0ca 27bd ec2d c13c a091 6a3b 9efb 05bd
00000080: 7800 40bc e413 13bd 2c26 f3bc 74bb ed3c
00000090: 4877 8fbc 96dc 06bd 0236 4c3d cc2f 7ebd
000000a0: 5e18 643d c897 6b3c 4016 193b 60e1 4e3b
000000b0: 6654 5cbd e8c7 b7bc 0012 39bd 80c0 db3c
000000c0: 8417 c6bc 5cff 29bd 5845 50bd 100c a7bb
000000d0: 7067 ef3c 60d1 2dbc 2078 75bb d0f8 c6bb
000000e0: bc24 a73c f01e a0bc 24a7 6c3d 14fc f6bc
000000f0: 1049 333c 781e 0dbd 8ab1 123d b889 3a3c
00000100: e09a 7f3d d08e a4bb 6047 613d 9826 5cbc
00000110: c87d f7bc e0ae 333c e899 9ebc bcb6 8d3c
00000120: 7cba 4cbd c06b 1fbb b038 1f3d 2c5c 903c
00000130: bc41 fabc a0b3 173b 48c7 a7bc 98d6 e83c
00000140: 0068 f4bc d071 0ebd 5caa 723d f609 593d
00000150: e0f2 073c 5025 3fbd 06b6 173d 1435 623d
00000160: aa30 6fbd 6a65 66bd 9083 663d 486e b4bc
00000170: 1078 a13c 2ece 5ebd 88b0 e7bc 7040 24bc
00000180: e043 783c a0fd 3b3d 7ab4 4cbd 78d8 42bd
00000190: 0478 6a3d dc59 743d 70ca a73c 98f5 62bd
000001a0: 4024 96bb 7c3c 38bd ec8e a23c 6891 f33c
000001b0: a439 df3c 782b 2e3c 9420 1dbd 1064 873b
000001c0: 4ed4 2fbd 0893 7ebd 8817 da3c d4db 46bd
000001d0: 8cae 563d 3e50 75bd 68ed 3d3d d81d 443d
000001e0: 8276 083d 4052 6a3c 7a33 513d c0cb febb
000001f0: 6a9e 4cbd 62d2 44bd 603c cf3b a4c2 ba3c
00000200: 3c2f b23c ceae 47bd 5051 f7bb c04d 693d
00000210: f40a 2b3d e233 04bd c8bc 62bd 60ee 733b
00000220: 5e08 30bd 70bc 7abc 58fd 993c 3454 713d
00000230: aafb 3b3d 48dc 5e3d 2af9 75bd 4450 f73c
00000240: 6073 b13c 20a4 66bb acb0 3ebd 0839 333d
00000250: 6026 563b d0e5 09bc 4ef9 7bbd 585f 463c
00000260: f444 6cbd a880 3fbc 1cbb 1cbd f4e1 22bd
00000270: 682d 0fbd 8a4f 15bd 34e4 7ebd 802b b0bb
00000280: 1435 58bd 460f 783d 549f 53bd 1068 cebc
00000290: 6e77 3ebd 4284 413d 80b1 6a3b 5a28 5cbd
000002a0: ca54 5dbd 0433 d23c a89a ac3c d292 24bd
000002b0: 36d5 76bd c8c6 56bc aca0 533d 00c4 f23b
000002c0: 422e 7ebd 08eb a4bc 4cc4 023d 88b7 3cbc
000002d0: 1406 de3c b475 1fbd 1095 f93b 8856 75bc
000002e0: 1adf 043d 14d9 443d c8d8 583d 10a9 443d
000002f0: c66c 06bd 2897 b93c 12c5 0d3d c89f 78bd
00000300: fc06 463d 4a78 6a3d 9888 1b3c 0c12 663d
00000310: 2c6d 79bd 3818 14bd e492 c2bc ace1 a8bc
00000320: caef 1dbd 38d8 78bc 48bb 2b3c e0d0 063b
00000330: 3044 5fbd e06a 183d 1e16 2abd 6a8c 653d
00000340: 584c 4dbc 68fe c0bc 0069 7ebc 3a01 633d
00000350: 0011 20ba a27c 7ebd ae96 503d c609 14bd
00000360: e823 6fbc 4007 263d 0ee6 45bd 8099 0c3a
00000370: 2471 c5bc a403 c0bc 146b 053d f4c2 a83c
00000380: 4ad8 143d 5aa7 1dbd a018 823b 8052 24bd
00000390: 5413 d93c deeb 353d cad0 64bd b09f 883b
000003a0: e248 4cbd 1422 263d 367a 473d 0ac0 48bd
000003b0: c0f9 e3bb b49a 453d c888 26bd c061 92bc
000003c0: 7e01 083d 4630 44bd 0cc6 d23c 88ff 23bc
000003d0: c887 e03c 50dd 7abc 4046 c63c 6a06 1fbd
000003e0: 605b 7cbb 0436 80bc 8888 44bc 2408 efbc
000003f0: d2f5 11bd 0a22 163d 98b7 36bd 1c3c e9bc
-0.033539124 -0.038131483 -0.050289124 -0.034586444 -0.02028986 -0.053872228 0.055156127 0.060655676
-0.027294762 0.001875326 0.040463 0.0009616092 -0.016811527 -0.0062704682 0.01604405 0.043772228
0.038562335 -0.014084615 0.0064854696 -0.011944771 0.009768471 0.022905804 0.027121782 0.06183722
-0.0041746795 0.053544775 0.026144832 -0.00561253 -0.040964723 0.023581468 0.0035792366 -0.032710664
-0.011718862 -0.03590764 -0.029681288 0.029020049 -0.017512932 -0.03292521 0.049856193 -0.0620573
0.0556873 0.014379449 0.002335921 0.003156744 -0.053791426 -0.02243419 -0.04518318 0.02682519
-0.024181135 -0.041503295 -0.05084738 -0.0050978735 0.029224128 -0.010609001 -0.0037455633 -0.006072141
0.020403259 -0.019546002 0.057776585 -0.030149497 0.010942712 -0.034452885 0.035813846 0.011385374
0.06240356 -0.0050219074 0.05499971 -0.013436936 -0.030211344 0.010966986 -0.019360498 0.017299049
-0.049982533 -0.0024325699 0.03887242 0.017622076 -0.030548923 0.0023147836 -0.020480767 0.028422639
-0.029834747 -0.03477651 0.0592445 0.052988015 0.008297652 -0.046666443 0.037038825 0.0552264
-0.05839602 -0.05624906 0.05627781 -0.022025242 0.01971057 -0.054395847 -0.028282419 -0.010025129
0.015152901 0.045896173 -0.049976803 -0.047569722 0.057243362 0.05965601 0.020482272 -0.055409998
-0.004581958 -0.044979557 0.019843541 0.029732421 0.027249165 0.010630481 -0.038361147 0.0041318014
-0.04292708 -0.06215194 0.026622549 -0.04854949 0.052412555 -0.059890978 0.046368986 0.047880024
0.033316143 0.0143018365 0.051074483 -0.0077757537 -0.049955763 -0.0480522 0.006324336 0.02279789
0.021751039 -0.04875069 -0.007547535 0.056958914 0.041758493 -0.03227604 -0.055355817 0.003722094
-0.04297673 -0.015303716 0.018797562 0.058918193 0.045894302 0.054409295 -0.060052074 0.03018964
0.02166146 -0.003519304 -0.046555206 0.04375556 0.0032676682 -0.008416608 -0.061517052 0.012107693
-0.057682946 -0.011688389 -0.03826438 -0.039766267 -0.034955412 -0.036452807 -0.06222935 -0.0053762794
-0.052784994 0.06056144 -0.05166562 -0.025196105 -0.046500616 0.04724527 0.0035811365 -0.05374942
-0.05403594 0.025659092 0.02106984 -0.04017908 -0.060261928 -0.013108917 0.0516669 0.007408619
-0.062055834 -0.020131603 0.031925485 -0.011518367 0.027102508 -0.03893061 0.0076166466 -0.014974244
0.03243933 0.048058584 0.052941114 0.048012793 -0.03281858 0.022655085 0.03461177 -0.060699254
0.048346505 0.057243623 0.009493016 0.056169555 -0.06089513 -0.03615591 -0.023751684 -0.020615421
-0.03855876 -0.015188269 0.010481663 0.0020571277 -0.054508388 0.0372113 -0.041525 0.056042112
-0.012530409 -0.02355881 -0.015527964 0.05542109 -0.0006106049 -0.062130578 0.05092495 -0.036142133
-0.014595963 0.040534258 -0.0483151 0.00053634495 -0.024101801 -0.023439236 0.03257282 0.020600773
0.03633908 -0.038489677 0.0039702207 -0.04011774 0.026498474 0.044414394 -0.05586318 0.004169427
-0.049874194 0.040559843 0.048700534 -0.049011268 -0.0069572628 0.04824324 -0.04065779 -0.017868876
0.033204548 -0.0478976 0.025729202 -0.010009654 0.027408496 -0.015311554 0.02420342 -0.038824476
-0.0038506612 -0.015650757 -0.011995442 -0.029178686 -0.035634823 0.036653556 -0.044608682 -0.028471045

net.3.bias f4 [256]
00000000: a83d 5c3c 1e83 613d 8038 e9bb e0ac 9fbb
00000010: 3c29 adbc 000e b9bb 2c2e aebc a050 bebc
00000020: 3463 e9bc 2cb1 f7bc 48ac 533c b024 e23b
00000030: e46e 183d 5039 793d 9613 333d a816 523c
00000040: 7096 afbc 105c 0e3c 8806 fdbc e2cf 41bd
00000050: 38bc aa3c 586c cb3c ba75 6d3d 4c30 50bd
00000060: 24c0 80bc ac33 febc 1c91 c6bc de8f 793d
00000070: 12ea 3f3d 6c8c 44bd f285 793d c80a d1bc
00000080: 7c8d 38bd 66b1 7ebd a015 2f3c e0ed b53b
00000090: 6486 dbbc e8ac 703d c4f9 3ebd d061 bbbc
000000a0: 4858 2d3d acaa a5bc 34b9 68bd ca31 39bd
000000b0: 00c8 433b 8c9c b4bc 50f2 b9bb 20e3 70bb
000000c0: 30ef 413c d01e c0bb 260a 153d 4cc1 df3c
000000d0: c2d0 7ebd b0eb 66bc b025 a43b 566b 22bd
000000e0: 6cdd 333d e0d9 5b3b fe13 6a3d ea97 043d
000000f0: 82df 603d 50ce 34bd 32b8 673d a49a ce3c
00000100: 40ff 1bbc fc27 a7bc b64e 7c3d 24d8 b73c
00000110: 6a95 3abd 3263 113d 68f1 453d 66b4 043d
00000120: 4066 97ba 586b 3b3c 1cbb a83c a0b0 d7bc
00000130: 002f 83bc eee1 6b3d 6021 41bd 8cdd 61bd
00000140: 8a65 5ebd e0fa 543b 66f1 013d f8d6 c0bc
00000150: 488c 9dbc b401 4dbd 78bb e53c 5c3f 1abd
00000160: f06d d73b aa17 0cbd 0294 7d3d 707c 63bd
00000170: 3c0a 22bd 4ca3 1b3d 38d9 cebc a02e 7b3c
00000180: 6cdf 20bd a095 71bc b057 fc3c a8c1 5b3d
00000190: 7044 753c 0016 cbbc a00a da3b 0a65 203d
000001a0: 60e6 e93c 5eaf 153d 627e 1a3d f222 3f3d
000001b0: 4cb7 193d e64f 59bd 40c9 e3bb 5680 34bd
000001c0: 7030 aebb 2832 333c 12be 353d 5841 dc3c
000001d0: b872 49bd a0a0 0f3b 543b fe3c d2af 1ebd
000001e0: b0ce 53bc b4ea 87bc d06e 873b 1a59 59bd
000001f0: 4c71 61bd 3295 4d3d 607b 79bb 28bd 313c
00000200: 0086 52b9 9282 4dbd d83e 293d 0adb 3bbd
00000210: 805a 3c3c 96f3 6ebd d035 973c 70e9 fdbc
00000220: e081 eabb 804d a63c ceba 71bd 00fd a83b
00000230: b46d 61bd 500a e3bb c008 113c 7cd4 8abc
00000240: 6ece 72bd e2a7 1bbd 76e9 5dbd 1440 3dbd
00000250: 48e4 f9bc f050 65bd 507d fc3b 0029 b2ba
00000260: 9cf7 2a3d c8c2 d1bc 80ff 643a 3a3a 2f3d
00000270: b0af 7cbd 7474 93bc 145d 083d a8ce b7bc
00000280: 4026 dabb 3041 d5bb d8b3 5ebc 50ba 58bc
00000290: 842a 803c f0bd 5abc 043a a13c 30a7 9fbc
000002a0: a880 66bd da4c 0bbd a6b7 6b3d 3201 253d
000002b0: c85a 113c ea9e 53bd bcf8 a8bc bc95 03bd
000002c0: e0d0 60bb 3085 ea3b d02c 4e3c 8098 faba
000002d0: 1ef2 74bd 1421 893c 4046 b6bc 008a 15bb
000002e0: 58c8 fe3c c437 9ebc b47f fe3c 66bc 093d
000002f0: f802 1dbd 2872 043c 50ed 14bc c037 6a3d
00000300: 4afc 44bd 72a9 273d 8013 433c 50ca d73c
00000310: b819 4b3c 4677 2e3d 20e9 383b 3815 45bc
00000320: c8f1 d6bc 5256 7bbd a413 a53c b0c1 be3c
00000330: 44e6 403d 3068 edbb 0456 36bd d47e dabc
00000340: 0021 a5ba 80d3 443b 6043 723d 0495 b5bc
00000350: 041e 4b3d 407d 03bd 9a47 553d b856 78bd
00000360: e0f7 083b b62d 3a3d a4e2 b5bc 001f aa3a
00000370: 90bd 1ebc 2ea8 1bbd 105f 99bb 8025 b93b
00000380: 68cc 393c 4215 2ebd b2ec 053d 081f 223c
00000390: 2073 c4bc 80cd 42bd 04e3 83bc 4035 d33c
000003a0: 1c1b ebbc 8ee5 363d e05c 02bd 9675 333d
000003b0: 4869 b4bc 1294 3b3d 345f 793d 8887 04bc
000003c0: 5075 4e3c b8e2 e0bc 4007 ebbb d0ea b93b
000003d0: d82a 783c 5854 5f3d 3eea 47bd d675 59bd
000003e0: 4072 e13c 2419 95bc fc1b 373d 6282 4f3d
000003f0: 507a 73bc ac32 393d e6c3 60bd 9438 26bd
0.013442434 0.055056684 -0.007117331 -0.004872903 -0.021137826 -0.005647421 -0.02126225 -0.023231804
-0.028489687 -0.03023585 0.012919493 0.006901346 0.03721513 0.060845673 0.04371985 0.0128227845
-0.021434039 0.008688942 -0.030886903 -0.047317393 0.020841703 0.024831936 0.0579736 -0.05082731
-0.01571662 -0.031030498 -0.024239115 0.060928218 0.046854086 -0.04798548 0.060918756 -0.025517836
-0.045056805 -0.0621809 0.010686308 0.0055520386 -0.02679748 0.058758646 -0.046624914 -0.02287379
0.04232052 -0.020222984 -0.05681725 -0.0452135 0.0029873848 -0.022047304 -0.005674638 -0.003675647
0.011836812 -0.005863048 0.03638663 0.02731385 -0.062210806 -0.014094278 0.0050093755 -0.039653145
0.043912336 0.0033546612 0.057147972 0.03237144 0.054900654 -0.044142067 0.056572147 0.025220223
-0.009521306 -0.020404808 0.061598502 0.022441931 -0.04555265 0.03549499 0.048325926 0.032398604
-0.0011550859 0.011439167 0.020597033 -0.026329339 -0.016013622 0.05758851 -0.04715097 -0.055142924
-0.054296054 0.0032498166 0.031724356 -0.023540005 -0.01923193 -0.050050452 0.028043494 -0.03765808
0.006574385 -0.034202255 0.06190873 -0.055538595 -0.03956054 0.03799753 -0.025250062 0.0153309405
-0.03927557 -0.014745146 0.030803531 0.053651482 0.01496993 -0.024790764 0.0066540986 0.03915886
0.028552234 0.036544196 0.037718184 0.046664186 0.03752832 -0.053054713 -0.006951481 -0.044067703
-0.005315833 0.010937251 0.04437072 0.026886627 -0.04918167 0.0021915808 0.03103415 -0.038741894
-0.012927696 -0.016591407 0.004133083 -0.05306349 -0.05503969 0.050191112 -0.0038067922 0.010848321
-0.0002007708 -0.05017335 0.041319698 -0.04586319 0.011496186 -0.05833777 0.018458277 -0.0309951
-0.0071565956 0.020300627 -0.05901604 0.005157113 -0.05503626 -0.0069287196 0.008852184 -0.016947024
-0.059278898 -0.038001902 -0.054177724 -0.046203688 -0.03050436 -0.05598539 0.007705368 -0.0013592541
0.041740045 -0.025605574 0.0008735582 0.04278014 -0.061690986 -0.017999865 0.03329189 -0.022437409
-0.006657392 -0.006508015 -0.013592683 -0.013228014 0.015645273 -0.013350949 0.019680984 -0.0194889
-0.05627504 -0.03400884 0.057548188 0.040284343 0.008871742 -0.051665224 -0.020626418 -0.03212522
-0.0034304187 0.0071569905 0.012583926 -0.0019118935 -0.059801213 0.016739406 -0.022250295 -0.002281785
0.03110139 -0.0193137 0.031066753 0.033626936 -0.03833291 0.008083858 -0.009089783 0.057182074
-0.048092164 0.04093308 0.011906505 0.026341587 0.012396269 0.042594217 0.0028215125 -0.012028985
-0.026238337 -0.06136162 0.020150967 0.023285717 0.0470946 -0.007245086 -0.044515625 -0.026671804
-0.0012598336 0.003003329 0.059146285 -0.022165783 0.049589172 -0.03210187 0.052070238 -0.060629576
0.0020899698 0.04545375 -0.022202797 0.001297921 -0.00968875 -0.038002186 -0.004680522 0.0056502223
0.011340238 -0.04250074 0.032696433 0.009895094 -0.023980677 -0.04755926 -0.01609946 0.025782228
-0.02869945 0.044652514 -0.031826854 0.04381331 -0.022022858 0.045795508 0.06088181 -0.008088954
0.012601212 -0.027451858 -0.007172495 0.005673744 0.0151469335 0.054523796 -0.048807375 -0.053090893
0.027520299 -0.018200465 0.044704422 0.050661452 -0.014860705 0.04521434 -0.054874323 -0.0405813

net.4.weight f4 [256]
00000000: 0000 803f 0000 803f 0000 803f 0000 803f
00000010: 0000 803f 0000 803f 0000 803f 0000 803f
00000020: 0000 803f 0000 803f 0000 803f 0000 803f
00000030: 0000 803f 0000 803f 0000 803f 0000 803f
00000040: 0000 803f 0000 803f 0000 803f 0000 803f
00000050: 0000 803f 0000 803f 0000 803f 0000 803f
00000060: 0000 803f 0000 803f 0000 803f 0000 803f
00000070: 0000 803f 0000 803f 0000 803f 0000 803f
00000080: 0000 803f 0000 803f 0000 803f 0000 803f
00000090: 0000 803f 0000 803f 0000 803f 0000 803f
000000a0: 0000 803f 0000 803f 0000 803f 0000 803f
000000b0: 0000 803f 0000 803f 0000 803f 0000 803f
000000c0: 0000 803f 0000 803f 0000 803f 0000 803f
000000d0: 0000 803f 0000 803f 0000 803f 0000 803f
000000e0: 0000 803f 0000 803f 0000 803f 0000 803f
000000f0: 0000 803f 0000 803f 0000 803f 0000 803f
00000100: 0000 803f 0000 803f 0000 803f 0000 803f
00000110: 0000 803f 0000 803f 0000 803f 0000 803f
00000120: 0000 803f 0000 803f 0000 803f 0000 803f
00000130: 0000 803f 0000 803f 0000 803f 0000 803f
00000140: 0000 803f 0000 803f 0000 803f 0000 803f
00000150: 0000 803f 0000 803f 0000 803f 0000 803f
00000160: 0000 803f 0000 803f 0000 803f 0000 803f
00000170: 0000 803f 0000 803f 0000 803f 0000 803f
00000180: 0000 803f 0000 803f 0000 803f 0000 803f
00000190: 0000 803f 0000 803f 0000 803f 0000 803f
000001a0: 0000 803f 0000 803f 0000 803f 0000 803f
000001b0: 0000 803f 0000 803f 0000 803f 0000 803f
000001c0: 0000 803f 0000 803f 0000 803f 0000 803f
000001d0: 0000 803f 0000 803f 0000 803f 0000 803f
000001e0: 0000 803f 0000 803f 0000 803f 0000 803f
000001f0: 0000 803f 0000 803f 0000 803f 0000 803f
00000200: 0000 803f 0000 803f 0000 803f 0000 803f
00000210: 0000 803f 0000 803f 0000 803f 0000 803f
00000220: 0000 803f 0000 803f 0000 803f 0000 803f
00000230: 0000 803f 0000 803f 0000 803f 0000 803f
00000240: 0000 803f 0000 803f 0000 803f 0000 803f
00000250: 0000 803f 0000 803f 0000 803f 0000 803f
00000260: 0000 803f 0000 803f 0000 803f 0000 803f
00000270: 0000 803f 0000 803f 0000 803f 0000 803f
00000280: 0000 803f 0000 803f 0000 803f 0000 803f
00000290: 0000 803f 0000 803f 0000 803f 0000 803f
000002a0: 0000 803f 0000 803f 0000 803f 0000 803f
000002b0: 0000 803f 0000 803f 0000 803f 0000 803f
000002c0: 0000 803f 0000 803f 0000 803f 0000 803f
000002d0: 0000 803f 0000 803f 0000 803f 0000 803f
000002e0: 0000 803f 0000 803f 0000 803f 0000 803f
000002f0: 0000 803f 0000 803f 0000 803f 0000 803f
00000300: 0000 803f 0000 803f 0000 803f 0000 803f
00000310: 0000 803f 0000 803f 0000 803f 0000 803f
00000320: 0000 803f 0000 803f 0000 803f 0000 803f
00000330: 0000 803f 0000 803f 0000 803f 0000 803f
00000340: 0000 803f 0000 803f 0000 803f 0000 803f
00000350: 0000 803f 0000 803f 0000 803f 0000 803f
00000360: 0000 803f 0000 803f 0000 803f 0000 803f
00000370: 0000 803f 0000 803f 0000 803f 0000 803f
00000380: 0000 803f 0000 803f 0000 803f 0000 803f
00000390: 0000 803f 0000 803f 0000 803f 0000 803f
000003a0: 0000 803f 0000 803f 0000 803f 0000 803f
000003b0: 0000 803f 0000 803f 0000 803f 0000 803f
000003c0: 0000 803f 0000 803f 0000 803f 0000 803f
000003d0: 0000 803f 0000 803f 0000 803f 0000 803f
000003e0: 0000 803f 0000 803f 0000 803f 0000 803f
000003f0: 0000 803f 0000 803f 0000 803f 0000 803f
1.0 1.0 1.0 1.0 1.0 1.0 1.0 1.0
1.0 1.0 1.0 1.0 1.0 1.0 1.0 1.0
1.0 1.0 1.0 1.0 1.0 1.0 1.0 1.0
1.0 1.0 1.0 1.0 1.0 1.0 1.0 1.0
1.0 1.0 1.0 1.0 1.0 1.0 1.0 1.0
1.0 1.0 1.0 1.0 1.0 1.0 1.0 1.0
1.0 1.0 1.0 1.0 1.0 1.0 1.0 1.0
1.0 1.0 1.0 1.0 1.0 1.0 1.0 1.0
1.0 1.0 1.0 1.0 1.0 1.0 1.0 1.0
1.0 1.0 1.0 1.0 1.0 1.0 1.0 1.0
1.0 1.0 1.0 1.0 1.0 1.0 1.0 1.0
1.0 1.0 1.0 1.0 1.0 1.0 1.0 1.0
1.0 1.0 1.0 1.0 1.0 1.0 1.0 1.0
1.0 1.0 1.0 1.0 1.0 1.0 1.0 1.0
1.0 1.0 1.0 1.0 1.0 1.0 1.0 1.0
1.0 1.0 1.0 1.0 1.0 1.0 1.0 1.0
1.0 1.0 1.0 1.0 1.0 1.0 1.0 1.0
1.0 1.0 1.0 1.0 1.0 1.0 1.0 1.0
1.0 1.0 1.0 1.0 1.0 1.0 1.0 1.0
1.0 1.0 1.0 1.0 1.0 1.0 1.0 1.0
1.0 1.0 1.0 1.0 1.0 1.0 1.0 1.0
1.0 1.0 1.0 1.0 1.0 1.0 1.0 1.0
1.0 1.0 1.0 1.0 1.0 1.0 1.0 1.0
1.0 1.0 1.0 1.0 1.0 1.0 1.0 1.0
1.0 1.0 1.0 1.0 1.0 1.0 1.0 1.0
1.0 1.0 1.0 1.0 1.0 1.0 1.0 1.0
1.0 1.0 1.0 1.0 1.0 1.0 1.0 1.0
1.0 1.0 1.0 1.0 1.0 1.0 1.0 1.0
1.0 1.0 1.0 1.0 1.0 1.0 1.0 1.0
1.0 1.0 1.0 1.0 1.0 1.0 1.0 1.0
1.0 1.0 1.0 1.0 1.0 1.0 1.0 1.0
1.0 1.0 1.0 1.0 1.0 1.0 1.0 1.0

net.4.bias f4 [256]
00000000: 0000 0000 0000 0000 0000 0000 0000 0000
00000010: 0000 0000 0000 0000 0000 0000 0000 0000
00000020: 0000 0000 0000 0000 0000 0000 0000 0000
00000030: 0000 0000 0000 0000 0000 0000 0000 0000
00000040: 0000 0000 0000 0000 0000 0000 0000 0000
00000050: 0000 0000 0000 0000 0000 0000 0000 0000
00000060: 0000 0000 0000 0000 0000 0000 0000 0000
00000070: 0000 0000 0000 0000 0000 0000 0000 0000
00000080: 0000 0000 0000 0000 0000 0000 0000 0000
00000090: 0000 0000 0000 0000 0000 0000 0000 0000
000000a0: 0000 0000 0000 0000 0000 0000 0000 0000
000000b0: 0000 0000 0000 0000 0000 0000 0000 0000
000000c0: 0000 0000 0000 0000 0000 0000 0000 0000
000000d0: 0000 0000 0000 0000 0000 0000 0000 0000
000000e0: 0000 0000 0000 0000 0000 0000 0000 0000
000000f0: 0000 0000 0000 0000 0000 0000 0000 0000
00000100: 0000 0000 0000 0000 0000 0000 0000 0000
00000110: 0000 0000 0000 0000 0000 0000 0000 0000
00000120: 0000 0000 0000 0000 0000 0000 0000 0000
00000130: 0000 0000 0000 0000 0000 0000 0000 0000
00000140: 0000 0000 0000 0000 0000 0000 0000 0000
00000150: 0000 0000 0000 0000 0000 0000 0000 0000
00000160: 0000 0000 0000 0000 0000 0000 0000 0000
00000170: 0000 0000 0000 0000 0000 0000 0000 0000
00000180: 0000 0000 0000 0000 0000 0000 0000 0000
00000190: 0000 0000 0000 0000 0000 0000 0000 0000
000001a0: 0000 0000 0000 0000 0000 0000 0000 0000
000001b0: 0000 0000 0000 0000 0000 0000 0000 0000
000001c0: 0000 0000 0000 0000 0000 0000 0000 0000
000001d0: 0000 0000 0000 0000 0000 0000 0000 0000
000001e0: 0000 0000 0000 0000 0000 0000 0000 0000
000001f0: 0000 0000 0000 0000 0000 0000 0000 0000
00000200: 0000 0000 0000 0000 0000 0000 0000 0000
00000210: 0000 0000 0000 0000 0000 0000 0000 0000
00000220: 0000 0000 0000 0000 0000 0000 0000 0000
00000230: 0000 0000 0000 0000 0000 0000 0000 0000
00000240: 0000 0000 0000 0000 0000 0000 0000 0000
00000250: 0000 0000 0000 0000 0000 0000 0000 0000
00000260: 0000 0000 0000 0000 0000 0000 0000 0000
00000270: 0000 0000 0000 0000 0000 0000 0000 0000
00000280: 0000 0000 0000 0000 0000 0000 0000 0000
00000290: 0000 0000 0000 0000 0000 0000 0000 0000
000002a0: 0000 0000 0000 0000 0000 0000 0000 0000
000002b0: 0000 0000 0000 0000 0000 0000 0000 0000
000002c0: 0000 0000 0000 0000 0000 0000 0000 0000
000002d0: 0000 0000 0000 0000 0000 0000 0000 0000
000002e0: 0000 0000 0000 0000 0000 0000 0000 0000
000002f0: 0000 0000 0000 0000 0000 0000 0000 0000
00000300: 0000 0000 0000 0000 0000 0000 0000 0000
00000310: 0000 0000 0000 0000 0000 0000 0000 0000
00000320: 0000 0000 0000 0000 0000 0000 0000 0000
00000330: 0000 0000 0000 0000 0000 0000 0000 0000
00000340: 0000 0000 0000 0000 0000 0000 0000 0000
00000350: 0000 0000 0000 0000 0000 0000 0000 0000
00000360: 0000 0000 0000 0000 0000 0000 0000 0000
00000370: 0000 0000 0000 0000 0000 0000 0000 0000
00000380: 0000 0000 0000 0000 0000 0000 0000 0000
00000390: 0000 0000 0000 0000 0000 0000 0000 0000
000003a0: 0000 0000 0000 0000 0000 0000 0000 0000
000003b0: 0000 0000 0000 0000 0000 0000 0000 0000
000003c0: 0000 0000 0000 0000 0000 0000 0000 0000
000003d0: 0000 0000 0000 0000 0000 0000 0000 0000
000003e0: 0000 0000 0000 0000 0000 0000 0000 0000
000003f0: 0000 0000 0000 0000 0000 0000 0000 0000
0.0 0.0 0.0 0.0 0.0 0.0 0.0 0.0
0.0 0.0 0.0 0.0 0.0 0.0 0.0 0.0
0.0 0.0 0.0 0.0 0.0 0.0 0.0 0.0
0.0 0.0 0.0 0.0 0.0 0.0 0.0 0.0
0.0 0.0 0.0 0.0 0.0 0.0 0.0 0.0
0.0 0.0 0.0 0.0 0.0 0.0 0.0 0.0
0.0 0.0 0.0 0.0 0.0 0.0 0.0 0.0
0.0 0.0 0.0 0.0 0.0 0.0 0.0 0.0
0.0 0.0 0.0 0.0 0.0 0.0 0.0 0.0
0.0 0.0 0.0 0.0 0.0 0.0 0.0 0.0
0.0 0.0 0.0 0.0 0.0 0.0 0.0 0.0
0.0 0.0 0.0 0.0 0.0 0.0 0.0 0.0
0.0 0.0 0.0 0.0 0.0 0.0 0.0 0.0
0.0 0.0 0.0 0.0 0.0 0.0 0.0 0.0
0.0 0.0 0.0 0.0 0.0 0.0 0.0 0.0
0.0 0.0 0.0 0.0 0.0 0.0 0.0 0.0
0.0 0.0 0.0 0.0 0.0 0.0 0.0 0.0
0.0 0.0 0.0 0.0 0.0 0.0 0.0 0.0
0.0 0.0 0.0 0.0 0.0 0.0 0.0 0.0
0.0 0.0 0.0 0.0 0.0 0.0 0.0 0.0
0.0 0.0 0.0 0.0 0.0 0.0 0.0 0.0
0.0 0.0 0.0 0.0 0.0 0.0 0.0 0.0
0.0 0.0 0.0 0.0 0.0 0.0 0.0 0.0
0.0 0.0 0.0 0.0 0.0 0.0 0.0 0.0
0.0 0.0 0.0 0.0 0.0 0.0 0.0 0.0
0.0 0.0 0.0 0.0 0.0 0.0 0.0 0.0
0.0 0.0 0.0 0.0 0.0 0.0 0.0 0.0
0.0 0.0 0.0 0.0 0.0 0.0 0.0 0.0
0.0 0.0 0.0 0.0 0.0 0.0 0.0 0.0
0.0 0.0 0.0 0.0 0.0 0.0 0.0 0.0
0.0 0.0 0.0 0.0 0.0 0.0 0.0 0.0
0.0 0.0 0.0 0.0 0.0 0.0 0.0 0.0

net.6.weight f4 [3, 256]
00000000: 1e40 0c3d 74de cabc a0c4 7c3d 5652 7a3d
00000010: d85a 3b3c 0833 1dbd 4c20 7d3d da4c 5abd
00000020: b6ed 513d 7039 46bd bebf 2c3d a063 913c
00000030: 3801 30bc f87f 433d b0fd 993b c0b7 aabc
00000040: 48d1 c3bc b46b 193d b00b 56bd 9cfe d63c
00000050: 44c9 643d 682d 0bbd 24f0 ccbc 006a 723a
00000060: 304d 5f3c 0c16 cb3c 3061 c3bc 80c5 413b
00000070: acd2 513d b865 bdbc 6097 fcbc 68a6 ebbc
00000080: cc9f 033d 522a 6abd 8629 7d3d e085 da3c
00000090: ae32 66bd 6c04 d23c 223d 103d 3818 7fbc
000000a0: 8817 48bc 9cf4 55bd 881a 963c 7088 1d3d
000000b0: 306f 0d3c 5c8b e3bc 94a5 3f3d 4877 0abc
000000c0: 3001 37bd d022 be3c 581a 7bbd c0c8 1bbd
000000d0: a6e6 73bd ecb8 113d 1007 683c e0c9 763b
000000e0: 7461 77bd 362b 133d 60c5 0f3c 58ac 52bd
000000f0: 10d3 f33c 9ac4 323d 30d1 a1bb 680b 28bc
00000100: fa4b 4c3d 10ec 17bd 565d 0e3d aef0 773d
00000110: 203a aabb 065a 703d ec03 733d 649a 09bd
00000120: 30cb d03c be18 3c3d 7877 be3c 4425 7fbd
00000130: 9e0e 77bd 709a 2e3d bc8e 50bd be83 553d
00000140: fced 93bc 1e32 18bd 10be 553d 10a7 fabc
00000150: 0846 0c3d e0a2 78bc 1cbb e63c 3207 663d
00000160: 608a d6bc 005c b9ba 6c79 473d 0c3a 323d
00000170: 5882 6a3d 5eb4 62bd 3e30 2dbd 00d0 bd3c
00000180: c263 1f3d b6f3 75bd 9835 64bd 60d6 363b
00000190: 3626 3dbd 9688 483d d479 663d 567d 4cbd
000001a0: 4efb 573d 2c19 e53c b072 3a3d 901d cb3c
000001b0: 00bb b23a b454 823c 6028 6f3b ee70 313d
000001c0: d84d d23c 7c8e ab3c 562b 2cbd 7e86 2f3d
000001d0: 2a2f 0dbd f85b 043c 9c65 6dbd 888e 75bd
000001e0: 8022 75bb 00a9 513d 3437 23bd 981c 003c
000001f0: f827 09bd f090 25bc c84c 0ebc 72cd 223d
00000200: 3af3 783d ecc9 cc3c dcdc 68bd 68be e73c
00000210: a8cc 2bbc e094 713b 9ef2 033d 46b5 00bd
00000220: ba40 75bd a062 29bb 20b1 e0bb fe7e 79bd
00000230: ac9b adbc 503d b0bc 6225 603d 9490 febc
00000240: 9ccc 9ebc 5065 573c 18af 47bd 48be f5bc
00000250: 34c8 493d e4d5 103d d80c 5dbd ca4c 65bd
00000260: 1283 7d3d a00a d23b 6495 13bd 4cf0 26bd
00000270: e078 21bc 5826 783d 5a81 4a3d 7856 143c
00000280: a409 673d c01c 14bd b0f7 81bc 086d 683c
00000290: 0e34 5c3d 583b d13c 6cce 9f3c f064 6dbd
000002a0: 0032 333d c800 04bc ac93 073d ecd0 d6bc
000002b0: 9e57 723d fe0b 48bd 6808 673d 82a8 09bd
000002c0: f0f8 513d 9874 133c 8009 4e3c b8af 273d
000002d0: 0ad9 4c3d 64dc f33c 582f 7dbc 584f 6b3d
000002e0: 98bd 48bd 5a61 6f3d b098 b3bb 203f 673b
000002f0: e07b 363b b6d4 58bd 10bc 103d fcf9 d73c
00000300: e687 423d 3ec9 523d 2875 3abd 0098 f539
00000310: 9405 9ebc 4e70 123d d0da 653d 9254 383d
00000320: 98ef 623d f862 40bd 6298 09bd 50b3 853b
00000330: 305d 67bc c880 53bd 6ca6 883c a073 1c3d
00000340: b8cb 99bc c4af d23c a0d3 4d3d 78de 06bd
00000350: 70b4 80bb 2eb3 7f3d 6804 673c 702b d73b
00000360: 0a68 1d3d 00c0 4438 8ecd 3cbd fa5f 02bd
00000370: 7433 943c 9467 8fbc 30ae 5ebd 782f 333c
00000380: 580a 63bd 0ab5 483d 9e61 563d 6033 f33b
00000390: 403e eb3a 1070 8e3b bcdc 533d a406 95bc
000003a0: 1af8 143d b8f1 46bd 08e7 2dbd e877 0abc
000003b0: 24be 93bc 5866 44bd eefd 6c3d f8e0 09bd
000003c0: 6e97 453d ec58 3f3d 8a79 58bd 008f bd3b
000003d0: 8cbe 05bd c893 333c c0eb 2cbd 20c4 593b
000003e0: 9c42 66bd e84c 34bc 96aa 08bd fafe 28bd
000003f0: 2899 27bc f8a2 5b3c c457 fe3c 7c2f 2dbd
0.034240834 -0.024764277 0.061710954 0.061113678 0.011435233 -0.038378745 0.06179838 -0.053295948
0.05125209 -0.04839462 0.042175047 0.0177477 -0.010742478 0.047729462 0.0046994314 -0.020839572
-0.023903504 0.03745623 -0.05225724 0.026244454 0.055856004 -0.03397885 -0.025016852 0.00092473626
0.013629243 0.024790786 -0.023850054 0.0029567182 0.051226303 -0.023119792 -0.0308339 -0.028765872
0.032134816 -0.057169266 0.061807178 0.026675165 -0.056200676 0.025636874 0.03521455 -0.015569739
-0.012212642 -0.05223523 0.018323198 0.038460195 0.008632466 -0.027776413 0.046788767 -0.00845129
-0.044678867 0.02320996 -0.06130442 -0.038033247 -0.059546135 0.035576746 0.01416184 0.0037656948
-0.060395673 0.03592988 0.008775085 -0.05143389 0.029763728 0.043644525 -0.004938267 -0.010256626
0.049877144 -0.03709036 0.03475698 0.060532264 -0.0051949173 0.058679603 0.059329912 -0.033594504
0.025487512 0.045922033 0.023250327 -0.0622914 -0.060316674 0.04262775 -0.050917372 0.052127592
-0.018057816 -0.03715717 0.05218321 -0.03059724 0.034246475 -0.015175551 0.028165393 0.056159206
-0.02618903 -0.0014141798 0.04869978 0.04351239 0.05725321 -0.055347793 -0.042282335 0.023170471
0.038913496 -0.060046874 -0.055715173 0.0027898774 -0.04617902 0.048958384 0.056268528 -0.049924217
0.052729897 0.027966104 0.04551953 0.02479437 0.0013636053 0.01590953 0.0036492571 0.04332059
0.025671884 0.020941965 -0.042033516 0.04285287 -0.034468807 0.008078568 -0.05795823 -0.05995038
-0.0037404597 0.05118656 -0.039847568 0.007819317 -0.033485383 -0.010105357 -0.008685298 0.03974671
0.060778834 0.024998628 -0.056851253 0.028289035 -0.010485806 0.0036862418 0.0322138 -0.031422876
-0.05987618 -0.0025846139 -0.0068570524 -0.060912125 -0.021192394 -0.021513611 0.05472315 -0.0310748
-0.019384675 0.013146713 -0.048750967 -0.02999796 0.049263194 0.035360232 -0.053967327 -0.055981435
0.061892577 0.006409958 -0.036031142 -0.04075651 -0.009855479 0.060583442 0.049439766 0.009053819
0.05640568 -0.03616023 -0.015865177 0.014186151 0.05376058 0.025540993 0.01950761 -0.05795759
0.043748856 -0.008056827 0.033099815 -0.026222669 0.05916559 -0.04883956 0.0564045 -0.033607967
0.051262796 0.008999966 0.012575507 0.040939063 0.050011672 0.029768176 -0.015453182 0.057448715
-0.049008936 0.05844245 -0.0054808483 0.0035285428 0.0027844831 -0.052937232 0.0353356 0.026364319
0.047492884 0.05146145 -0.045521885 0.0004684329 -0.01928977 0.035751633 0.05611688 0.045002528
0.055404276 -0.046969384 -0.03359259 0.0040802136 -0.014121339 -0.051636487 0.016680919 0.038196206
-0.018773898 0.025718577 0.05025065 -0.032927006 -0.00392776 0.06242674 0.014100172 0.0065664575
0.038429298 4.6908855e-05 -0.04609447 -0.03182981 0.018090941 -0.017505445 -0.054365337 0.01093661
-0.055429786 0.049000777 0.05233919 0.007421896 0.0017947629 0.004346855 0.05172418 -0.018191643
0.03636942 -0.048570365 -0.042456657 -0.008451439 -0.018035002 -0.047949165 0.057859354 -0.033661813
0.048240118 0.046715662 -0.052850284 0.005784869 -0.032652423 0.010960527 -0.042217016 0.0033228472
-0.056215867 -0.011004664 -0.03336581 -0.04125879 -0.010229386 0.013405554 0.03104771 -0.042281613

net.6.bias f4 [3]
00000000: 00dc 7c3a c050 f9bb 7c46 fd3c
0.00096458197 -0.007608503 0.030917399
