models/maddpg/final_agent_3_ValueHunter.pt (torch, 611963 bytes, 20 tensors)

net.0.weight f4 [256, 30]
00000000: f6d4 1dbe e779 06be a040 c93d 7691 14be
00000010: 983c c63c d49e bc3d 316d aabd 3c03 63bd
00000020: b83d 48bd 2e4a 8cbd ca4e babd 188c 8c3d
00000030: dc35 24bd 3411 f03d 4262 233e 002c 2bbc
00000040: a38d e3bd 50b7 97bd e039 4bbc 9408 173d
00000050: c84a e23d 018b dabd 7c07 bd3d 6e84 8cbd
00000060: b02b 783c 44c3 923d 4ccc 2bbe 8dbb e5bd
00000070: 824b 2dbe c06d d93d 9045 323e c86f 073e
00000080: b807 ddbc d08e 483c 721c 0b3e 0808 f7bc
00000090: bc7e 9f3d 9469 33bd c0b9 133e db32 20be
000000a0: b001 463d 7c62 c63d 87ea ecbd 87a5 36be
000000b0: 8004 bf3d 800c f33d 6ca5 15bd 3c07 2d3e
000000c0: 2841 0a3e 3c19 e23d 7cf5 153e ce6b 163e
000000d0: f035 7dbc dc5a 54bd 440d 1f3e 76e2 023e
000000e0: 5c07 1d3d c4b1 973d 4318 21be 0c1f febd
000000f0: 089e 34bd e0ba 82bd d6ca 143e 2885 1dbd
00000100: c004 693c a268 d6bd e8ae a5bc 945d 923d
00000110: 3017 2fbd b0ae 243c e413 12be 96b6 a2bd
00000120: b6ec f8bd 44b2 a43d cee2 873d f8ee 4c3d
00000130: 90f0 863d d047 ee3d 609f ef3c 97cd 9bbd
00000140: 9c05 14be 1842 22bd 3702 2fbe 6625 cabd
00000150: d04f 9f3d fa2e 05be fc9b e1bd c4ff 863d
00000160: ec60 b43d 90a8 27bd c3de b7bd 7015 02bc
00000170: 0404 ad3d 5cf3 bf3d f498 4bbd 8e42 273e
00000180: 98c6 5fbd 2e60 383e d49c 373e 8c16 3bbd
00000190: 6659 853d 1042 05bc 90aa d1bd 54be 5e3d
000001a0: c6fd 9dbd 2c1c e03d 8e72 113e a89e ec3d
000001b0: 2ca6 0c3e 802d e0ba a0de 03bd 36cd 1b3e
000001c0: 80c2 e53c d262 2ebe d9ac b9bd c091 fdbb
000001d0: c46f c73d aeeb 24be c66d 863d 2830 ee3c
000001e0: 394b 05be 282a 05bd 1bd3 d5bd a4a1 c53d
000001f0: 3022 413c f4b7 c73d 7163 88bd a832 3abe
00000200: 681e 2e3e 9027 d33c 55a6 88bd a067 ea3c
00000210: 5230 213e 8b21 e7bd 92d0 823d 987f c53d
00000220: 000a 0ebd d0ff adbc 9c7f 483d 74c6 3b3d
00000230: a56b 12be 8c3d 65bd a0fa adbb 5069 7b3c
00000240: 00f6 23bc 4443 1e3e e07d 203d ac49 243d
00000250: e840 d63d ec32 663d 9261 063e d09f 773d
00000260: 3801 dc3d 12e0 93bd c270 b2bd f446 f93d
00000270: 3892 973c 401a 08bd b4a0 183e b4f5 403d
00000280: c424 263e a033 173c d6fe 353e e480 e93d
00000290: 682c f5bd ee5a 38be a062 6e3c f059 1c3c
000002a0: a613 393e ae0f 893d d8a9 4ebd 08a6 7b3d
000002b0: dfb3 98bd 5004 b63d a6b7 07be 70d9 e53d
000002c0: 806e c73b 6c07 483d d05f 8fbd 00a8 9c3d
000002d0: 8255 343e 14aa 52bd 1fcb 9dbd 30f4 f63c
000002e0: ec2e f63d 30a4 36be c42d 5ebd d5ab 2dbe
000002f0: 4083 7cbb 6620 8ebd c89b 5abd 83d4 03be
00000300: 5e70 17be bc44 3e3d 402e 573b 98d0 80bd
00000310: a42d fd3d 3f49 b0bd 40f1 6a3d e31a a6bd
00000320: 341c 393d 74cb 1d3d 48c4 103e 90d2 643c
00000330: 8024 693c 80c3 693b 5a12 153e d6c6 2e3e
00000340: 0097 bfbc 86e6 febd c46d 41bd 3835 13be
00000350: 924d 233e 404a e5bc 0f3e f5bd 353a cdbd
00000360: 687c db3d 62d3 7abd 8c5a d7bd bf8b e8bd
00000370: 26a7 9fbd 7cce c43d dcfc c93d 7c6d 373e
00000380: dc9e 0d3e c60a 0bbe 7880 1b3e c8ce 30be
00000390: 20c8 163c ac80 1ebd 8429 09be 58a9 c7bc
000003a0: d06c 213e 3a9a 1d3e 607a f13b 4cbb f83d
000003b0: 2847 0cbd e0a2 f9bd c47a 46bd 3438 bb3d
000003c0: 008f bc3d 78c1 273d 6535 b8bd 62a1 223e
000003d0: a05a 54bc 5d95 38be 0625 333e 3ca3 adbd
000003e0: 6060 183e a07c 4c3d 5840 babc 9894 bfbd
000003f0: f77e 08be ab1b f9bd 4061 ddbc b827 10be
-0.1541327 -0.1313244 0.09826779 -0.14508614 0.024198815 0.092099816 -0.08321608 -0.055423006
-0.048886985 -0.06850086 -0.09097059 0.06862658 -0.040090427 0.11722031 0.15955451 -0.010447502
-0.111109994 -0.07408011 -0.012403935 0.036873415 0.1104942 -0.10671044 0.09229943 -0.068611965
0.015147135 0.0716615 -0.16777152 -0.11217413 -0.16923335 0.10616636 0.17409348 0.13226235
-0.02698122 0.01224108 0.1358507 -0.030155197 0.077878445 -0.04380186 0.14426327 -0.156444
0.048341453 0.09686753 -0.1156817 -0.17836581 0.0932703 0.118676186 -0.03653471 0.16897291
0.13501418 0.11039969 0.14644426 0.14689562 -0.015454754 -0.051844463 0.15532404 0.127817
0.038337097 0.07406953 -0.15731911 -0.124082655 -0.044096023 -0.063833 0.14530501 -0.038457066
0.014222324 -0.10469176 -0.020225003 0.07146755 -0.042746723 0.010051414 -0.142654 -0.07944982
-0.12154524 0.08041814 0.066350564 0.050032586 0.065888524 0.11634791 0.0292508 -0.076075725
-0.14455265 -0.039613813 -0.17090689 -0.098704144 0.07778895 -0.13006201 -0.1101608 0.06591752
0.08807549 -0.040932238 -0.08978035 -0.007939681 0.084480315 0.09372589 -0.049706414 0.16333982
-0.054632753 0.1800544 0.17930919 -0.0456758 0.06511192 -0.008133426 -0.1023761 0.05438073
-0.07714419 0.10942873 0.14203855 0.11553699 0.13735265 -0.0017103404 -0.032194734 0.15215
0.028046846 -0.17029884 -0.09066171 -0.007738322 0.097381145 -0.1610553 0.06563906 0.029075697
-0.13016976 -0.032510906 -0.10440656 0.09649971 0.011787936 0.09751883 -0.06659592 -0.18183386
0.17003787 0.0257757 -0.0667235 0.028613865 0.15741089 -0.11285695 0.06387438 0.09643477
-0.034677505 -0.021240145 0.048949823 0.045843557 -0.14298876 -0.0559669 -0.005309418 0.015344933
-0.010007381 0.15455347 0.039182544 0.04010932 0.10461599 0.056200907 0.13123158 0.060455143
0.1074242 -0.072204724 -0.08712913 0.12171736 0.01850234 -0.03322816 0.14905053 0.04710932
0.16224962 0.009228617 0.17772993 0.11401537 -0.119713604 -0.18003437 0.014549881 0.009542927
0.18073902 0.06692444 -0.050454944 0.061437637 -0.07456183 0.08887541 -0.1325365 0.112231135
0.0060861707 0.048835203 -0.07000697 0.07649231 0.17610744 -0.05143173 -0.07704758 0.030145735
0.120206684 -0.1783607 -0.054242864 -0.1696008 -0.003853038 -0.06939773 -0.05337122 -0.12874036
-0.14788958 0.04645227 0.0032833964 -0.06289786 0.12362221 -0.086077206 0.05735898 -0.08110597
0.045192912 0.038524106 0.14137375 0.013966218 0.014229894 0.0035669506 0.14557782 0.17068037
-0.023387432 -0.124463126 -0.04722382 -0.1437577 0.1594756 -0.027989507 -0.11974727 -0.10020868
0.10717088 -0.061236747 -0.10515317 -0.113547795 -0.07795553 0.09609696 0.09862682 0.17912859
0.13830131 -0.13578328 0.15185726 -0.17266381 0.009202987 -0.03869693 -0.13394743 -0.024372742
0.15764165 0.15390864 0.0073693246 0.12145099 -0.034247547 -0.12189269 -0.048456922 0.09141579
0.092069626 0.04095599 -0.08994559 0.15881875 -0.01296106 -0.18025728 0.17494592 -0.084784
0.14880514 0.04992354 -0.02273576 -0.09354514 -0.13329683 -0.1216348 -0.027023911 -0.14077652

net.0.bias f4 [256]
00000000: 2abd 293e 9682 0bbe b414 a93d a86f c43d
00000010: a06b cd3c 5c19 ef3d 1c30 923d 8918 2cbe
00000020: 5141 82bd c0a1 c13d d085 1e3d dc6b 68bd
00000030: 78e2 e53d 15de 27be d843 5abd 08a3 b03d
00000040: a47f f43d b0eb 173c 63f4 e8bd 30ed 243e
00000050: 5622 083e 605a af3c 3c1d 8c3d 54e1 27be
00000060: c0b8 c43d a06c bbbc 00d0 1d3a 106c b63d
00000070: 1220 f5bd 80a2 05be dd33 f4bd a571 c7bd
00000080: c99e d8bd 007d 65bc 74e1 c5bd 6c28 0a3e
00000090: 11fb 2bbe b0fc 463c b4a1 213e 7c01 9e3d
000000a0: a023 673d 72f4 0cbe 445a a33d c098 0cbe
000000b0: c186 e6bd 30ff 5c3c e40f 2abd cf6e 15be
000000c0: ad37 3abe daa9 233e 7437 14bd 7af8 19be
000000d0: 0cd7 a23d b48f 41bd 848e 76bd 5885 053e
000000e0: 60bb c53c 8016 44bc f095 eabc 484c 1a3e
000000f0: 3ad4 2bbe c622 083e f4bd 103e 6877 4b3d
00000100: 008f 613b c09c de3d a8f4 45bd d001 263e
00000110: 1082 c13d 0039 3dbb a099 a83b 18b8 163d
00000120: 0c6f 243e 5cd3 81bd d440 ba3d 34d1 df3d
00000130: bc12 063d d8cf 203e 381d 383d 04e7 1ebe
00000140: 0cdb 1abe 24c8 733d 404d 1bbc e82d a5bc
00000150: 00aa a8ba a823 bebd bae8 353e a035 333e
00000160: cec1 073e 401b 12be d63c 023e d411 9b3d
00000170: 20c1 9c3d 2446 fabd b9d1 23be 5722 1cbe
00000180: 60b7 02be 0135 30be d0d0 1ebd c0a3 41bc
00000190: 9332 e9bd 60d6 563c 9e81 263e 14e1 c03d
000001a0: 166a 893d e00e f93b 7c4c a63d 08c6 fdbd
000001b0: 7222 10be 8c47 c73d e051 1ebe 80b8 3fbc
000001c0: f4c1 303e 88ca d13d 36d2 c5bd 006e b639
000001d0: 585c 183e 9ec2 30be 5419 22bd 40a7 563b
000001e0: 70f0 103e ea31 12be c059 a83d 60c0 2a3e
000001f0: 2c31 b8bd c041 7abc 80a5 2bbb f4d4 903d
00000200: c0b0 d03d e69b 37be 54c7 c3bd 2429 ed3d
00000210: b0de 8e3c ec68 403d f89c 993d d01d 953d
00000220: 0855 2abd 9d8b 36be 388b dcbd d8ec cb3d
00000230: ac44 95bd 1ac9 31be 2053 de3b 80db 6e3d
00000240: cfbd 83bd a4da 113e a467 823d 2829 583d
00000250: cb2b 19be 767a 2a3e c027 7a3d d831 2e3e
00000260: 94f6 3a3d b091 013c 99bd aebd c0e2 57bb
00000270: ba32 71bd e5fc 11be 2cb2 db3d 3e4b 3a3e
00000280: 54b3 29bd 68b7 c13d 9456 ba3d e5eb bebd
00000290: 5997 1bbe 99bf c1bd 6490 58bd dea0 24be
000002a0: a09f ff3d 06f1 193e 4e09 e3bd cc99 6a3d
000002b0: a37f 16be e5fc cebd c891 98bc 86e2 223e
000002c0: 706a 5d3d 74ef afbd 3c27 b83d dcbf 4f3d
000002d0: e99d 26be 2fcc 90bd 94be 9f3d 383e a93d
000002e0: a7d5 2fbe 4079 0f3e 3818 033d b01e 34bd
000002f0: bb4d dbbd 2830 10bd 78f9 733d 4c2d 1fbe
00000300: 12a8 17be c03a 5f3b 5066 1d3c e2c7 163e
00000310: 4cce 34bd d224 383e 3c24 0c3e 544f 07bd
00000320: 705b 86bd de42 09be 4655 9ebd 840b f03d
00000330: ec86 4c3d 8acf febd f63e 2a3e 3805 bdbc
00000340: 40d9 4cbb 48aa 8ebc dcb2 323e e0d5 bd3d
00000350: 5cd2 633d 9981 c3bd ccbc b03d d0d6 ac3d
00000360: e2ae 333e 5422 0d3d 2273 12be 8068 ee3b
00000370: d062 e63c f86f 67bd 083d 8f3c f2a6 833d
00000380: 68f3 1b3d 8027 9d3d dc86 333e 24f2 303e
00000390: 08ba c1bc 88d6 93bc 0021 cbba bc2d af3d
000003a0: 241d 4a3d 74fe 553d 0e8d 27be 5296 053e
000003b0: 1eba 393e 5956 32be 02f1 13be dc26 573d
000003c0: 9a21 283e 3345 b9bd cca5 31bd 5454 983d
000003d0: 1a3b 13be 0010 eab8 4cf2 23be 30f7 f9bc
000003e0: 9cdd a73d 76be 043e b9ba cbbd 3986 8fbd
000003f0: a04f 00bd e693 b8bd d437 88bd 2814 37bd
0.16576067 -0.13624033 0.08255902 0.09591609 0.025075734 0.11674759 0.071380824 -0.16806234
-0.06360114 0.094546795 0.038701832 -0.056743488 0.11224836 -0.16393311 -0.053287357 0.08624846
0.11938408 0.009272501 -0.11374738 0.16106105 0.13294348 0.021405399 0.068415135 -0.1639455
0.09605551 -0.022878945 0.0006020069 0.0890733 -0.119690076 -0.1305027 -0.11923955 -0.09738473
-0.10577161 -0.014006853 -0.096621424 0.13491982 -0.16794993 0.012145206 0.15784341 0.07715127
0.05643046 -0.13765123 0.07976201 -0.13730145 -0.11256171 0.013488576 -0.04151906 -0.14593051
-0.18185301 0.15982762 -0.036185697 -0.15036193 0.07951173 -0.047256187 -0.060194507 0.13039148
0.024137199 -0.011968255 -0.028635949 0.15068161 -0.16780177 0.13294515 0.14134961 0.04967442
0.003441751 0.108697414 -0.048329026 0.16211629 0.094486356 -0.0028873086 0.0051452667 0.03679666
0.16057986 -0.06339142 0.09094396 0.10928574 0.03273271 0.15704286 0.04494974 -0.15517813
-0.15122622 0.05951704 -0.009478867 -0.020163491 -0.0012868047 -0.09284145 0.1776456 0.17500925
0.13257524 -0.14268208 0.1271852 0.0757176 0.07654023 -0.122204095 -0.15997972 -0.15247475
-0.12765265 -0.1720772 -0.038773358 -0.011818826 -0.113865994 0.013112634 0.16260383 0.0941793
0.067096874 0.00760065 0.08120057 -0.12391287 -0.1407564 0.09730443 -0.1546092 -0.011701703
0.17261487 0.10243708 -0.09659235 0.00034795702 0.14878976 -0.1726174 -0.039574936 0.0032753497
0.1415422 -0.14276853 0.082202435 0.16674948 -0.08993754 -0.015274465 -0.0026191175 0.070718676
0.101899624 -0.17930564 -0.09559503 0.115801126 0.01744017 0.04697506 0.075006425 0.07281077
-0.041585 -0.17826696 -0.10768741 0.09957284 -0.07288489 -0.1736187 0.0067848116 0.0583148
-0.064326875 0.14243561 0.06367424 0.052773625 -0.14958112 0.16648278 0.061073065 0.17011201
0.04564531 0.00790827 -0.08532257 -0.003294155 -0.058886267 -0.14256628 0.10727343 0.18192765
-0.041430786 0.0945881 0.09098545 -0.09322337 -0.15194453 -0.094603725 -0.052872077 -0.16076991
0.12481618 0.1503335 -0.11085759 0.05727558 -0.14697127 -0.101068296 -0.018624201 0.15906724
0.054056585 -0.08590594 0.08991858 0.05072008 -0.16271175 -0.07070195 0.07800022 0.082638204
-0.17171346 0.14011097 0.03200552 -0.04397458 -0.10708185 -0.035202175 0.059564084 -0.15544623
-0.14810207 0.0034062117 0.009606913 0.14724687 -0.044142053 0.17982796 0.13685697 -0.033034638
-0.06560409 -0.13404414 -0.07731108 0.117209464 0.04993336 -0.12441929 0.1662558 -0.023073778
-0.003125742 -0.01741518 0.17451042 0.09269309 0.055620536 -0.09546203 0.0862976 0.0843941
0.17547181 0.034456566 -0.14301732 0.007275641 0.02812329 -0.056503266 0.017485157 0.06428327
0.038073927 0.0767355 0.17531914 0.1727987 -0.023648277 -0.018046632 -0.0015497506 0.08553645
0.049344197 0.05224462 -0.16362402 0.13045624 0.18137404 -0.17415752 -0.14447406 0.052527294
0.16419068 -0.09046402 -0.043371007 0.07437959 -0.14378014 -0.0001116097 -0.16010398 -0.030513376
0.081965655 0.1296328 -0.09947724 -0.07008023 -0.031325936 -0.090125844 -0.06651273 -0.044696957

net.1.weight f4 [256]
00000000: 0000 803f 0000 803f 0000 803f 0000 803f
00000010: 0000 803f 0000 803f 0000 803f 0000 803f
00000020: 0000 803f 0000 803f 0000 803f 0000 803f
00000030: 0000 803f 0000 803f 0000 803f 0000 803f
00000040: 0000 803f 0000 803f 0000 803f 0000 803f
00000050: 0000 803f 0000 803f 0000 803f 0000 803f
00000060: 0000 803f 0000 803f 0000 803f 0000 803f
00000070: 0000 803f 0000 803f 0000 803f 0000 803f
00000080: 0000 803f 0000 803f 0000 803f 0000 803f
00000090: 0000 803f 0000 803f 0000 803f 0000 803f
000000a0: 0000 803f 0000 803f 0000 803f 0000 803f
000000b0: 0000 803f 0000 803f 0000 803f 0000 803f
000000c0: 0000 803f 0000 803f 0000 803f 0000 803f
000000d0: 0000 803f 0000 803f 0000 803f 0000 803f
000000e0: 0000 803f 0000 803f 0000 803f 0000 803f
000000f0: 0000 803f 0000 803f 0000 803f 0000 803f
00000100: 0000 803f 0000 803f 0000 803f 0000 803f
00000110: 0000 803f 0000 803f 0000 803f 0000 803f
00000120: 0000 803f 0000 803f 0000 803f 0000 803f
00000130: 0000 803f 0000 803f 0000 803f 0000 803f
00000140: 0000 803f 0000 803f 0000 803f 0000 803f
00000150: 0000 803f 0000 803f 0000 803f 0000 803f
00000160: 0000 803f 0000 803f 0000 803f 0000 803f
00000170: 0000 803f 0000 803f 0000 803f 0000 803f
00000180: 0000 803f 0000 803f 0000 803f 0000 803f
00000190: 0000 803f 0000 803f 0000 803f 0000 803f
000001a0: 0000 803f 0000 803f 0000 803f 0000 803f
000001b0: 0000 803f 0000 803f 0000 803f 0000 803f
000001c0: 0000 803f 0000 803f 0000 803f 0000 803f
000001d0: 0000 803f 0000 803f 0000 803f 0000 803f
000001e0: 0000 803f 0000 803f 0000 803f 0000 803f
000001f0: 0000 803f 0000 803f 0000 803f 0000 803f
00000200: 0000 803f 0000 803f 0000 803f 0000 803f
00000210: 0000 803f 0000 803f 0000 803f 0000 803f
00000220: 0000 803f 0000 803f 0000 803f 0000 803f
00000230: 0000 803f 0000 803f 0000 803f 0000 803f
00000240: 0000 803f 0000 803f 0000 803f 0000 803f
00000250: 0000 803f 0000 803f 0000 803f 0000 803f
00000260: 0000 803f 0000 803f 0000 803f 0000 803f
00000270: 0000 803f 0000 803f 0000 803f 0000 803f
00000280: 0000 803f 0000 803f 0000 803f 0000 803f
00000290: 0000 803f 0000 803f 0000 803f 0000 803f
000002a0: 0000 803f 0000 803f 0000 803f 0000 803f
000002b0: 0000 803f 0000 803f 0000 803f 0000 803f
000002c0: 0000 803f 0000 803f 0000 803f 0000 803f
000002d0: 0000 803f 0000 803f 0000 803f 0000 803f
000002e0: 0000 803f 0000 803f 0000 803f 0000 803f
000002f0: 0000 803f 0000 803f 0000 803f 0000 803f
00000300: 0000 803f 0000 803f 0000 803f 0000 803f
00000310: 0000 803f 0000 803f 0000 803f 0000 803f
00000320: 0000 803f 0000 803f 0000 803f 0000 803f
00000330: 0000 803f 0000 803f 0000 803f 0000 803f
00000340: 0000 803f 0000 803f 0000 803f 0000 803f
00000350: 0000 803f 0000 803f 0000 803f 0000 803f
00000360: 0000 803f 0000 803f 0000 803f 0000 803f
00000370: 0000 803f 0000 803f 0000 803f 0000 803f
00000380: 0000 803f 0000 803f 0000 803f 0000 803f
00000390: 0000 803f 0000 803f 0000 803f 0000 803f
000003a0: 0000 803f 0000 803f 0000 803f 0000 803f
000003b0: 0000 803f 0000 803f 0000 803f 0000 803f
000003c0: 0000 803f 0000 803f 0000 803f 0000 803f
000003d0: 0000 803f 0000 803f 0000 803f 0000 803f
000003e0: 0000 803f 0000 803f 0000 803f 0000 803f
000003f0: 0000 803f 0000 803f 0000 803f 0000 803f
1.0 1.0 1.0 1.0 1.0 1.0 1.0 1.0
1.0 1.0 1.0 1.0 1.0 1.0 1.0 1.0
1.0 1.0 1.0 1.0 1.0 1.0 1.0 1.0
1.0 1.0 1.0 1.0 1.0 1.0 1.0 1.0
1.0 1.0 1.0 1.0 1.0 1.0 1.0 1.0
1.0 1.0 1.0 1.0 1.0 1.0 1.0 1.0
1.0 1.0 1.0 1.0 1.0 1.0 1.0 1.0
1.0 1.0 1.0 1.0 1.0 1.0 1.0 1.0
1.0 1.0 1.0 1.0 1.0 1.0 1.0 1.0
1.0 1.0 1.0 1.0 1.0 1.0 1.0 1.0
1.0 1.0 1.0 1.0 1.0 1.0 1.0 1.0
1.0 1.0 1.0 1.0 1.0 1.0 1.0 1.0
1.0 1.0 1.0 1.0 1.0 1.0 1.0 1.0
1.0 1.0 1.0 1.0 1.0 1.0 1.0 1.0
1.0 1.0 1.0 1.0 1.0 1.0 1.0 1.0
1.0 1.0 1.0 1.0 1.0 1.0 1.0 1.0
1.0 1.0 1.0 1.0 1.0 1.0 1.0 1.0
1.0 1.0 1.0 1.0 1.0 1.0 1.0 1.0
1.0 1.0 1.0 1.0 1.0 1.0 1.0 1.0
1.0 1.0 1.0 1.0 1.0 1.0 1.0 1.0
1.0 1.0 1.0 1.0 1.0 1.0 1.0 1.0
1.0 1.0 1.0 1.0 1.0 1.0 1.0 1.0
1.0 1.0 1.0 1.0 1.0 1.0 1.0 1.0
1.0 1.0 1.0 1.0 1.0 1.0 1.0 1.0
1.0 1.0 1.0 1.0 1.0 1.0 1.0 1.0
1.0 1.0 1.0 1.0 1.0 1.0 1.0 1.0
1.0 1.0 1.0 1.0 1.0 1.0 1.0 1.0
1.0 1.0 1.0 1.0 1.0 1.0 1.0 1.0
1.0 1.0 1.0 1.0 1.0 1.0 1.0 1.0
1.0 1.0 1.0 1.0 1.0 1.0 1.0 1.0
1.0 1.0 1.0 1.0 1.0 1.0 1.0 1.0
1.0 1.0 1.0 1.0 1.0 1.0 1.0 1.0

net.1.bias f4 [256]
00000000: 0000 0000 0000 0000 0000 0000 0000 0000
00000010: 0000 0000 0000 0000 0000 0000 0000 0000
00000020: 0000 0000 0000 0000 0000 0000 0000 0000
00000030: 0000 0000 0000 0000 0000 0000 0000 0000
00000040: 0000 0000 0000 0000 0000 0000 0000 0000
00000050: 0000 0000 0000 0000 0000 0000 0000 0000
00000060: 0000 0000 0000 0000 0000 0000 0000 0000
00000070: 0000 0000 0000 0000 0000 0000 0000 0000
00000080: 0000 0000 0000 0000 0000 0000 0000 0000
00000090: 0000 0000 0000 0000 0000 0000 0000 0000
000000a0: 0000 0000 0000 0000 0000 0000 0000 0000
000000b0: 0000 0000 0000 0000 0000 0000 0000 0000
000000c0: 0000 0000 0000 0000 0000 0000 0000 0000
000000d0: 0000 0000 0000 0000 0000 0000 0000 0000
000000e0: 0000 0000 0000 0000 0000 0000 0000 0000
000000f0: 0000 0000 0000 0000 0000 0000 0000 0000
00000100: 0000 0000 0000 0000 0000 0000 0000 0000
00000110: 0000 0000 0000 0000 0000 0000 0000 0000
00000120: 0000 0000 0000 0000 0000 0000 0000 0000
00000130: 0000 0000 0000 0000 0000 0000 0000 0000
00000140: 0000 0000 0000 0000 0000 0000 0000 0000
00000150: 0000 0000 0000 0000 0000 0000 0000 0000
00000160: 0000 0000 0000 0000 0000 0000 0000 0000
00000170: 0000 0000 0000 0000 0000 0000 0000 0000
00000180: 0000 0000 0000 0000 0000 0000 0000 0000
00000190: 0000 0000 0000 0000 0000 0000 0000 0000
000001a0: 0000 0000 0000 0000 0000 0000 0000 0000
000001b0: 0000 0000 0000 0000 0000 0000 0000 0000
000001c0: 0000 0000 0000 0000 0000 0000 0000 0000
000001d0: 0000 0000 0000 0000 0000 0000 0000 0000
000001e0: 0000 0000 0000 0000 0000 0000 0000 0000
000001f0: 0000 0000 0000 0000 0000 0000 0000 0000
00000200: 0000 0000 0000 0000 0000 0000 0000 0000
00000210: 0000 0000 0000 0000 0000 0000 0000 0000
00000220: 0000 0000 0000 0000 0000 0000 0000 0000
00000230: 0000 0000 0000 0000 0000 0000 0000 0000
00000240: 0000 0000 0000 0000 0000 0000 0000 0000
00000250: 0000 0000 0000 0000 0000 0000 0000 0000
00000260: 0000 0000 0000 0000 0000 0000 0000 0000
00000270: 0000 0000 0000 0000 0000 0000 0000 0000
00000280: 0000 0000 0000 0000 0000 0000 0000 0000
00000290: 0000 0000 0000 0000 0000 0000 0000 0000
000002a0: 0000 0000 0000 0000 0000 0000 0000 0000
000002b0: 0000 0000 0000 0000 0000 0000 0000 0000
000002c0: 0000 0000 0000 0000 0000 0000 0000 0000
000002d0: 0000 0000 0000 0000 0000 0000 0000 0000
000002e0: 0000 0000 0000 0000 0000 0000 0000 0000
000002f0: 0000 0000 0000 0000 0000 0000 0000 0000
00000300: 0000 0000 0000 0000 0000 0000 0000 0000
00000310: 0000 0000 0000 0000 0000 0000 0000 0000
00000320: 0000 0000 0000 0000 0000 0000 0000 0000
00000330: 0000 0000 0000 0000 0000 0000 0000 0000
00000340: 0000 0000 0000 0000 0000 0000 0000 0000
00000350: 0000 0000 0000 0000 0000 0000 0000 0000
00000360: 0000 0000 0000 0000 0000 0000 0000 0000
00000370: 0000 0000 0000 0000 0000 0000 0000 0000
00000380: 0000 0000 0000 0000 0000 0000 0000 0000
00000390: 0000 0000 0000 0000 0000 0000 0000 0000
000003a0: 0000 0000 0000 0000 0000 0000 0000 0000
000003b0: 0000 0000 0000 0000 0000 0000 0000 0000
000003c0: 0000 0000 0000 0000 0000 0000 0000 0000
000003d0: 0000 0000 0000 0000 0000 0000 0000 0000
000003e0: 0000 0000 0000 0000 0000 0000 0000 0000
000003f0: 0000 0000 0000 0000 0000 0000 0000 0000
0.0 0.0 0.0 0.0 0.0 0.0 0.0 0.0
0.0 0.0 0.0 0.0 0.0 0.0 0.0 0.0
0.0 0.0 0.0 0.0 0.0 0.0 0.0 0.0
0.0 0.0 0.0 0.0 0.0 0.0 0.0 0.0
0.0 0.0 0.0 0.0 0.0 0.0 0.0 0.0
0.0 0.0 0.0 0.0 0.0 0.0 0.0 0.0
0.0 0.0 0.0 0.0 0.0 0.0 0.0 0.0
0.0 0.0 0.0 0.0 0.0 0.0 0.0 0.0
0.0 0.0 0.0 0.0 0.0 0.0 0.0 0.0
0.0 0.0 0.0 0.0 0.0 0.0 0.0 0.0
0.0 0.0 0.0 0.0 0.0 0.0 0.0 0.0
0.0 0.0 0.0 0.0 0.0 0.0 0.0 0.0
0.0 0.0 0.0 0.0 0.0 0.0 0.0 0.0
0.0 0.0 0.0 0.0 0.0 0.0 0.0 0.0
0.0 0.0 0.0 0.0 0.0 0.0 0.0 0.0
0.0 0.0 0.0 0.0 0.0 0.0 0.0 0.0
0.0 0.0 0.0 0.0 0.0 0.0 0.0 0.0
0.0 0.0 0.0 0.0 0.0 0.0 0.0 0.0
0.0 0.0 0.0 0.0 0.0 0.0 0.0 0.0
0.0 0.0 0.0 0.0 0.0 0.0 0.0 0.0
0.0 0.0 0.0 0.0 0.0 0.0 0.0 0.0
0.0 0.0 0.0 0.0 0.0 0.0 0.0 0.0
0.0 0.0 0.0 0.0 0.0 0.0 0.0 0.0
0.0 0.0 0.0 0.0 0.0 0.0 0.0 0.0
0.0 0.0 0.0 0.0 0.0 0.0 0.0 0.0
0.0 0.0 0.0 0.0 0.0 0.0 0.0 0.0
0.0 0.0 0.0 0.0 0.0 0.0 0.0 0.0
0.0 0.0 0.0 0.0 0.0 0.0 0.0 0.0
0.0 0.0 0.0 0.0 0.0 0.0 0.0 0.0
0.0 0.0 0.0 0.0 0.0 0.0 0.0 0.0
0.0 0.0 0.0 0.0 0.0 0.0 0.0 0.0
0.0 0.0 0.0 0.0 0.0 0.0 0.0 0.0

net.3.weight f4 [256, 256]
00000000: 422b 0abd 984b 0e3d ac73 943c f068 98bb
00000010: c496 233d 202c 09bd 4a33 653d d0c7 753d
00000020: 30b1 33bc bcf7 68bd 780c 8e3c 6872 3b3d
00000030: d8f1 1d3c d4d2 45bd 508b d33b 003b 6fba
00000040: fef8 71bd f4ac 9bbc b279 093d 0033 8f3c
00000050: f0c4 6c3c 1086 4dbc d49c 64bd ecdb 2d3d
00000060: dc73 14bd 3095 dd3c f835 c13c c04c 7abc
00000070: 3418 72bd ae84 06bd c0f9 afbb 2c4d e13c
00000080: f4ed f9bc 9817 cc3c 2632 26bd d81e fabc
00000090: 68be 3f3c 2020 22bb 2020 febc b09f ed3c
000000a0: 7449 59bd bec4 77bd e457 183d 808c afbb
000000b0: 2aae 053d 8088 16ba 185a 343c c0fd ed3b
000000c0: 3014 223c a81c 793c 60b7 34bc f446 8dbc
000000d0: ac05 bbbc 1842 173c 8460 a7bc 3e80 573d
000000e0: 1cc5 9b3c 30f9 e93c e04e 543c 6028 eb3c
000000f0: 9c74 3abd 108c a93c 4080 ec3c b01f ce3c
00000100: 00ab 223b a08f 97bc bc20 443d f85b 4dbc
00000110: de0b 5e3d c227 2b3d 883d b13c 22ce 5b3d
00000120: bc02 a13c 7686 643d d4a4 00bd 88f1 2ebd
00000130: ca67 2a3d 4ad9 28bd b052 9fbc 90a6 5bbc
00000140: 40fd 103c e61c 4cbd 4c65 bd3c fc09 e9bc
00000150: 6ac0 473d 8030 dfbb c85d bebc 042d ecbc
00000160: 085b 04bc d450 43bd 0059 86b9 60d7 bcbc
00000170: 5ca4 99bc 32bf 333d bc3a bb3c fc0a 57bd
00000180: 8083 ee3a 985d 00bc 3001 303c 4c3a bbbc
00000190: 90fb 6fbd 4482 103d f0a9 34bd 202b fc3b
000001a0: e08a df3c 4e9b 05bd f8d1 9fbc a840 c9bc
000001b0: c074 2fbd 8039 123a c0b8 d93a e291 793d
000001c0: f879 a2bc 6058 1abd 0414 d4bc 7e03 41bd
000001d0: 00a6 143a 0876 833c 1802 5b3c 646d cabc
000001e0: 0063 22bd e035 09bc 829a 40bd 68d7 783c
000001f0: 6890 29bc 0056 74bd 7cb4 92bc e812 01bc
00000200: 0877 e3bc 44de 3ebd bac9 013d b80c 53bc
00000210: b4c9 23bd 6432 f4bc 94cf f83c 9059 b8bc
00000220: 58ac 40bd fc3f 22bd 32a2 623d b010 64bd
00000230: c0aa 44bd c08d 2dbb 4050 80ba 5cac b63c
00000240: 5cf7 303d 101a d0bb 5e43 3d3d b076 253d
00000250: 40a5 9bba d808 0d3d b0da 063d 9c6d dbbc
00000260: d803 78bd c884 87bc eea6 1f3d 9474 7abd
00000270: a052 02bd f417 61bd 222e 71bd 2e35 06bd
00000280: 2cd3 2abd acbf a93c 2009 10bd f039 dcbc
00000290: 08ac b63c 6086 05bb e8fa 1cbc 347d 48bd
000002a0: 6c7c d73c 34fb 223d ea52 193d 007d d33b
000002b0: 981f 473c f01c 273d c8b5 9e3c 24fe 48bd
000002c0: 5aae 293d 3068 fd3b fc54 0bbd 56cc 62bd
000002d0: c816 6abd f03d 0b3c 50ea 53bd 2c90 e13c
000002e0: 120f 14bd 46a5 70bd 7a80 593d a05c 63bd
000002f0: 40a1 d43b 30d1 973c f02d 77bc 1e11 39bd
00000300: 320e 783d 360d 0fbd c0bb d83b 8418 c93c
00000310: 30a2 10bc 6069 2f3b 80ea 7dbb e000 afbb
00000320: 649a 903c 5888 4c3d b6ec 6d3d 4072 cbbc
00000330: 0497 25bd 5082 5cbd fc59 b9bc d01a bfbb
00000340: 22fa 2abd 5c6f 2c3d 30b3 253d 4076 6fbb
00000350: 4e4d 1bbd a489 343d c479 2e3d aa1c 1bbd
00000360: 28be 17bd c0c0 7bbd 883f 61bd 2005 283d
00000370: 4400 bbbc 6086 e0bb c8c7 85bc a488 bf3c
00000380: f899 69bc 3e68 6c3d 28e5 523c 00ee 583a
00000390: ba34 7c3d 3ae0 79bd 76bb 66bd f229 56bd
000003a0: 144a e9bc e8f0 45bd f856 a53c a44a dd3c
000003b0: a4d8 b33c 9cec cd3c 103c 263d 9245 573d
000003c0: 5024 30bd 88e3 b33c ec43 7bbd 48a5 10bd
000003d0: 4c35 b53c 76fd 2d3d 4c50 5abd 9a1c 6abd
000003e0: 7049 c9bc 0835 783d 8023 383c 68f6 5dbd
000003f0: a8ee 54bc 40c0 d7bb 2cad 193d 90e7 d23b
-0.03373266 0.03474006 0.018121563 -0.0046511814 0.039938703 -0.033489347 0.055957116 0.06000501
-0.010967538 -0.056876883 0.01733993 0.045763403 0.00964018 -0.048296764 0.0064558163 -0.0009125918
-0.059075348 -0.019003369 0.033563323 0.017480373 0.01445125 -0.01254417 -0.055813625 0.042446062
-0.036243305 0.027048677 0.023585305 -0.015277088 -0.059105113 -0.032841377 -0.0053703487 0.027502619
-0.030508973 0.024913594 -0.04057517 -0.030532286 0.011703111 -0.0024738386 -0.031021178 0.029006809
-0.053048566 -0.060490362 0.037193194 -0.005357325 0.0326368 -0.0005742386 0.011007808 0.0072629154
0.009892508 0.015204586 -0.011030048 -0.017245747 -0.022829853 0.009232067 -0.020431764 0.052612536
0.019014888 0.028561205 0.012958258 0.028705776 -0.045521364 0.02069667 0.028869748 0.025161594
0.0024821162 -0.018501103 0.04788278 -0.012534134 0.054210536 0.041785963 0.021635786 0.05366338
0.019654624 0.055792294 -0.031407192 -0.04271081 0.041602887 -0.041222848 -0.019448608 -0.013406411
0.008849442 -0.049832247 0.023119591 -0.028447144 0.048767485 -0.0068112016 -0.023238078 -0.028830059
-0.008078344 -0.047684506 -0.00025624782 -0.023051918 -0.01875513 0.04388351 0.022855155 -0.05250071
0.0018197149 -0.0078348145 0.010742471 -0.022854947 -0.058589518 0.03528048 -0.044107378 0.0076955706
0.0272879 -0.032618813 -0.0195093 -0.024566963 -0.04283595 0.0005578026 0.0016610846 0.06093014
-0.01983355 -0.037681937 -0.02588845 -0.04712247 0.0005670488 0.016047493 0.013367198 -0.024710365
-0.039645195 -0.008374661 -0.04702235 0.015188076 -0.010349371 -0.05965233 -0.017908327 -0.007878043
-0.02776672 -0.046598688 0.031686522 -0.01288145 -0.03998728 -0.029809184 0.030372418 -0.022503644
-0.04703936 -0.0396118 0.055330463 -0.055679977 -0.048014402 -0.0026482195 -0.0009789541 0.022298984
0.04320465 -0.006350763 0.046206824 0.040396392 -0.001187481 0.034432262 0.0329234 -0.026785664
-0.06055054 -0.016542807 0.038977556 -0.061146334 -0.03181708 -0.054954484 -0.058881886 -0.03276556
-0.041705295 0.02072128 -0.035164952 -0.026883096 0.022298828 -0.0020374283 -0.009581305 -0.048947528
0.026304446 0.039790347 0.03743259 0.00645411 0.012153529 0.04079908 0.01937379 -0.049070492
0.04142604 0.0077333674 -0.034016594 -0.05537065 -0.057150632 0.008498654 -0.05173713 0.027534567
-0.036147185 -0.058751367 0.05310104 -0.055508256 0.006488949 0.018532366 -0.015086636 -0.04518234
0.060560413 -0.03492471 0.0066141784 0.024547823 -0.008827731 0.002676569 -0.003874451 -0.0053406805
0.017651744 0.049934715 0.058087073 -0.024834752 -0.040427223 -0.053835213 -0.022625916 -0.0058320537
-0.04174245 0.042098388 0.04045409 -0.0036538988 -0.03791552 0.044076577 0.042596593 -0.037869133
-0.03704658 -0.061463118 -0.05499223 0.041020513 -0.022827275 -0.0068519562 -0.016330615 0.023380585
-0.0142579 0.0577166 0.012872018 0.0008275211 0.06157372 -0.061004855 -0.05633112 -0.052286096
-0.028477706 -0.04832545 0.020183071 0.02701313 0.021953888 0.025137238 0.040584624 0.05255658
-0.04300338 0.021959081 -0.061344072 -0.035313874 0.02212014 0.042478047 -0.053299233 -0.057156183
-0.02457115 0.06059745 0.011238933 -0.05419007 -0.012996353 -0.0065841973 0.037518665 0.006436296

net.3.bias f4 [256]
00000000: 3054 79bd d4f1 a1bc 48b2 46bd dc8e 77bd
00000010: b87b 263c 04a4 d8bc 0462 2ebd 60dc 9e3c
00000020: 748b 143d 909c a6bb c846 f1bc a0b4 b8bb
00000030: 6082 893b a8b6 1abd 08f1 0cbc 4c0e 9f3c
00000040: 028a 693d 1aea 59bd 2c6b 6abd 487a 26bc
00000050: a0be dbbb a4a6 a3bc 7ec7 483d 5023 613d
00000060: 20a5 633d f26f 58bd a042 323c f2c7 313d
00000070: 98ed e13c 5c3c 49bd d016 c0bb c46f 05bd
00000080: ba01 02bd 2003 5b3c b011 ff3c c07d e83b
00000090: 2cbc 86bc dc9a 98bc c400 0e3d 4473 3c3d
000000a0: 00f4 4a3d 02c2 57bd 8c51 e7bc 4c7d 1abd
000000b0: 0838 5c3d 2092 e33c 1cd4 643d 2ece 27bd
000000c0: 68be 57bc 40a7 b6ba 7807 a63c 6e14 2d3d
000000d0: 9027 0f3d 6075 48bb e438 ac3c 421c 55bd
000000e0: 707c 8cbb 4868 ac3c 18bd 403c 3009 953b
000000f0: 683b 2ebd 8877 523c 0000 f2ba da70 6cbd
00000100: beef 47bd 6ce0 c73c e686 7c3d e09a 653b
00000110: 641c 433d a427 b0bc 0c3a 4abd 8837 293c
00000120: 809e 04bd d0ae 76bc 186a a73c 44cc eabc
00000130: 7e55 313d 1ada 313d 2414 f2bc cc98 51bd
00000140: 7ace 02bd a242 06bd d8cd f6bc fab3 003d
00000150: 2008 233d 7477 d0bc 4840 6a3d 6c37 1b3d
00000160: 4273 1dbd b812 44bd d081 f9bb 4046 483d
00000170: 1011 ab3b 4e50 363d 207a 2b3d c0fb 9dba
00000180: 24f2 563d 608d c9bb b6dc 0d3d 1e50 43bd
00000190: d624 6f3d e651 7e3d e0be 3cbd 8642 103d
000001a0: e286 13bd fed5 57bd c4b7 fc3c 722e 1a3d
000001b0: 405f 95ba a6b3 18bd 141d bf3c 244a 7cbd
000001c0: 3258 5fbd 4ea2 4f3d 188b 7c3d 78a9 d3bc
000001d0: 582a eb3c c422 cabc 8000 aa3b 2c6e 11bd
000001e0: c0e5 0a3d e205 453d 3c88 efbc d8f4 b7bc
000001f0: 1acb 083d e074 13bd 20d6 cabb 8cf3 ffbc
00000200: dcf6 6fbd 5849 23bd 6484 703d c26f 0d3d
00000210: ec42 6f3d ea23 0c3d 8443 f4bc 703c 13bd
00000220: 3cc9 0c3d 5e1f 663d 0c10 473d 3c63 a23c
00000230: b471 d9bc c065 faba 6693 5ebd 9038 3abd
00000240: ba63 64bd e018 f43c 704a 1b3c 48d9 153d
00000250: b854 7fbd cc8c dabc c20d 04bd 68c2 01bd
00000260: 80cd 49ba 4084 0ebd 40dc c4bc 9c66 d1bc
00000270: b845 553d 5650 143d a0dc ca3b 2801 79bc
00000280: 9ca6 c93c 10fb 81bb 4c19 9fbc 640b 5cbd
00000290: 78ea dbbc d43c 84bc 0092 2eb9 bc60 8abc
000002a0: 5082 f0bc 8043 b1bc 880c 2bbd e875 523d
000002b0: 8c46 13bd 787b 403c 64b2 b0bc 489a de3c
000002c0: 9081 623c 2c81 9e3c 340e f4bc 4621 79bd
000002d0: 7ce2 1dbd 7aa7 783d 0ab2 36bd 0855 5c3c
000002e0: 8052 9c3a ee27 6fbd bcd6 3c3d 5457 d73c
000002f0: 5401 813c c840 0cbd 1c20 5abd d074 b5bc
00000300: 44f2 eabc 6c97 613d f82e 7fbd dc0f 873c
00000310: 647c 42bd 4cde c0bc 14ef f9bc d471 34bd
00000320: 40aa 153d 680d 58bd 12f4 34bd 88ca f03c
00000330: 36ec 0ebd f46b 64bd 103d 0ebc e867 48bc
00000340: 045d 0c3d 2805 bc3c 5016 08bd b248 37bd
00000350: 32e6 66bd d83d 03bd 2076 1abb 2477 183d
00000360: 90d4 0cbd 6059 2bbb ee54 1dbd 24c4 0d3d
00000370: b40c 433d 2093 0abc a808 70bd 9245 31bd
00000380: 60dd 3a3d 96cd 08bd b41f b7bc 0012 593c
00000390: 8623 36bd 5a10 4ebd 50fc 99bc 780e 2d3c
000003a0: 8868 833c a02b 3bbc 5062 fb3c 281e 803c
000003b0: 6c90 94bc 56da 70bd 64da f63c 50cf f1bc
000003c0: dc6f e8bc 1a74 3dbd 3e09 7e3d fc79 2a3d
000003d0: 1a44 163d 98b2 5cbc 2079 4dbb 00ae 453b
000003e0: f0f5 5bbc f0be 01bc b0ec febb 228c 05bd
000003f0: 926b 1dbd d48b 75bd ca2a 66bd 82f1 09bd
-0.060871303 -0.019768633 -0.048509866 -0.060438976 0.010161333 -0.026445396 -0.042573944 0.019392192
0.036265805 -0.0050845817 -0.029452696 -0.0056367666 0.00419645 -0.03777185 -0.008602388 0.019415997
0.05701638 -0.053201772 -0.057231113 -0.01016099 -0.006706074 -0.019976921 0.049018376 0.054965317
0.055577397 -0.052841134 0.010880142 0.043403573 0.027579114 -0.04912983 -0.0058620945 -0.03257729
-0.031739928 0.013367444 0.031136364 0.0070950687 -0.01644715 -0.01862853 0.0346687 0.046008363
0.049549103 -0.052675255 -0.028237127 -0.03771715 0.053764373 0.027779639 0.055866346 -0.040968113
-0.013167955 -0.0013935342 0.020267233 0.04225581 0.03494984 -0.003058754 0.021023221 -0.052028902
-0.004287295 0.021045819 0.011763833 0.0045482144 -0.042537123 0.012845881 -0.0018463135 -0.05772481
-0.04881262 0.024399005 0.061652087 0.003503494 0.047634497 -0.021503277 -0.049371764 0.010328181
-0.03237772 -0.015056327 0.020436332 -0.028661855 0.043294422 0.04342089 -0.02955062 -0.05117111
-0.031935193 -0.03277839 -0.03012745 0.03142164 0.03980267 -0.025447585 0.05719021 0.03789465
-0.038439997 -0.047869414 -0.007614352 0.04889512 0.00522054 0.04451018 0.041864514 -0.0012053177
0.052477017 -0.0061508864 0.034634314 -0.047683828 0.05838474 0.062089823 -0.04608047 0.03521969
-0.036017306 -0.052694313 0.030849345 0.03764195 -0.0011396185 -0.0372807 0.023329295 -0.061594144
-0.05452747 0.050691895 0.061656088 -0.025837645 0.028706715 -0.02467478 0.005188048 -0.03550546
0.033910513 0.048101313 -0.029239766 -0.022455618 0.033396818 -0.036000133 -0.0061900765 -0.031244062
-0.058585033 -0.039864868 0.058720008 0.03453041 0.05841343 0.034213938 -0.02981735 -0.03594631
0.0343716 0.056182258 0.048599288 0.01982271 -0.026543476 -0.001910381 -0.05433979 -0.0454641
-0.05575917 0.029797018 0.0094781965 0.03658417 -0.062336653 -0.026678465 -0.032239683 -0.03167954
-0.00076981634 -0.034794092 -0.024030805 -0.025561623 0.052068442 0.036209427 0.0061908513 -0.01519803
0.024615578 -0.0039666966 -0.019421242 -0.0537218 -0.026845202 -0.016142286 -0.00016648322 -0.01689183
-0.029359013 -0.021638632 -0.041759998 0.051381975 -0.03595595 0.011748187 -0.021569438 0.027173176
0.013824835 0.019348703 -0.029791929 -0.060822748 -0.03854607 0.060706593 -0.044603385 0.013448007
0.0011926442 -0.05838769 0.046103224 0.026286758 0.015747704 -0.034241468 -0.053253278 -0.022150427
-0.028679974 0.055076048 -0.062300652 0.016487055 -0.04748191 -0.0235435 -0.03050951 -0.044053867
0.036539316 -0.05274716 -0.044178076 0.02939345 -0.034893237 -0.055767015 -0.008681551 -0.012231804
0.034268394 0.022951677 -0.033224404 -0.044747062 -0.056371875 -0.0320414 -0.0023568943 0.037222996
-0.034382403 -0.00261458 -0.038411073 0.034610882 0.047619537 -0.008457929 -0.058602005 -0.043279238
0.045621276 -0.033399187 -0.022353984 0.01324892 -0.04446747 -0.050308563 -0.01879707 0.010562532
0.016041055 -0.011423975 0.030686527 0.01563938 -0.018135272 -0.05880197 0.030133434 -0.0295178
-0.028373651 -0.0462533 0.062020533 0.04162024 0.03668604 -0.013470314 -0.0031352714 0.0030163527
-0.013425335 -0.007919058 -0.00777968 -0.032604344 -0.038432665 -0.059947804 -0.05619315 -0.033677585

net.4.weight f4 [256]
00000000: 0000 803f 0000 803f 0000 803f 0000 803f
00000010: 0000 803f 0000 803f 0000 803f 0000 803f
00000020: 0000 803f 0000 803f 0000 803f 0000 803f
00000030: 0000 803f 0000 803f 0000 803f 0000 803f
00000040: 0000 803f 0000 803f 0000 803f 0000 803f
00000050: 0000 803f 0000 803f 0000 803f 0000 803f
00000060: 0000 803f 0000 803f 0000 803f 0000 803f
00000070: 0000 803f 0000 803f 0000 803f 0000 803f
00000080: 0000 803f 0000 803f 0000 803f 0000 803f
00000090: 0000 803f 0000 803f 0000 803f 0000 803f
000000a0: 0000 803f 0000 803f 0000 803f 0000 803f
000000b0: 0000 803f 0000 803f 0000 803f 0000 803f
000000c0: 0000 803f 0000 803f 0000 803f 0000 803f
000000d0: 0000 803f 0000 803f 0000 803f 0000 803f
000000e0: 0000 803f 0000 803f 0000 803f 0000 803f
000000f0: 0000 803f 0000 803f 0000 803f 0000 803f
00000100: 0000 803f 0000 803f 0000 803f 0000 803f
00000110: 0000 803f 0000 803f 0000 803f 0000 803f
00000120: 0000 803f 0000 803f 0000 803f 0000 803f
00000130: 0000 803f 0000 803f 0000 803f 0000 803f
00000140: 0000 803f 0000 803f 0000 803f 0000 803f
00000150: 0000 803f 0000 803f 0000 803f 0000 803f
00000160: 0000 803f 0000 803f 0000 803f 0000 803f
00000170: 0000 803f 0000 803f 0000 803f 0000 803f
00000180: 0000 803f 0000 803f 0000 803f 0000 803f
00000190: 0000 803f 0000 803f 0000 803f 0000 803f
000001a0: 0000 803f 0000 803f 0000 803f 0000 803f
000001b0: 0000 803f 0000 803f 0000 803f 0000 803f
000001c0: 0000 803f 0000 803f 0000 803f 0000 803f
000001d0: 0000 803f 0000 803f 0000 803f 0000 803f
000001e0: 0000 803f 0000 803f 0000 803f 0000 803f
000001f0: 0000 803f 0000 803f 0000 803f 0000 803f
00000200: 0000 803f 0000 803f 0000 803f 0000 803f
00000210: 0000 803f 0000 803f 0000 803f 0000 803f
00000220: 0000 803f 0000 803f 0000 803f 0000 803f
00000230: 0000 803f 0000 803f 0000 803f 0000 803f
00000240: 0000 803f 0000 803f 0000 803f 0000 803f
00000250: 0000 803f 0000 803f 0000 803f 0000 803f
00000260: 0000 803f 0000 803f 0000 803f 0000 803f
00000270: 0000 803f 0000 803f 0000 803f 0000 803f
00000280: 0000 803f 0000 803f 0000 803f 0000 803f
00000290: 0000 803f 0000 803f 0000 803f 0000 803f
000002a0: 0000 803f 0000 803f 0000 803f 0000 803f
000002b0: 0000 803f 0000 803f 0000 803f 0000 803f
000002c0: 0000 803f 0000 803f 0000 803f 0000 803f
000002d0: 0000 803f 0000 803f 0000 803f 0000 803f
000002e0: 0000 803f 0000 803f 0000 803f 0000 803f
000002f0: 0000 803f 0000 803f 0000 803f 0000 803f
00000300: 0000 803f 0000 803f 0000 803f 0000 803f
00000310: 0000 803f 0000 803f 0000 803f 0000 803f
00000320: 0000 803f 0000 803f 0000 803f 0000 803f
00000330: 0000 803f 0000 803f 0000 803f 0000 803f
00000340: 0000 803f 0000 803f 0000 803f 0000 803f
00000350: 0000 803f 0000 803f 0000 803f 0000 803f
00000360: 0000 803f 0000 803f 0000 803f 0000 803f
00000370: 0000 803f 0000 803f 0000 803f 0000 803f
00000380: 0000 803f 0000 803f 0000 803f 0000 803f
00000390: 0000 803f 0000 803f 0000 803f 0000 803f
000003a0: 0000 803f 0000 803f 0000 803f 0000 803f
000003b0: 0000 803f 0000 803f 0000 803f 0000 803f
000003c0: 0000 803f 0000 803f 0000 803f 0000 803f
000003d0: 0000 803f 0000 803f 0000 803f 0000 803f
000003e0: 0000 803f 0000 803f 0000 803f 0000 803f
000003f0: 0000 803f 0000 803f 0000 803f 0000 803f
1.0 1.0 1.0 1.0 1.0 1.0 1.0 1.0
1.0 1.0 1.0 1.0 1.0 1.0 1.0 1.0
1.0 1.0 1.0 1.0 1.0 1.0 1.0 1.0
1.0 1.0 1.0 1.0 1.0 1.0 1.0 1.0
1.0 1.0 1.0 1.0 1.0 1.0 1.0 1.0
1.0 1.0 1.0 1.0 1.0 1.0 1.0 1.0
1.0 1.0 1.0 1.0 1.0 1.0 1.0 1.0
1.0 1.0 1.0 1.0 1.0 1.0 1.0 1.0
1.0 1.0 1.0 1.0 1.0 1.0 1.0 1.0
1.0 1.0 1.0 1.0 1.0 1.0 1.0 1.0
1.0 1.0 1.0 1.0 1.0 1.0 1.0 1.0
1.0 1.0 1.0 1.0 1.0 1.0 1.0 1.0
1.0 1.0 1.0 1.0 1.0 1.0 1.0 1.0
1.0 1.0 1.0 1.0 1.0 1.0 1.0 1.0
1.0 1.0 1.0 1.0 1.0 1.0 1.0 1.0
1.0 1.0 1.0 1.0 1.0 1.0 1.0 1.0
1.0 1.0 1.0 1.0 1.0 1.0 1.0 1.0
1.0 1.0 1.0 1.0 1.0 1.0 1.0 1.0
1.0 1.0 1.0 1.0 1.0 1.0 1.0 1.0
1.0 1.0 1.0 1.0 1.0 1.0 1.0 1.0
1.0 1.0 1.0 1.0 1.0 1.0 1.0 1.0
1.0 1.0 1.0 1.0 1.0 1.0 1.0 1.0
1.0 1.0 1.0 1.0 1.0 1.0 1.0 1.0
1.0 1.0 1.0 1.0 1.0 1.0 1.0 1.0
1.0 1.0 1.0 1.0 1.0 1.0 1.0 1.0
1.0 1.0 1.0 1.0 1.0 1.0 1.0 1.0
1.0 1.0 1.0 1.0 1.0 1.0 1.0 1.0
1.0 1.0 1.0 1.0 1.0 1.0 1.0 1.0
1.0 1.0 1.0 1.0 1.0 1.0 1.0 1.0
1.0 1.0 1.0 1.0 1.0 1.0 1.0 1.0
1.0 1.0 1.0 1.0 1.0 1.0 1.0 1.0
1.0 1.0 1.0 1.0 1.0 1.0 1.0 1.0

net.4.bias f4 [256]
00000000: 0000 0000 0000 0000 0000 0000 0000 0000
00000010: 0000 0000 0000 0000 0000 0000 0000 0000
00000020: 0000 0000 0000 0000 0000 0000 0000 0000
00000030: 0000 0000 0000 0000 0000 0000 0000 0000
00000040: 0000 0000 0000 0000 0000 0000 0000 0000
00000050: 0000 0000 0000 0000 0000 0000 0000 0000
00000060: 0000 0000 0000 0000 0000 0000 0000 0000
00000070: 0000 0000 0000 0000 0000 0000 0000 0000
00000080: 0000 0000 0000 0000 0000 0000 0000 0000
00000090: 0000 0000 0000 0000 0000 0000 0000 0000
000000a0: 0000 0000 0000 0000 0000 0000 0000 0000
000000b0: 0000 0000 0000 0000 0000 0000 0000 0000
000000c0: 0000 0000 0000 0000 0000 0000 0000 0000
000000d0: 0000 0000 0000 0000 0000 0000 0000 0000
000000e0: 0000 0000 0000 0000 0000 0000 0000 0000
000000f0: 0000 0000 0000 0000 0000 0000 0000 0000
00000100: 0000 0000 0000 0000 0000 0000 0000 0000
00000110: 0000 0000 0000 0000 0000 0000 0000 0000
00000120: 0000 0000 0000 0000 0000 0000 0000 0000
00000130: 0000 0000 0000 0000 0000 0000 0000 0000
00000140: 0000 0000 0000 0000 0000 0000 0000 0000
00000150: 0000 0000 0000 0000 0000 0000 0000 0000
00000160: 0000 0000 0000 0000 0000 0000 0000 0000
00000170: 0000 0000 0000 0000 0000 0000 0000 0000
00000180: 0000 0000 0000 0000 0000 0000 0000 0000
00000190: 0000 0000 0000 0000 0000 0000 0000 0000
000001a0: 0000 0000 0000 0000 0000 0000 0000 0000
000001b0: 0000 0000 0000 0000 0000 0000 0000 0000
000001c0: 0000 0000 0000 0000 0000 0000 0000 0000
000001d0: 0000 0000 0000 0000 0000 0000 0000 0000
000001e0: 0000 0000 0000 0000 0000 0000 0000 0000
000001f0: 0000 0000 0000 0000 0000 0000 0000 0000
00000200: 0000 0000 0000 0000 0000 0000 0000 0000
00000210: 0000 0000 0000 0000 0000 0000 0000 0000
00000220: 0000 0000 0000 0000 0000 0000 0000 0000
00000230: 0000 0000 0000 0000 0000 0000 0000 0000
00000240: 0000 0000 0000 0000 0000 0000 0000 0000
00000250: 0000 0000 0000 0000 0000 0000 0000 0000
00000260: 0000 0000 0000 0000 0000 0000 0000 0000
00000270: 0000 0000 0000 0000 0000 0000 0000 0000
00000280: 0000 0000 0000 0000 0000 0000 0000 0000
00000290: 0000 0000 0000 0000 0000 0000 0000 0000
000002a0: 0000 0000 0000 0000 0000 0000 0000 0000
000002b0: 0000 0000 0000 0000 0000 0000 0000 0000
000002c0: 0000 0000 0000 0000 0000 0000 0000 0000
000002d0: 0000 0000 0000 0000 0000 0000 0000 0000
000002e0: 0000 0000 0000 0000 0000 0000 0000 0000
000002f0: 0000 0000 0000 0000 0000 0000 0000 0000
00000300: 0000 0000 0000 0000 0000 0000 0000 0000
00000310: 0000 0000 0000 0000 0000 0000 0000 0000
00000320: 0000 0000 0000 0000 0000 0000 0000 0000
00000330: 0000 0000 0000 0000 0000 0000 0000 0000
00000340: 0000 0000 0000 0000 0000 0000 0000 0000
00000350: 0000 0000 0000 0000 0000 0000 0000 0000
00000360: 0000 0000 0000 0000 0000 0000 0000 0000
00000370: 0000 0000 0000 0000 0000 0000 0000 0000
00000380: 0000 0000 0000 0000 0000 0000 0000 0000
00000390: 0000 0000 0000 0000 0000 0000 0000 0000
000003a0: 0000 0000 0000 0000 0000 0000 0000 0000
000003b0: 0000 0000 0000 0000 0000 0000 0000 0000
000003c0: 0000 0000 0000 0000 0000 0000 0000 0000
000003d0: 0000 0000 0000 0000 0000 0000 0000 0000
000003e0: 0000 0000 0000 0000 0000 0000 0000 0000
000003f0: 0000 0000 0000 0000 0000 0000 0000 0000
0.0 0.0 0.0 0.0 0.0 0.0 0.0 0.0
0.0 0.0 0.0 0.0 0.0 0.0 0.0 0.0
0.0 0.0 0.0 0.0 0.0 0.0 0.0 0.0
0.0 0.0 0.0 0.0 0.0 0.0 0.0 0.0
0.0 0.0 0.0 0.0 0.0 0.0 0.0 0.0
0.0 0.0 0.0 0.0 0.0 0.0 0.0 0.0
0.0 0.0 0.0 0.0 0.0 0.0 0.0 0.0
0.0 0.0 0.0 0.0 0.0 0.0 0.0 0.0
0.0 0.0 0.0 0.0 0.0 0.0 0.0 0.0
0.0 0.0 0.0 0.0 0.0 0.0 0.0 0.0
0.0 0.0 0.0 0.0 0.0 0.0 0.0 0.0
0.0 0.0 0.0 0.0 0.0 0.0 0.0 0.0
0.0 0.0 0.0 0.0 0.0 0.0 0.0 0.0
0.0 0.0 0.0 0.0 0.0 0.0 0.0 0.0
0.0 0.0 0.0 0.0 0.0 0.0 0.0 0.0
0.0 0.0 0.0 0.0 0.0 0.0 0.0 0.0
0.0 0.0 0.0 0.0 0.0 0.0 0.0 0.0
0.0 0.0 0.0 0.0 0.0 0.0 0.0 0.0
0.0 0.0 0.0 0.0 0.0 0.0 0.0 0.0
0.0 0.0 0.0 0.0 0.0 0.0 0.0 0.0
0.0 0.0 0.0 0.0 0.0 0.0 0.0 0.0
0.0 0.0 0.0 0.0 0.0 0.0 0.0 0.0
0.0 0.0 0.0 0.0 0.0 0.0 0.0 0.0
0.0 0.0 0.0 0.0 0.0 0.0 0.0 0.0
0.0 0.0 0.0 0.0 0.0 0.0 0.0 0.0
0.0 0.0 0.0 0.0 0.0 0.0 0.0 0.0
0.0 0.0 0.0 0.0 0.0 0.0 0.0 0.0
0.0 0.0 0.0 0.0 0.0 0.0 0.0 0.0
0.0 0.0 0.0 0.0 0.0 0.0 0.0 0.0
0.0 0.0 0.0 0.0 0.0 0.0 0.0 0.0
0.0 0.0 0.0 0.0 0.0 0.0 0.0 0.0
0.0 0.0 0.0 0.0 0.0 0.0 0.0 0.0

net.6.weight f4 [3, 256]
00000000: 58ef 5cbd 225d 65bd 4ee1 7ebd 0046 e3bc
00000010: 4cc9 f63c 7610 103d a07c 593d 00b2 8cbb
00000020: 9c17 2d3d 6084 d0bc badd 2ebd 980c 93bc
00000030: 609b 18bd f0c9 d2bb a8b2 3abc da91 023d
00000040: 7646 713d 9a16 26bd 34db 9dbc f460 df3c
00000050: 5409 393d 24db 243d 1266 6c3d c01a 873c
00000060: 4692 5d3d c068 063b 5021 f23b f86a 9bbc
00000070: 3032 f33c 7e3c 5b3d d0a8 8cbb 8851 ed3c
00000080: d049 b1bc a0de 00bd 40e1 383b 7cf3 66bd
00000090: d0ac fabb c681 2dbd 0e7d 4dbd 5cc3 95bc
000000a0: 70a4 f63b 7826 b63c cee2 61bd a451 0e3d
000000b0: 3c4a f33c 8018 193a 903a abbc 6862 7b3c
000000c0: a8dc 443d de26 4a3d 1a3b 343d 6449 7b3d
000000d0: 40fc 4ebb 8445 40bd c05c f43c 4eef 473d
000000e0: dc38 84bc 406e f73c 60d5 c33b 4c3b 43bd
000000f0: c8ac f53c 8e14 423d 2083 533c f8e3 80bc
00000100: 38b2 1dbc b8ac c73c b08d a8bb b42c dbbc
00000110: 608e 4c3d d8c2 63bd d858 063c 8048 d0bb
00000120: d0eb 463d 4416 2dbd 1027 133d 7096 653d
00000130: c21c 2a3d b025 ebbc 2063 6a3b fcc1 63bd
00000140: c6e5 143d 9c61 6fbd 3897 4d3c 8848 77bd
00000150: ac29 283d 2c8e 6fbd 7c70 d83c 8013 a6ba
00000160: ac23 7fbd de90 75bd def0 37bd 2caa a73c
00000170: c004 85bb 74f0 103d c6ad 42bd 78b0 11bd
00000180: b435 ffbc 22ee 2bbd ac06 0f3d 6812 29bc
00000190: ec82 4f3d e415 01bd 700a e03b 386e 983c
000001a0: 00bc bebb b099 03bd 008f 70ba d0db 39bc
000001b0: ccab aa3c 0032 963c 200c c5bb c002 3cbc
000001c0: 54d0 e93c 007b 423a 98ec 4dbc 2616 15bd
000001d0: 841a 89bc e433 e83c 1e2b 2dbd 5413 213d
000001e0: 7422 e1bc 0268 063d 30d9 f93b b016 07bd
000001f0: 86c7 2f3d 6a4b 4fbd 8039 423c 1093 5a3d
00000200: 6099 a1bb d82f 13bd 4c0f 19bd a08b 7b3b
00000210: a80b 0f3c 96bf 0cbd c4db 63bd 0486 d4bc
00000220: d851 8c3c 3488 b7bc 344a de3c e03e 53bc
00000230: 9a46 5f3d a4c0 81bc 4caf eabc 6401 093d
00000240: d645 763d 74cc 0d3d a0cb 3dbd 98bf d73c
00000250: 1e23 37bd a2ae 723d 18d0 4b3d 5c22 2cbd
00000260: 9a4c 45bd 20c0 c03c a0e7 373d c699 15bd
00000270: 3476 01bd e078 7a3d 2629 153d c05e fcbc
00000280: 6c75 c53c 34bb ddbc 4ea8 273d d8fa 983c
00000290: c02e 0a3d 40cc d03c dcbd f6bc fe4d 29bd
000002a0: c0cf a93b 32b1 213d e879 7c3d a027 80bc
000002b0: d47d fc3c ec25 773d 74f2 f53c f686 56bd
000002c0: 9cda f3bc 807f 463c 5a33 25bd a261 123d
000002d0: 84ba 0f3d 6cd4 f3bc e048 88bc 9cef 66bd
000002e0: dc7b 9cbc 4833 5fbc fc6a 9bbc bc61 bc3c
000002f0: d25a 52bd 2c84 003d 3c3f bbbc 9803 8bbc
00000300: 9092 253c c63d 2ebd 007f 4a3c 0e70 233d
00000310: 2c9c 37bd 9a33 153d d283 273d 3c15 723d
00000320: 283e a73c d4eb 4e3d 7007 5d3c f887 a0bc
00000330: dcc8 023d 1425 3abd 00b8 b13b 4068 5cbc
00000340: 9c69 a6bc 9069 113c 949b dfbc c0f8 e1bb
00000350: 4078 293c c082 40bb 143b b73c 965b 583d
00000360: 7c95 5fbd 98a4 34bc 905f 363c 84cd d83c
00000370: 4040 883a a438 5d3d 3ce9 3d3d 44ef b2bc
00000380: 0612 00bd 6e5f 783d 66e9 71bd 6e73 1d3d
00000390: 9c67 debc d6c9 5a3d 881a f9bc 34d1 57bd
000003a0: 7085 333c b477 82bc 74f0 9f3c e06f a6bb
000003b0: b047 8e3b ba15 48bd 74bf 62bd 5ae4 1abd
000003c0: f49c bf3c 244d 743d 60a2 4fbb 1c23 cebc
000003d0: 8036 feba fccf 17bd ca10 51bd a068 0b3b
000003e0: 24ff f23c 6c31 81bc 088e f4bc 68f6 813c
000003f0: 6a60 603d 60d2 5e3b 0089 3a3b d047 2dbd
-0.053939193 -0.05599702 -0.062226586 -0.02774334 0.030125283 0.03517195 0.053097367 -0.00429368
0.042258844 -0.025453746 -0.042691924 -0.017950341 -0.037257552 -0.006432764 -0.011395134 0.031877376
0.058905087 -0.0405489 -0.019269563 0.02726791 0.04517491 0.04024805 0.05771453 0.016492248
0.054094575 0.0020509213 0.007389225 -0.018971905 0.029687017 0.053524487 -0.004292585 0.028969541
-0.021641642 -0.03146231 0.0028210431 -0.05638455 -0.0076499954 -0.04236009 -0.05016809 -0.018281631
0.0075269267 0.02223514 -0.05514794 0.034745827 0.029698484 0.00058401376 -0.020901948 0.015343286
0.048061997 0.049353473 0.044001676 0.061349288 -0.0031583458 -0.046941295 0.029829383 0.048812203
-0.016140394 0.030203938 0.005976364 -0.04766397 0.029989615 0.047382884 0.012909681 -0.015733704
-0.00962501 0.02437435 -0.0051438436 -0.026754715 0.049940467 -0.05560574 0.008199893 -0.006356299
0.048564732 -0.042257562 0.035925925 0.05605167 0.04153133 -0.028704494 0.003576465 -0.05560492
0.03635194 -0.058442697 0.01254826 -0.060371906 0.041055366 -0.058485195 0.026420824 -0.0012670606
-0.06228988 -0.05995261 -0.044907443 0.020466886 -0.004059404 0.035385564 -0.047529005 -0.035568684
-0.031153537 -0.041975148 0.034918472 -0.01031933 0.050661966 -0.031515017 0.0068371817 0.018607244
-0.005820751 -0.03212899 -0.0009176582 -0.011343911 0.020833872 0.018334389 -0.0060134083 -0.011475265
0.028541721 0.0007418841 -0.012568615 -0.036398076 -0.016736276 0.028345056 -0.042277448 0.039325073
-0.027482249 0.032814033 0.0076247677 -0.03298062 0.04291489 -0.05060903 0.011854529 0.053362906
-0.004931614 -0.0359343 -0.037368104 0.0038382784 0.008730806 -0.034362398 -0.055629507 -0.02594281
0.01712887 -0.022403814 0.027134992 -0.012893409 0.05451069 -0.015838929 -0.028648041 0.03344859
0.060125194 0.03461881 -0.04633677 0.026336476 -0.044711225 0.059248574 0.049759 -0.042024955
-0.048168756 0.023529112 0.04489863 -0.036523603 -0.031606868 0.06115043 0.036416195 -0.0308069
0.024103843 -0.027066804 0.040931992 0.0186743 0.03373599 0.025488019 -0.030119829 -0.041334145
0.0051822364 0.039475627 0.061639696 -0.015643895 0.030821718 0.0603389 0.030022837 -0.052374803
-0.029767327 0.012115359 -0.040332176 0.03573764 0.035089985 -0.029764377 -0.016636312 -0.056380853
-0.01910203 -0.013623066 -0.018971913 0.022995822 -0.051356144 0.03137605 -0.022857301 -0.016969487
0.010105744 -0.04253938 0.012359381 0.039901786 -0.04482667 0.036426164 0.040897198 0.059102282
0.02041538 0.050517872 0.013490543 -0.019596085 0.031929836 -0.045445517 0.005423546 -0.0134525895
-0.02031403 0.008875266 -0.027295865 -0.0068961084 0.010343611 -0.0029374808 0.022367038 0.05282172
-0.05458592 -0.01102557 0.011131182 0.026465185 0.0010395125 0.054009095 0.046365008 -0.021842606
-0.03126719 0.060637884 -0.059060477 0.03844016 -0.027149014 0.053415142 -0.030408159 -0.052689746
0.010957107 -0.01592622 0.019523837 -0.0050792545 0.004342042 -0.048848845 -0.055358365 -0.03781543
0.02339027 0.05964388 -0.0031682476 -0.025163226 -0.0019394904 -0.037063584 -0.051041402 0.0021272078
0.029662676 -0.015770636 -0.029852882 0.015864566 0.054779448 0.0033999905 0.0028463006 -0.042304814

net.6.bias f4 [3]
00000000: 9050 633c 5c34 06bd d08a e83c
0.013874188 -0.032764778 0.028386503
